2024-11-05 12:58:07,077-PaddleLT-[INFO] ===> log path: /home/aistudio/PaddleTest/framework/e2e/PaddleLT_new/out_2024_11_05_12_58_07_077101.log
2024-11-05 12:58:07,077-PaddleLT-[INFO] ===> LayerTest.__init__ 中 device_place_id is: 0
2024-11-05 12:58:07,077-PaddleLT-[INFO] ===> 测试case名称: ooooo
2024-11-05 12:58:07,078-PaddleLT-[INFO] ===> 测试执行器: dy_eval
W1105 12:58:10.683671 983782 gpu_resources.cc:119] Please NOTE: device: 0, GPU Compute Capability: 7.0, Driver API Version: 12.0, Runtime API Version: 11.8
W1105 12:58:10.684623 983782 gpu_resources.cc:164] device: 0, cuDNN Version: 8.9.
2024-11-05 12:58:10,692-PaddleLT-[INFO] ===> 测试执行器: dy2st_eval_cinn
Splited Program (fwd | bwd): 
ForwardProgram is :
{
    (%0) = "pd_op.data" () {dtype:(pd_op.DataType)int32,name:"_jst.0.var_0.0",place:(pd_op.Place)Place(undefined:0),shape:(pd_op.IntArray)[1],stop_gradient:[true]} : () -> builtin.tensor<1xi32>
    (%1) = "pd_op.data" () {dtype:(pd_op.DataType)int32,name:"_jst.1.var_1.0",place:(pd_op.Place)Place(undefined:0),shape:(pd_op.IntArray)[1],stop_gradient:[true]} : () -> builtin.tensor<1xi32>
    (%2) = "pd_op.data" () {dtype:(pd_op.DataType)float32,name:"_jst.2.var_2.0",place:(pd_op.Place)Place(undefined:0),shape:(pd_op.IntArray)[1,512,97,97],stop_gradient:[false]} : () -> builtin.tensor<1x512x97x97xf32>
    (%3) = "pd_op.data" () {dtype:(pd_op.DataType)int32,name:"_jst.3.var_3.0",place:(pd_op.Place)Place(undefined:0),shape:(pd_op.IntArray)[4],stop_gradient:[true]} : () -> builtin.tensor<4xi32>
    (%4) = "pd_op.data" () {dtype:(pd_op.DataType)int32,name:"_jst.4.var_4.0",place:(pd_op.Place)Place(undefined:0),shape:(pd_op.IntArray)[1],stop_gradient:[true]} : () -> builtin.tensor<1xi32>
    (%5) = "pd_op.data" () {dtype:(pd_op.DataType)int32,name:"_jst.5.var_5.0",place:(pd_op.Place)Place(undefined:0),shape:(pd_op.IntArray)[1],stop_gradient:[true]} : () -> builtin.tensor<1xi32>
    (%6) = "pd_op.full" () {dtype:(pd_op.DataType)int32,place:(pd_op.Place)Place(undefined:0),shape:(pd_op.IntArray)[],stop_gradient:[true],value:(Double)2} : () -> builtin.tensor<i32>
    (%7) = "pd_op.floor_divide" (%0, %6) {stop_gradient:[true]} : (builtin.tensor<1xi32>, builtin.tensor<i32>) -> builtin.tensor<1xi32>
    (%8) = "pd_op.full" () {dtype:(pd_op.DataType)int32,place:(pd_op.Place)Place(undefined:0),shape:(pd_op.IntArray)[],stop_gradient:[true],value:(Double)2} : () -> builtin.tensor<i32>
    (%9) = "pd_op.floor_divide" (%0, %8) {stop_gradient:[true]} : (builtin.tensor<1xi32>, builtin.tensor<i32>) -> builtin.tensor<1xi32>
    (%10) = "pd_op.subtract" (%0, %9) {stop_gradient:[true]} : (builtin.tensor<1xi32>, builtin.tensor<1xi32>) -> builtin.tensor<1xi32>
    (%11) = "pd_op.full" () {dtype:(pd_op.DataType)int32,place:(pd_op.Place)Place(undefined:0),shape:(pd_op.IntArray)[],stop_gradient:[true],value:(Double)2} : () -> builtin.tensor<i32>
    (%12) = "pd_op.floor_divide" (%1, %11) {stop_gradient:[true]} : (builtin.tensor<1xi32>, builtin.tensor<i32>) -> builtin.tensor<1xi32>
    (%13) = "pd_op.full" () {dtype:(pd_op.DataType)int32,place:(pd_op.Place)Place(undefined:0),shape:(pd_op.IntArray)[],stop_gradient:[true],value:(Double)2} : () -> builtin.tensor<i32>
    (%14) = "pd_op.floor_divide" (%1, %13) {stop_gradient:[true]} : (builtin.tensor<1xi32>, builtin.tensor<i32>) -> builtin.tensor<1xi32>
    (%15) = "pd_op.subtract" (%1, %14) {stop_gradient:[true]} : (builtin.tensor<1xi32>, builtin.tensor<1xi32>) -> builtin.tensor<1xi32>
    (%16) = "pd_op.full" () {dtype:(pd_op.DataType)int32,place:(pd_op.Place)Place(cpu),shape:(pd_op.IntArray)[1],stop_gradient:[true],value:(Double)0} : () -> builtin.tensor<1xi32>
    (%17) = "builtin.combine" (%7, %10, %12, %15) {stop_gradient:[true]} : (builtin.tensor<1xi32>, builtin.tensor<1xi32>, builtin.tensor<1xi32>, builtin.tensor<1xi32>) -> vec[builtin.tensor<1xi32>,builtin.tensor<1xi32>,builtin.tensor<1xi32>,builtin.tensor<1xi32>]
    (%18) = "pd_op.concat" (%17, %16) {stop_gradient:[true]} : (vec[builtin.tensor<1xi32>,builtin.tensor<1xi32>,builtin.tensor<1xi32>,builtin.tensor<1xi32>], builtin.tensor<1xi32>) -> builtin.tensor<4xi32>
    (%19) = "pd_op.full" () {dtype:(pd_op.DataType)int32,place:(pd_op.Place)Place(undefined:0),shape:(pd_op.IntArray)[2],stop_gradient:[true],value:(Double)0} : () -> builtin.tensor<2xi32>
    (%20) = "pd_op.full" () {dtype:(pd_op.DataType)int32,place:(pd_op.Place)Place(cpu),shape:(pd_op.IntArray)[1],stop_gradient:[true],value:(Double)0} : () -> builtin.tensor<1xi32>
    (%21) = "builtin.combine" (%18, %19) {stop_gradient:[true]} : (builtin.tensor<4xi32>, builtin.tensor<2xi32>) -> vec[builtin.tensor<4xi32>,builtin.tensor<2xi32>]
    (%22) = "pd_op.concat" (%21, %20) {stop_gradient:[true]} : (vec[builtin.tensor<4xi32>,builtin.tensor<2xi32>], builtin.tensor<1xi32>) -> builtin.tensor<6xi32>
    (%23) = "pd_op.full_int_array" () {dtype:(pd_op.DataType)int64,place:(pd_op.Place)Place(cpu),stop_gradient:[true],value:[(Int64)2]} : () -> builtin.tensor<1xi64>
    (%24) = "pd_op.full_int_array" () {dtype:(pd_op.DataType)int64,place:(pd_op.Place)Place(cpu),stop_gradient:[true],value:[(Int64)1,(Int64)512,(Int64)1,(Int64)97,(Int64)97]} : () -> builtin.tensor<5xi64>
    (%25) = "pd_op.reshape" (%2, %24) {stop_gradient:[false]} : (builtin.tensor<1x512x97x97xf32>, builtin.tensor<5xi64>) -> builtin.tensor<1x512x1x97x97xf32>
    (%26) = "pd_op.pad3d" (%25, %22) {data_format:"NCDHW",mode:"constant",pad_value:(Float)0,stop_gradient:[false]} : (builtin.tensor<1x512x1x97x97xf32>, builtin.tensor<6xi32>) -> builtin.tensor<1x512x-1x-1x-1xf32>
    (%27) = "pd_op.full_int_array" () {dtype:(pd_op.DataType)int64,place:(pd_op.Place)Place(cpu),stop_gradient:[true],value:[(Int64)2]} : () -> builtin.tensor<1xi64>
    (%28) = "pd_op.squeeze" (%26, %27) {stop_gradient:[false]} : (builtin.tensor<1x512x-1x-1x-1xf32>, builtin.tensor<1xi64>) -> builtin.tensor<1x512x-1x-1xf32>
    (%29) = "pd_op.full_int_array" () {dtype:(pd_op.DataType)int64,place:(pd_op.Place)Place(cpu),stop_gradient:[true],value:[(Int64)1]} : () -> builtin.tensor<1xi64>
    (%30) = "pd_op.full_int_array" () {dtype:(pd_op.DataType)int64,place:(pd_op.Place)Place(cpu),stop_gradient:[true],value:[(Int64)2]} : () -> builtin.tensor<1xi64>
    (%31) = "pd_op.slice" (%3, %29, %30) {axes:[(Int64)0],decrease_axis:[(Int64)0],infer_flags:[(Int64)1],stop_gradient:[true]} : (builtin.tensor<4xi32>, builtin.tensor<1xi64>, builtin.tensor<1xi64>) -> builtin.tensor<i32>
    (%32) = "pd_op.full" () {dtype:(pd_op.DataType)int64,place:(pd_op.Place)Place(cpu),shape:(pd_op.IntArray)[],stop_gradient:[true],value:(Double)0} : () -> builtin.tensor<i64>
    (%33) = "pd_op.cast" (%31) {dtype:(pd_op.DataType)int64,stop_gradient:[true]} : (builtin.tensor<i32>) -> builtin.tensor<i64>
    (%34) = "pd_op.cast" (%4) {dtype:(pd_op.DataType)int64,stop_gradient:[true]} : (builtin.tensor<1xi32>) -> builtin.tensor<1xi64>
    (%35) = "pd_op.full_int_array" () {dtype:(pd_op.DataType)int64,place:(pd_op.Place)Place(cpu),stop_gradient:[true],value:[]} : () -> builtin.tensor<0xi64>
    (%36) = "pd_op.reshape" (%34, %35) {stop_gradient:[true]} : (builtin.tensor<1xi64>, builtin.tensor<0xi64>) -> builtin.tensor<i64>
    (%37) = "pd_op.full" () {dtype:(pd_op.DataType)int64,place:(pd_op.Place)Place(cpu),shape:(pd_op.IntArray)[],stop_gradient:[true],value:(Double)8} : () -> builtin.tensor<i64>
    (%38) = "pd_op.cast" (%5) {dtype:(pd_op.DataType)int64,stop_gradient:[true]} : (builtin.tensor<1xi32>) -> builtin.tensor<1xi64>
    (%39) = "pd_op.full_int_array" () {dtype:(pd_op.DataType)int64,place:(pd_op.Place)Place(cpu),stop_gradient:[true],value:[]} : () -> builtin.tensor<0xi64>
    (%40) = "pd_op.reshape" (%38, %39) {stop_gradient:[true]} : (builtin.tensor<1xi64>, builtin.tensor<0xi64>) -> builtin.tensor<i64>
    (%41) = "pd_op.full" () {dtype:(pd_op.DataType)int64,place:(pd_op.Place)Place(cpu),shape:(pd_op.IntArray)[],stop_gradient:[true],value:(Double)8} : () -> builtin.tensor<i64>
    (%42) = "builtin.combine" (%32, %33, %36, %37, %40, %41) {stop_gradient:[true]} : (builtin.tensor<i64>, builtin.tensor<i64>, builtin.tensor<i64>, builtin.tensor<i64>, builtin.tensor<i64>, builtin.tensor<i64>) -> vec[builtin.tensor<i64>,builtin.tensor<i64>,builtin.tensor<i64>,builtin.tensor<i64>,builtin.tensor<i64>,builtin.tensor<i64>]
    (%43) = "pd_op.full_int_array" () {dtype:(pd_op.DataType)int64,place:(pd_op.Place)Place(cpu),stop_gradient:[true],value:[(Int64)1]} : () -> builtin.tensor<1xi64>
    (%44) = "pd_op.reshape" (%32, %43) {stop_gradient:[true]} : (builtin.tensor<i64>, builtin.tensor<1xi64>) -> builtin.tensor<1xi64>
    (%45) = "pd_op.full_int_array" () {dtype:(pd_op.DataType)int64,place:(pd_op.Place)Place(cpu),stop_gradient:[true],value:[(Int64)1]} : () -> builtin.tensor<1xi64>
    (%46) = "pd_op.reshape" (%33, %45) {stop_gradient:[true]} : (builtin.tensor<i64>, builtin.tensor<1xi64>) -> builtin.tensor<1xi64>
    (%47) = "pd_op.full_int_array" () {dtype:(pd_op.DataType)int64,place:(pd_op.Place)Place(cpu),stop_gradient:[true],value:[(Int64)1]} : () -> builtin.tensor<1xi64>
    (%48) = "pd_op.reshape" (%36, %47) {stop_gradient:[true]} : (builtin.tensor<i64>, builtin.tensor<1xi64>) -> builtin.tensor<1xi64>
    (%49) = "pd_op.full_int_array" () {dtype:(pd_op.DataType)int64,place:(pd_op.Place)Place(cpu),stop_gradient:[true],value:[(Int64)1]} : () -> builtin.tensor<1xi64>
    (%50) = "pd_op.reshape" (%37, %49) {stop_gradient:[true]} : (builtin.tensor<i64>, builtin.tensor<1xi64>) -> builtin.tensor<1xi64>
    (%51) = "pd_op.full_int_array" () {dtype:(pd_op.DataType)int64,place:(pd_op.Place)Place(cpu),stop_gradient:[true],value:[(Int64)1]} : () -> builtin.tensor<1xi64>
    (%52) = "pd_op.reshape" (%40, %51) {stop_gradient:[true]} : (builtin.tensor<i64>, builtin.tensor<1xi64>) -> builtin.tensor<1xi64>
    (%53) = "pd_op.full_int_array" () {dtype:(pd_op.DataType)int64,place:(pd_op.Place)Place(cpu),stop_gradient:[true],value:[(Int64)1]} : () -> builtin.tensor<1xi64>
    (%54) = "pd_op.reshape" (%41, %53) {stop_gradient:[true]} : (builtin.tensor<i64>, builtin.tensor<1xi64>) -> builtin.tensor<1xi64>
    (%55) = "builtin.combine" (%44, %46, %48, %50, %52, %54) {stop_gradient:[true]} : (builtin.tensor<1xi64>, builtin.tensor<1xi64>, builtin.tensor<1xi64>, builtin.tensor<1xi64>, builtin.tensor<1xi64>, builtin.tensor<1xi64>) -> vec[builtin.tensor<1xi64>,builtin.tensor<1xi64>,builtin.tensor<1xi64>,builtin.tensor<1xi64>,builtin.tensor<1xi64>,builtin.tensor<1xi64>]
    (%56) = "pd_op.full" () {dtype:(pd_op.DataType)int32,place:(pd_op.Place)Place(cpu),shape:(pd_op.IntArray)[1],stop_gradient:[true],value:(Double)0} : () -> builtin.tensor<1xi32>
    (%57) = "pd_op.concat" (%55, %56) {stop_gradient:[true]} : (vec[builtin.tensor<1xi64>,builtin.tensor<1xi64>,builtin.tensor<1xi64>,builtin.tensor<1xi64>,builtin.tensor<1xi64>,builtin.tensor<1xi64>], builtin.tensor<1xi32>) -> builtin.tensor<6xi64>
    (%58) = "pd_op.reshape" (%28, %57) {stop_gradient:[false]} : (builtin.tensor<1x512x-1x-1xf32>, builtin.tensor<6xi64>) -> builtin.tensor<1x-1x-1x8x-1x8xf32>
    (%59) = "pd_op.transpose" (%58) {perm:[(Int32)0,(Int32)3,(Int32)5,(Int32)1,(Int32)2,(Int32)4],stop_gradient:[false]} : (builtin.tensor<1x-1x-1x8x-1x8xf32>) -> builtin.tensor<1x8x8x-1x-1x-1xf32>
    (%60) = "pd_op.full" () {dtype:(pd_op.DataType)int64,place:(pd_op.Place)Place(cpu),shape:(pd_op.IntArray)[],stop_gradient:[true],value:(Double)-1} : () -> builtin.tensor<i64>
    (%61) = "pd_op.full" () {dtype:(pd_op.DataType)int64,place:(pd_op.Place)Place(cpu),shape:(pd_op.IntArray)[],stop_gradient:[true],value:(Double)512} : () -> builtin.tensor<i64>
    (%62) = "pd_op.cast" (%4) {dtype:(pd_op.DataType)int64,stop_gradient:[true]} : (builtin.tensor<1xi32>) -> builtin.tensor<1xi64>
    (%63) = "pd_op.full_int_array" () {dtype:(pd_op.DataType)int64,place:(pd_op.Place)Place(cpu),stop_gradient:[true],value:[]} : () -> builtin.tensor<0xi64>
    (%64) = "pd_op.reshape" (%62, %63) {stop_gradient:[true]} : (builtin.tensor<1xi64>, builtin.tensor<0xi64>) -> builtin.tensor<i64>
    (%65) = "pd_op.cast" (%5) {dtype:(pd_op.DataType)int64,stop_gradient:[true]} : (builtin.tensor<1xi32>) -> builtin.tensor<1xi64>
    (%66) = "pd_op.full_int_array" () {dtype:(pd_op.DataType)int64,place:(pd_op.Place)Place(cpu),stop_gradient:[true],value:[]} : () -> builtin.tensor<0xi64>
    (%67) = "pd_op.reshape" (%65, %66) {stop_gradient:[true]} : (builtin.tensor<1xi64>, builtin.tensor<0xi64>) -> builtin.tensor<i64>
    (%68) = "builtin.combine" (%60, %61, %64, %67) {stop_gradient:[true]} : (builtin.tensor<i64>, builtin.tensor<i64>, builtin.tensor<i64>, builtin.tensor<i64>) -> vec[builtin.tensor<i64>,builtin.tensor<i64>,builtin.tensor<i64>,builtin.tensor<i64>]
    (%69) = "pd_op.full_int_array" () {dtype:(pd_op.DataType)int64,place:(pd_op.Place)Place(cpu),stop_gradient:[true],value:[(Int64)1]} : () -> builtin.tensor<1xi64>
    (%70) = "pd_op.reshape" (%60, %69) {stop_gradient:[true]} : (builtin.tensor<i64>, builtin.tensor<1xi64>) -> builtin.tensor<1xi64>
    (%71) = "pd_op.full_int_array" () {dtype:(pd_op.DataType)int64,place:(pd_op.Place)Place(cpu),stop_gradient:[true],value:[(Int64)1]} : () -> builtin.tensor<1xi64>
    (%72) = "pd_op.reshape" (%61, %71) {stop_gradient:[true]} : (builtin.tensor<i64>, builtin.tensor<1xi64>) -> builtin.tensor<1xi64>
    (%73) = "pd_op.full_int_array" () {dtype:(pd_op.DataType)int64,place:(pd_op.Place)Place(cpu),stop_gradient:[true],value:[(Int64)1]} : () -> builtin.tensor<1xi64>
    (%74) = "pd_op.reshape" (%64, %73) {stop_gradient:[true]} : (builtin.tensor<i64>, builtin.tensor<1xi64>) -> builtin.tensor<1xi64>
    (%75) = "pd_op.full_int_array" () {dtype:(pd_op.DataType)int64,place:(pd_op.Place)Place(cpu),stop_gradient:[true],value:[(Int64)1]} : () -> builtin.tensor<1xi64>
    (%76) = "pd_op.reshape" (%67, %75) {stop_gradient:[true]} : (builtin.tensor<i64>, builtin.tensor<1xi64>) -> builtin.tensor<1xi64>
    (%77) = "builtin.combine" (%70, %72, %74, %76) {stop_gradient:[true]} : (builtin.tensor<1xi64>, builtin.tensor<1xi64>, builtin.tensor<1xi64>, builtin.tensor<1xi64>) -> vec[builtin.tensor<1xi64>,builtin.tensor<1xi64>,builtin.tensor<1xi64>,builtin.tensor<1xi64>]
    (%78) = "pd_op.full" () {dtype:(pd_op.DataType)int32,place:(pd_op.Place)Place(cpu),shape:(pd_op.IntArray)[1],stop_gradient:[true],value:(Double)0} : () -> builtin.tensor<1xi32>
    (%79) = "pd_op.concat" (%77, %78) {stop_gradient:[true]} : (vec[builtin.tensor<1xi64>,builtin.tensor<1xi64>,builtin.tensor<1xi64>,builtin.tensor<1xi64>], builtin.tensor<1xi32>) -> builtin.tensor<4xi64>
    (%80) = "pd_op.reshape" (%59, %79) {stop_gradient:[false]} : (builtin.tensor<1x8x8x-1x-1x-1xf32>, builtin.tensor<4xi64>) -> builtin.tensor<-1x512x-1x-1xf32>
    () = "builtin.shadow_output" (%80) {output_name:"output_0"} : (builtin.tensor<-1x512x-1x-1xf32>) -> 
}
BackwardProgram is:
{
}

IR After CommonSubexpressionEliminationPass -------------------
{
    (%0) = "pd_op.data" () {dtype:(pd_op.DataType)int32,name:"_jst.0.var_0.0",place:(pd_op.Place)Place(undefined:0),shape:(pd_op.IntArray)[1],stop_gradient:[true]} : () -> builtin.tensor<1xi32>
    (%1) = "pd_op.data" () {dtype:(pd_op.DataType)int32,name:"_jst.1.var_1.0",place:(pd_op.Place)Place(undefined:0),shape:(pd_op.IntArray)[1],stop_gradient:[true]} : () -> builtin.tensor<1xi32>
    (%2) = "pd_op.data" () {dtype:(pd_op.DataType)float32,name:"_jst.2.var_2.0",place:(pd_op.Place)Place(undefined:0),shape:(pd_op.IntArray)[1,512,97,97],stop_gradient:[false]} : () -> builtin.tensor<1x512x97x97xf32>
    (%3) = "pd_op.data" () {dtype:(pd_op.DataType)int32,name:"_jst.3.var_3.0",place:(pd_op.Place)Place(undefined:0),shape:(pd_op.IntArray)[4],stop_gradient:[true]} : () -> builtin.tensor<4xi32>
    (%4) = "pd_op.data" () {dtype:(pd_op.DataType)int32,name:"_jst.4.var_4.0",place:(pd_op.Place)Place(undefined:0),shape:(pd_op.IntArray)[1],stop_gradient:[true]} : () -> builtin.tensor<1xi32>
    (%5) = "pd_op.data" () {dtype:(pd_op.DataType)int32,name:"_jst.5.var_5.0",place:(pd_op.Place)Place(undefined:0),shape:(pd_op.IntArray)[1],stop_gradient:[true]} : () -> builtin.tensor<1xi32>
    (%6) = "pd_op.full" () {dtype:(pd_op.DataType)int32,place:(pd_op.Place)Place(undefined:0),shape:(pd_op.IntArray)[],stop_gradient:[true],value:(Double)2} : () -> builtin.tensor<i32>
    (%7) = "pd_op.floor_divide" (%0, %6) {stop_gradient:[true]} : (builtin.tensor<1xi32>, builtin.tensor<i32>) -> builtin.tensor<1xi32>
    (%8) = "pd_op.subtract" (%0, %7) {stop_gradient:[true]} : (builtin.tensor<1xi32>, builtin.tensor<1xi32>) -> builtin.tensor<1xi32>
    (%9) = "pd_op.floor_divide" (%1, %6) {stop_gradient:[true]} : (builtin.tensor<1xi32>, builtin.tensor<i32>) -> builtin.tensor<1xi32>
    (%10) = "pd_op.subtract" (%1, %9) {stop_gradient:[true]} : (builtin.tensor<1xi32>, builtin.tensor<1xi32>) -> builtin.tensor<1xi32>
    (%11) = "pd_op.full" () {dtype:(pd_op.DataType)int32,place:(pd_op.Place)Place(cpu),shape:(pd_op.IntArray)[1],stop_gradient:[true],value:(Double)0} : () -> builtin.tensor<1xi32>
    (%12) = "builtin.combine" (%7, %8, %9, %10) {stop_gradient:[true]} : (builtin.tensor<1xi32>, builtin.tensor<1xi32>, builtin.tensor<1xi32>, builtin.tensor<1xi32>) -> vec[builtin.tensor<1xi32>,builtin.tensor<1xi32>,builtin.tensor<1xi32>,builtin.tensor<1xi32>]
    (%13) = "pd_op.concat" (%12, %11) {stop_gradient:[true]} : (vec[builtin.tensor<1xi32>,builtin.tensor<1xi32>,builtin.tensor<1xi32>,builtin.tensor<1xi32>], builtin.tensor<1xi32>) -> builtin.tensor<4xi32>
    (%14) = "pd_op.full" () {dtype:(pd_op.DataType)int32,place:(pd_op.Place)Place(undefined:0),shape:(pd_op.IntArray)[2],stop_gradient:[true],value:(Double)0} : () -> builtin.tensor<2xi32>
    (%15) = "builtin.combine" (%13, %14) {stop_gradient:[true]} : (builtin.tensor<4xi32>, builtin.tensor<2xi32>) -> vec[builtin.tensor<4xi32>,builtin.tensor<2xi32>]
    (%16) = "pd_op.concat" (%15, %11) {stop_gradient:[true]} : (vec[builtin.tensor<4xi32>,builtin.tensor<2xi32>], builtin.tensor<1xi32>) -> builtin.tensor<6xi32>
    (%17) = "pd_op.full_int_array" () {dtype:(pd_op.DataType)int64,place:(pd_op.Place)Place(cpu),stop_gradient:[true],value:[(Int64)2]} : () -> builtin.tensor<1xi64>
    (%18) = "pd_op.full_int_array" () {dtype:(pd_op.DataType)int64,place:(pd_op.Place)Place(cpu),stop_gradient:[true],value:[(Int64)1,(Int64)512,(Int64)1,(Int64)97,(Int64)97]} : () -> builtin.tensor<5xi64>
    (%19) = "pd_op.reshape" (%2, %18) {stop_gradient:[false]} : (builtin.tensor<1x512x97x97xf32>, builtin.tensor<5xi64>) -> builtin.tensor<1x512x1x97x97xf32>
    (%20) = "pd_op.pad3d" (%19, %16) {data_format:"NCDHW",mode:"constant",pad_value:(Float)0,stop_gradient:[false]} : (builtin.tensor<1x512x1x97x97xf32>, builtin.tensor<6xi32>) -> builtin.tensor<1x512x-1x-1x-1xf32>
    (%21) = "pd_op.squeeze" (%20, %17) {stop_gradient:[false]} : (builtin.tensor<1x512x-1x-1x-1xf32>, builtin.tensor<1xi64>) -> builtin.tensor<1x512x-1x-1xf32>
    (%22) = "pd_op.full_int_array" () {dtype:(pd_op.DataType)int64,place:(pd_op.Place)Place(cpu),stop_gradient:[true],value:[(Int64)1]} : () -> builtin.tensor<1xi64>
    (%23) = "pd_op.slice" (%3, %22, %17) {axes:[(Int64)0],decrease_axis:[(Int64)0],infer_flags:[(Int64)1],stop_gradient:[true]} : (builtin.tensor<4xi32>, builtin.tensor<1xi64>, builtin.tensor<1xi64>) -> builtin.tensor<i32>
    (%24) = "pd_op.full" () {dtype:(pd_op.DataType)int64,place:(pd_op.Place)Place(cpu),shape:(pd_op.IntArray)[],stop_gradient:[true],value:(Double)0} : () -> builtin.tensor<i64>
    (%25) = "pd_op.cast" (%23) {dtype:(pd_op.DataType)int64,stop_gradient:[true]} : (builtin.tensor<i32>) -> builtin.tensor<i64>
    (%26) = "pd_op.cast" (%4) {dtype:(pd_op.DataType)int64,stop_gradient:[true]} : (builtin.tensor<1xi32>) -> builtin.tensor<1xi64>
    (%27) = "pd_op.full_int_array" () {dtype:(pd_op.DataType)int64,place:(pd_op.Place)Place(cpu),stop_gradient:[true],value:[]} : () -> builtin.tensor<0xi64>
    (%28) = "pd_op.reshape" (%26, %27) {stop_gradient:[true]} : (builtin.tensor<1xi64>, builtin.tensor<0xi64>) -> builtin.tensor<i64>
    (%29) = "pd_op.full" () {dtype:(pd_op.DataType)int64,place:(pd_op.Place)Place(cpu),shape:(pd_op.IntArray)[],stop_gradient:[true],value:(Double)8} : () -> builtin.tensor<i64>
    (%30) = "pd_op.cast" (%5) {dtype:(pd_op.DataType)int64,stop_gradient:[true]} : (builtin.tensor<1xi32>) -> builtin.tensor<1xi64>
    (%31) = "pd_op.reshape" (%30, %27) {stop_gradient:[true]} : (builtin.tensor<1xi64>, builtin.tensor<0xi64>) -> builtin.tensor<i64>
    (%32) = "builtin.combine" (%24, %25, %28, %29, %31, %29) {stop_gradient:[true]} : (builtin.tensor<i64>, builtin.tensor<i64>, builtin.tensor<i64>, builtin.tensor<i64>, builtin.tensor<i64>, builtin.tensor<i64>) -> vec[builtin.tensor<i64>,builtin.tensor<i64>,builtin.tensor<i64>,builtin.tensor<i64>,builtin.tensor<i64>,builtin.tensor<i64>]
    (%33) = "pd_op.reshape" (%24, %22) {stop_gradient:[true]} : (builtin.tensor<i64>, builtin.tensor<1xi64>) -> builtin.tensor<1xi64>
    (%34) = "pd_op.reshape" (%25, %22) {stop_gradient:[true]} : (builtin.tensor<i64>, builtin.tensor<1xi64>) -> builtin.tensor<1xi64>
    (%35) = "pd_op.reshape" (%28, %22) {stop_gradient:[true]} : (builtin.tensor<i64>, builtin.tensor<1xi64>) -> builtin.tensor<1xi64>
    (%36) = "pd_op.reshape" (%29, %22) {stop_gradient:[true]} : (builtin.tensor<i64>, builtin.tensor<1xi64>) -> builtin.tensor<1xi64>
    (%37) = "pd_op.reshape" (%31, %22) {stop_gradient:[true]} : (builtin.tensor<i64>, builtin.tensor<1xi64>) -> builtin.tensor<1xi64>
    (%38) = "builtin.combine" (%33, %34, %35, %36, %37, %36) {stop_gradient:[true]} : (builtin.tensor<1xi64>, builtin.tensor<1xi64>, builtin.tensor<1xi64>, builtin.tensor<1xi64>, builtin.tensor<1xi64>, builtin.tensor<1xi64>) -> vec[builtin.tensor<1xi64>,builtin.tensor<1xi64>,builtin.tensor<1xi64>,builtin.tensor<1xi64>,builtin.tensor<1xi64>,builtin.tensor<1xi64>]
    (%39) = "pd_op.concat" (%38, %11) {stop_gradient:[true]} : (vec[builtin.tensor<1xi64>,builtin.tensor<1xi64>,builtin.tensor<1xi64>,builtin.tensor<1xi64>,builtin.tensor<1xi64>,builtin.tensor<1xi64>], builtin.tensor<1xi32>) -> builtin.tensor<6xi64>
    (%40) = "pd_op.reshape" (%21, %39) {stop_gradient:[false]} : (builtin.tensor<1x512x-1x-1xf32>, builtin.tensor<6xi64>) -> builtin.tensor<1x-1x-1x8x-1x8xf32>
    (%41) = "pd_op.transpose" (%40) {perm:[(Int32)0,(Int32)3,(Int32)5,(Int32)1,(Int32)2,(Int32)4],stop_gradient:[false]} : (builtin.tensor<1x-1x-1x8x-1x8xf32>) -> builtin.tensor<1x8x8x-1x-1x-1xf32>
    (%42) = "pd_op.full" () {dtype:(pd_op.DataType)int64,place:(pd_op.Place)Place(cpu),shape:(pd_op.IntArray)[],stop_gradient:[true],value:(Double)-1} : () -> builtin.tensor<i64>
    (%43) = "pd_op.full" () {dtype:(pd_op.DataType)int64,place:(pd_op.Place)Place(cpu),shape:(pd_op.IntArray)[],stop_gradient:[true],value:(Double)512} : () -> builtin.tensor<i64>
    (%44) = "builtin.combine" (%42, %43, %28, %31) {stop_gradient:[true]} : (builtin.tensor<i64>, builtin.tensor<i64>, builtin.tensor<i64>, builtin.tensor<i64>) -> vec[builtin.tensor<i64>,builtin.tensor<i64>,builtin.tensor<i64>,builtin.tensor<i64>]
    (%45) = "pd_op.reshape" (%42, %22) {stop_gradient:[true]} : (builtin.tensor<i64>, builtin.tensor<1xi64>) -> builtin.tensor<1xi64>
    (%46) = "pd_op.reshape" (%43, %22) {stop_gradient:[true]} : (builtin.tensor<i64>, builtin.tensor<1xi64>) -> builtin.tensor<1xi64>
    (%47) = "builtin.combine" (%45, %46, %35, %37) {stop_gradient:[true]} : (builtin.tensor<1xi64>, builtin.tensor<1xi64>, builtin.tensor<1xi64>, builtin.tensor<1xi64>) -> vec[builtin.tensor<1xi64>,builtin.tensor<1xi64>,builtin.tensor<1xi64>,builtin.tensor<1xi64>]
    (%48) = "pd_op.concat" (%47, %11) {stop_gradient:[true]} : (vec[builtin.tensor<1xi64>,builtin.tensor<1xi64>,builtin.tensor<1xi64>,builtin.tensor<1xi64>], builtin.tensor<1xi32>) -> builtin.tensor<4xi64>
    (%49) = "pd_op.reshape" (%41, %48) {stop_gradient:[false]} : (builtin.tensor<1x8x8x-1x-1x-1xf32>, builtin.tensor<4xi64>) -> builtin.tensor<-1x512x-1x-1xf32>
    () = "builtin.shadow_output" (%49) {output_name:"output_0"} : (builtin.tensor<-1x512x-1x-1xf32>) -> 
}

===--------------------------------------------------------------------------===
        IRPrinting on builtin.module before shape_optimization_pass pass
===--------------------------------------------------------------------------===
{
    (%0) = "pd_op.data" () {dtype:(pd_op.DataType)int32,name:"_jst.0.var_0.0",place:(pd_op.Place)Place(undefined:0),shape:(pd_op.IntArray)[1],stop_gradient:[true]} : () -> builtin.tensor<1xi32>
    (%1) = "pd_op.data" () {dtype:(pd_op.DataType)int32,name:"_jst.1.var_1.0",place:(pd_op.Place)Place(undefined:0),shape:(pd_op.IntArray)[1],stop_gradient:[true]} : () -> builtin.tensor<1xi32>
    (%2) = "pd_op.data" () {dtype:(pd_op.DataType)float32,name:"_jst.2.var_2.0",place:(pd_op.Place)Place(undefined:0),shape:(pd_op.IntArray)[1,512,97,97],stop_gradient:[false]} : () -> builtin.tensor<1x512x97x97xf32>
    (%3) = "pd_op.data" () {dtype:(pd_op.DataType)int32,name:"_jst.3.var_3.0",place:(pd_op.Place)Place(undefined:0),shape:(pd_op.IntArray)[4],stop_gradient:[true]} : () -> builtin.tensor<4xi32>
    (%4) = "pd_op.data" () {dtype:(pd_op.DataType)int32,name:"_jst.4.var_4.0",place:(pd_op.Place)Place(undefined:0),shape:(pd_op.IntArray)[1],stop_gradient:[true]} : () -> builtin.tensor<1xi32>
    (%5) = "pd_op.data" () {dtype:(pd_op.DataType)int32,name:"_jst.5.var_5.0",place:(pd_op.Place)Place(undefined:0),shape:(pd_op.IntArray)[1],stop_gradient:[true]} : () -> builtin.tensor<1xi32>
    (%6) = "pd_op.full" () {dtype:(pd_op.DataType)int32,place:(pd_op.Place)Place(undefined:0),shape:(pd_op.IntArray)[],stop_gradient:[true],value:(Double)2} : () -> builtin.tensor<i32>
    (%7) = "pd_op.floor_divide" (%0, %6) {stop_gradient:[true]} : (builtin.tensor<1xi32>, builtin.tensor<i32>) -> builtin.tensor<1xi32>
    (%8) = "pd_op.subtract" (%0, %7) {stop_gradient:[true]} : (builtin.tensor<1xi32>, builtin.tensor<1xi32>) -> builtin.tensor<1xi32>
    (%9) = "pd_op.floor_divide" (%1, %6) {stop_gradient:[true]} : (builtin.tensor<1xi32>, builtin.tensor<i32>) -> builtin.tensor<1xi32>
    (%10) = "pd_op.subtract" (%1, %9) {stop_gradient:[true]} : (builtin.tensor<1xi32>, builtin.tensor<1xi32>) -> builtin.tensor<1xi32>
    (%11) = "pd_op.full" () {dtype:(pd_op.DataType)int32,place:(pd_op.Place)Place(cpu),shape:(pd_op.IntArray)[1],stop_gradient:[true],value:(Double)0} : () -> builtin.tensor<1xi32>
    (%12) = "builtin.combine" (%7, %8, %9, %10) {stop_gradient:[true]} : (builtin.tensor<1xi32>, builtin.tensor<1xi32>, builtin.tensor<1xi32>, builtin.tensor<1xi32>) -> vec[builtin.tensor<1xi32>,builtin.tensor<1xi32>,builtin.tensor<1xi32>,builtin.tensor<1xi32>]
    (%13) = "pd_op.concat" (%12, %11) {stop_gradient:[true]} : (vec[builtin.tensor<1xi32>,builtin.tensor<1xi32>,builtin.tensor<1xi32>,builtin.tensor<1xi32>], builtin.tensor<1xi32>) -> builtin.tensor<4xi32>
    (%14) = "pd_op.full" () {dtype:(pd_op.DataType)int32,place:(pd_op.Place)Place(undefined:0),shape:(pd_op.IntArray)[2],stop_gradient:[true],value:(Double)0} : () -> builtin.tensor<2xi32>
    (%15) = "builtin.combine" (%13, %14) {stop_gradient:[true]} : (builtin.tensor<4xi32>, builtin.tensor<2xi32>) -> vec[builtin.tensor<4xi32>,builtin.tensor<2xi32>]
    (%16) = "pd_op.concat" (%15, %11) {stop_gradient:[true]} : (vec[builtin.tensor<4xi32>,builtin.tensor<2xi32>], builtin.tensor<1xi32>) -> builtin.tensor<6xi32>
    (%17) = "pd_op.full_int_array" () {dtype:(pd_op.DataType)int64,place:(pd_op.Place)Place(cpu),stop_gradient:[true],value:[(Int64)2]} : () -> builtin.tensor<1xi64>
    (%18) = "pd_op.full_int_array" () {dtype:(pd_op.DataType)int64,place:(pd_op.Place)Place(cpu),stop_gradient:[true],value:[(Int64)1,(Int64)512,(Int64)1,(Int64)97,(Int64)97]} : () -> builtin.tensor<5xi64>
    (%19) = "pd_op.reshape" (%2, %18) {stop_gradient:[false]} : (builtin.tensor<1x512x97x97xf32>, builtin.tensor<5xi64>) -> builtin.tensor<1x512x1x97x97xf32>
    (%20) = "pd_op.pad3d" (%19, %16) {data_format:"NCDHW",mode:"constant",pad_value:(Float)0,stop_gradient:[false]} : (builtin.tensor<1x512x1x97x97xf32>, builtin.tensor<6xi32>) -> builtin.tensor<1x512x-1x-1x-1xf32>
    (%21) = "pd_op.squeeze" (%20, %17) {stop_gradient:[false]} : (builtin.tensor<1x512x-1x-1x-1xf32>, builtin.tensor<1xi64>) -> builtin.tensor<1x512x-1x-1xf32>
    (%22) = "pd_op.full_int_array" () {dtype:(pd_op.DataType)int64,place:(pd_op.Place)Place(cpu),stop_gradient:[true],value:[(Int64)1]} : () -> builtin.tensor<1xi64>
    (%23) = "pd_op.slice" (%3, %22, %17) {axes:[(Int64)0],decrease_axis:[(Int64)0],infer_flags:[(Int64)1],stop_gradient:[true]} : (builtin.tensor<4xi32>, builtin.tensor<1xi64>, builtin.tensor<1xi64>) -> builtin.tensor<i32>
    (%24) = "pd_op.full" () {dtype:(pd_op.DataType)int64,place:(pd_op.Place)Place(cpu),shape:(pd_op.IntArray)[],stop_gradient:[true],value:(Double)0} : () -> builtin.tensor<i64>
    (%25) = "pd_op.cast" (%23) {dtype:(pd_op.DataType)int64,stop_gradient:[true]} : (builtin.tensor<i32>) -> builtin.tensor<i64>
    (%26) = "pd_op.cast" (%4) {dtype:(pd_op.DataType)int64,stop_gradient:[true]} : (builtin.tensor<1xi32>) -> builtin.tensor<1xi64>
    (%27) = "pd_op.full_int_array" () {dtype:(pd_op.DataType)int64,place:(pd_op.Place)Place(cpu),stop_gradient:[true],value:[]} : () -> builtin.tensor<0xi64>
    (%28) = "pd_op.reshape" (%26, %27) {stop_gradient:[true]} : (builtin.tensor<1xi64>, builtin.tensor<0xi64>) -> builtin.tensor<i64>
    (%29) = "pd_op.full" () {dtype:(pd_op.DataType)int64,place:(pd_op.Place)Place(cpu),shape:(pd_op.IntArray)[],stop_gradient:[true],value:(Double)8} : () -> builtin.tensor<i64>
    (%30) = "pd_op.cast" (%5) {dtype:(pd_op.DataType)int64,stop_gradient:[true]} : (builtin.tensor<1xi32>) -> builtin.tensor<1xi64>
    (%31) = "pd_op.reshape" (%30, %27) {stop_gradient:[true]} : (builtin.tensor<1xi64>, builtin.tensor<0xi64>) -> builtin.tensor<i64>
    (%32) = "builtin.combine" (%24, %25, %28, %29, %31, %29) {stop_gradient:[true]} : (builtin.tensor<i64>, builtin.tensor<i64>, builtin.tensor<i64>, builtin.tensor<i64>, builtin.tensor<i64>, builtin.tensor<i64>) -> vec[builtin.tensor<i64>,builtin.tensor<i64>,builtin.tensor<i64>,builtin.tensor<i64>,builtin.tensor<i64>,builtin.tensor<i64>]
    (%33) = "pd_op.reshape" (%24, %22) {stop_gradient:[true]} : (builtin.tensor<i64>, builtin.tensor<1xi64>) -> builtin.tensor<1xi64>
    (%34) = "pd_op.reshape" (%25, %22) {stop_gradient:[true]} : (builtin.tensor<i64>, builtin.tensor<1xi64>) -> builtin.tensor<1xi64>
    (%35) = "pd_op.reshape" (%28, %22) {stop_gradient:[true]} : (builtin.tensor<i64>, builtin.tensor<1xi64>) -> builtin.tensor<1xi64>
    (%36) = "pd_op.reshape" (%29, %22) {stop_gradient:[true]} : (builtin.tensor<i64>, builtin.tensor<1xi64>) -> builtin.tensor<1xi64>
    (%37) = "pd_op.reshape" (%31, %22) {stop_gradient:[true]} : (builtin.tensor<i64>, builtin.tensor<1xi64>) -> builtin.tensor<1xi64>
    (%38) = "builtin.combine" (%33, %34, %35, %36, %37, %36) {stop_gradient:[true]} : (builtin.tensor<1xi64>, builtin.tensor<1xi64>, builtin.tensor<1xi64>, builtin.tensor<1xi64>, builtin.tensor<1xi64>, builtin.tensor<1xi64>) -> vec[builtin.tensor<1xi64>,builtin.tensor<1xi64>,builtin.tensor<1xi64>,builtin.tensor<1xi64>,builtin.tensor<1xi64>,builtin.tensor<1xi64>]
    (%39) = "pd_op.concat" (%38, %11) {stop_gradient:[true]} : (vec[builtin.tensor<1xi64>,builtin.tensor<1xi64>,builtin.tensor<1xi64>,builtin.tensor<1xi64>,builtin.tensor<1xi64>,builtin.tensor<1xi64>], builtin.tensor<1xi32>) -> builtin.tensor<6xi64>
    (%40) = "pd_op.reshape" (%21, %39) {stop_gradient:[false]} : (builtin.tensor<1x512x-1x-1xf32>, builtin.tensor<6xi64>) -> builtin.tensor<1x-1x-1x8x-1x8xf32>
    (%41) = "pd_op.transpose" (%40) {perm:[(Int32)0,(Int32)3,(Int32)5,(Int32)1,(Int32)2,(Int32)4],stop_gradient:[false]} : (builtin.tensor<1x-1x-1x8x-1x8xf32>) -> builtin.tensor<1x8x8x-1x-1x-1xf32>
    (%42) = "pd_op.full" () {dtype:(pd_op.DataType)int64,place:(pd_op.Place)Place(cpu),shape:(pd_op.IntArray)[],stop_gradient:[true],value:(Double)-1} : () -> builtin.tensor<i64>
    (%43) = "pd_op.full" () {dtype:(pd_op.DataType)int64,place:(pd_op.Place)Place(cpu),shape:(pd_op.IntArray)[],stop_gradient:[true],value:(Double)512} : () -> builtin.tensor<i64>
    (%44) = "builtin.combine" (%42, %43, %28, %31) {stop_gradient:[true]} : (builtin.tensor<i64>, builtin.tensor<i64>, builtin.tensor<i64>, builtin.tensor<i64>) -> vec[builtin.tensor<i64>,builtin.tensor<i64>,builtin.tensor<i64>,builtin.tensor<i64>]
    (%45) = "pd_op.reshape" (%42, %22) {stop_gradient:[true]} : (builtin.tensor<i64>, builtin.tensor<1xi64>) -> builtin.tensor<1xi64>
    (%46) = "pd_op.reshape" (%43, %22) {stop_gradient:[true]} : (builtin.tensor<i64>, builtin.tensor<1xi64>) -> builtin.tensor<1xi64>
    (%47) = "builtin.combine" (%45, %46, %35, %37) {stop_gradient:[true]} : (builtin.tensor<1xi64>, builtin.tensor<1xi64>, builtin.tensor<1xi64>, builtin.tensor<1xi64>) -> vec[builtin.tensor<1xi64>,builtin.tensor<1xi64>,builtin.tensor<1xi64>,builtin.tensor<1xi64>]
    (%48) = "pd_op.concat" (%47, %11) {stop_gradient:[true]} : (vec[builtin.tensor<1xi64>,builtin.tensor<1xi64>,builtin.tensor<1xi64>,builtin.tensor<1xi64>], builtin.tensor<1xi32>) -> builtin.tensor<4xi64>
    (%49) = "pd_op.reshape" (%41, %48) {stop_gradient:[false]} : (builtin.tensor<1x8x8x-1x-1x-1xf32>, builtin.tensor<4xi64>) -> builtin.tensor<-1x512x-1x-1xf32>
    () = "builtin.shadow_output" (%49) {output_name:"output_0"} : (builtin.tensor<-1x512x-1x-1xf32>) -> 
}


W1105 12:58:11.110026 983782 shape_optimization_pass.cc:328] cached shape is not consistent with real shape
W1105 12:58:11.110102 983782 shape_optimization_pass.cc:328] cached shape is not consistent with real shape
W1105 12:58:11.110129 983782 shape_optimization_pass.cc:328] cached shape is not consistent with real shape
===-------------------------------------------------------------------------===
        IRPrinting on builtin.module after shape_optimization_pass pass
===-------------------------------------------------------------------------===
{
    (%0) = "pd_op.data" () {dtype:(pd_op.DataType)int32,name:"_jst.0.var_0.0",place:(pd_op.Place)Place(undefined:0),shape:(pd_op.IntArray)[1],stop_gradient:[true],sym_shape_str:"shape[1], data[S0]"} : () -> builtin.tensor<1xi32>
    (%1) = "pd_op.data" () {dtype:(pd_op.DataType)int32,name:"_jst.1.var_1.0",place:(pd_op.Place)Place(undefined:0),shape:(pd_op.IntArray)[1],stop_gradient:[true],sym_shape_str:"shape[1], data[S1]"} : () -> builtin.tensor<1xi32>
    (%2) = "pd_op.data" () {dtype:(pd_op.DataType)float32,name:"_jst.2.var_2.0",place:(pd_op.Place)Place(undefined:0),shape:(pd_op.IntArray)[1,512,97,97],stop_gradient:[false],sym_shape_str:"shape[1, 512, 97, 97], data[NULL]"} : () -> builtin.tensor<1x512x97x97xf32>
    (%3) = "pd_op.data" () {dtype:(pd_op.DataType)int32,name:"_jst.3.var_3.0",place:(pd_op.Place)Place(undefined:0),shape:(pd_op.IntArray)[4],stop_gradient:[true],sym_shape_str:"shape[4], data[S2, S3, S4, S5]"} : () -> builtin.tensor<4xi32>
    (%4) = "pd_op.data" () {dtype:(pd_op.DataType)int32,name:"_jst.4.var_4.0",place:(pd_op.Place)Place(undefined:0),shape:(pd_op.IntArray)[1],stop_gradient:[true],sym_shape_str:"shape[1], data[S6]"} : () -> builtin.tensor<1xi32>
    (%5) = "pd_op.data" () {dtype:(pd_op.DataType)int32,name:"_jst.5.var_5.0",place:(pd_op.Place)Place(undefined:0),shape:(pd_op.IntArray)[1],stop_gradient:[true],sym_shape_str:"shape[1], data[S7]"} : () -> builtin.tensor<1xi32>
    (%6) = "pd_op.full" () {dtype:(pd_op.DataType)int32,place:(pd_op.Place)Place(undefined:0),shape:(pd_op.IntArray)[],stop_gradient:[true],sym_shape_str:"shape[], data[2]",value:(Double)2} : () -> builtin.tensor<i32>
    (%7) = "pd_op.floor_divide" (%0, %6) {stop_gradient:[true],sym_shape_str:"shape[1], data[Mul(S0, 1 / (2))]"} : (builtin.tensor<1xi32>, builtin.tensor<i32>) -> builtin.tensor<1xi32>
    (%8) = "pd_op.subtract" (%0, %7) {stop_gradient:[true],sym_shape_str:"shape[1], data[Add(S0, -Mul(S0, 1 / (2)))]"} : (builtin.tensor<1xi32>, builtin.tensor<1xi32>) -> builtin.tensor<1xi32>
    (%9) = "pd_op.floor_divide" (%1, %6) {stop_gradient:[true],sym_shape_str:"shape[1], data[Mul(S1, 1 / (2))]"} : (builtin.tensor<1xi32>, builtin.tensor<i32>) -> builtin.tensor<1xi32>
    (%10) = "pd_op.subtract" (%1, %9) {stop_gradient:[true],sym_shape_str:"shape[1], data[Add(S1, -Mul(S1, 1 / (2)))]"} : (builtin.tensor<1xi32>, builtin.tensor<1xi32>) -> builtin.tensor<1xi32>
    (%11) = "pd_op.full" () {dtype:(pd_op.DataType)int32,place:(pd_op.Place)Place(cpu),shape:(pd_op.IntArray)[1],stop_gradient:[true],sym_shape_str:"shape[1], data[0]",value:(Double)0} : () -> builtin.tensor<1xi32>
    (%12) = "builtin.combine" (%7, %8, %9, %10) {stop_gradient:[true],sym_shape_str:"shape[1], data[Mul(S0, 1 / (2))], shape[1], data[Add(S0, -Mul(S0, 1 / (2)))], shape[1], data[Mul(S1, 1 / (2))], shape[1], data[Add(S1, -Mul(S1, 1 / (2)))]"} : (builtin.tensor<1xi32>, builtin.tensor<1xi32>, builtin.tensor<1xi32>, builtin.tensor<1xi32>) -> vec[builtin.tensor<1xi32>,builtin.tensor<1xi32>,builtin.tensor<1xi32>,builtin.tensor<1xi32>]
    (%13) = "pd_op.concat" (%12, %11) {stop_gradient:[true],sym_shape_str:"shape[4], data[Mul(S0, 1 / (2)), Add(S0, -Mul(S0, 1 / (2))), Mul(S1, 1 / (2)), Add(S1, -Mul(S1, 1 / (2)))]"} : (vec[builtin.tensor<1xi32>,builtin.tensor<1xi32>,builtin.tensor<1xi32>,builtin.tensor<1xi32>], builtin.tensor<1xi32>) -> builtin.tensor<4xi32>
    (%14) = "pd_op.full" () {dtype:(pd_op.DataType)int32,place:(pd_op.Place)Place(undefined:0),shape:(pd_op.IntArray)[2],stop_gradient:[true],sym_shape_str:"shape[2], data[0, 0]",value:(Double)0} : () -> builtin.tensor<2xi32>
    (%15) = "builtin.combine" (%13, %14) {stop_gradient:[true],sym_shape_str:"shape[4], data[Mul(S0, 1 / (2)), Add(S0, -Mul(S0, 1 / (2))), Mul(S1, 1 / (2)), Add(S1, -Mul(S1, 1 / (2)))], shape[2], data[0, 0]"} : (builtin.tensor<4xi32>, builtin.tensor<2xi32>) -> vec[builtin.tensor<4xi32>,builtin.tensor<2xi32>]
    (%16) = "pd_op.concat" (%15, %11) {stop_gradient:[true],sym_shape_str:"shape[6], data[Mul(S0, 1 / (2)), Add(S0, -Mul(S0, 1 / (2))), Mul(S1, 1 / (2)), Add(S1, -Mul(S1, 1 / (2))), 0, 0]"} : (vec[builtin.tensor<4xi32>,builtin.tensor<2xi32>], builtin.tensor<1xi32>) -> builtin.tensor<6xi32>
    (%17) = "pd_op.full_int_array" () {dtype:(pd_op.DataType)int64,place:(pd_op.Place)Place(cpu),stop_gradient:[true],sym_shape_str:"shape[1], data[2]",value:[(Int64)2]} : () -> builtin.tensor<1xi64>
    (%18) = "pd_op.full_int_array" () {dtype:(pd_op.DataType)int64,place:(pd_op.Place)Place(cpu),stop_gradient:[true],sym_shape_str:"shape[5], data[1, 512, 1, 97, 97]",value:[(Int64)1,(Int64)512,(Int64)1,(Int64)97,(Int64)97]} : () -> builtin.tensor<5xi64>
    (%19) = "pd_op.reshape" (%2, %18) {stop_gradient:[false],sym_shape_str:"shape[1, 512, 1, 97, 97], data[NULL]"} : (builtin.tensor<1x512x97x97xf32>, builtin.tensor<5xi64>) -> builtin.tensor<1x512x1x97x97xf32>
    (%20) = "pd_op.pad3d" (%19, %16) {data_format:"NCDHW",mode:"constant",pad_value:(Float)0,stop_gradient:[false],sym_shape_str:"shape[1, 512, 1, Add(S1, 97), Add(S0, 97)], data[NULL]"} : (builtin.tensor<1x512x1x97x97xf32>, builtin.tensor<6xi32>) -> builtin.tensor<1x512x-1x-1x-1xf32>
    (%21) = "pd_op.squeeze" (%20, %17) {stop_gradient:[false],sym_shape_str:"shape[1, 512, Add(S1, 97), Add(S0, 97)], data[NULL]"} : (builtin.tensor<1x512x-1x-1x-1xf32>, builtin.tensor<1xi64>) -> builtin.tensor<1x512x-1x-1xf32>
    (%22) = "pd_op.full_int_array" () {dtype:(pd_op.DataType)int64,place:(pd_op.Place)Place(cpu),stop_gradient:[true],sym_shape_str:"shape[1], data[1]",value:[(Int64)1]} : () -> builtin.tensor<1xi64>
    (%23) = "pd_op.slice" (%3, %22, %17) {axes:[(Int64)0],decrease_axis:[(Int64)0],infer_flags:[(Int64)1],stop_gradient:[true],sym_shape_str:"shape[], data[S3]"} : (builtin.tensor<4xi32>, builtin.tensor<1xi64>, builtin.tensor<1xi64>) -> builtin.tensor<i32>
    (%24) = "pd_op.full" () {dtype:(pd_op.DataType)int64,place:(pd_op.Place)Place(cpu),shape:(pd_op.IntArray)[],stop_gradient:[true],sym_shape_str:"shape[], data[0]",value:(Double)0} : () -> builtin.tensor<i64>
    (%25) = "pd_op.cast" (%23) {dtype:(pd_op.DataType)int64,stop_gradient:[true],sym_shape_str:"shape[], data[S3]"} : (builtin.tensor<i32>) -> builtin.tensor<i64>
    (%26) = "pd_op.cast" (%4) {dtype:(pd_op.DataType)int64,stop_gradient:[true],sym_shape_str:"shape[1], data[S6]"} : (builtin.tensor<1xi32>) -> builtin.tensor<1xi64>
    (%27) = "pd_op.full_int_array" () {dtype:(pd_op.DataType)int64,place:(pd_op.Place)Place(cpu),stop_gradient:[true],sym_shape_str:"shape[0], data[]",value:[]} : () -> builtin.tensor<0xi64>
    (%28) = "pd_op.reshape" (%26, %27) {stop_gradient:[true],sym_shape_str:"shape[], data[S6]"} : (builtin.tensor<1xi64>, builtin.tensor<0xi64>) -> builtin.tensor<i64>
    (%29) = "pd_op.full" () {dtype:(pd_op.DataType)int64,place:(pd_op.Place)Place(cpu),shape:(pd_op.IntArray)[],stop_gradient:[true],sym_shape_str:"shape[], data[8]",value:(Double)8} : () -> builtin.tensor<i64>
    (%30) = "pd_op.cast" (%5) {dtype:(pd_op.DataType)int64,stop_gradient:[true],sym_shape_str:"shape[1], data[S7]"} : (builtin.tensor<1xi32>) -> builtin.tensor<1xi64>
    (%31) = "pd_op.reshape" (%30, %27) {stop_gradient:[true],sym_shape_str:"shape[], data[S7]"} : (builtin.tensor<1xi64>, builtin.tensor<0xi64>) -> builtin.tensor<i64>
    (%32) = "builtin.combine" (%24, %25, %28, %29, %31, %29) {stop_gradient:[true],sym_shape_str:"shape[], data[0], shape[], data[S3], shape[], data[S6], shape[], data[8], shape[], data[S7], shape[], data[8]"} : (builtin.tensor<i64>, builtin.tensor<i64>, builtin.tensor<i64>, builtin.tensor<i64>, builtin.tensor<i64>, builtin.tensor<i64>) -> vec[builtin.tensor<i64>,builtin.tensor<i64>,builtin.tensor<i64>,builtin.tensor<i64>,builtin.tensor<i64>,builtin.tensor<i64>]
    (%33) = "pd_op.reshape" (%24, %22) {stop_gradient:[true],sym_shape_str:"shape[1], data[0]"} : (builtin.tensor<i64>, builtin.tensor<1xi64>) -> builtin.tensor<1xi64>
    (%34) = "pd_op.reshape" (%25, %22) {stop_gradient:[true],sym_shape_str:"shape[1], data[S3]"} : (builtin.tensor<i64>, builtin.tensor<1xi64>) -> builtin.tensor<1xi64>
    (%35) = "pd_op.reshape" (%28, %22) {stop_gradient:[true],sym_shape_str:"shape[1], data[S6]"} : (builtin.tensor<i64>, builtin.tensor<1xi64>) -> builtin.tensor<1xi64>
    (%36) = "pd_op.reshape" (%29, %22) {stop_gradient:[true],sym_shape_str:"shape[1], data[8]"} : (builtin.tensor<i64>, builtin.tensor<1xi64>) -> builtin.tensor<1xi64>
    (%37) = "pd_op.reshape" (%31, %22) {stop_gradient:[true],sym_shape_str:"shape[1], data[S7]"} : (builtin.tensor<i64>, builtin.tensor<1xi64>) -> builtin.tensor<1xi64>
    (%38) = "builtin.combine" (%33, %34, %35, %36, %37, %36) {stop_gradient:[true],sym_shape_str:"shape[1], data[0], shape[1], data[S3], shape[1], data[S6], shape[1], data[8], shape[1], data[S7], shape[1], data[8]"} : (builtin.tensor<1xi64>, builtin.tensor<1xi64>, builtin.tensor<1xi64>, builtin.tensor<1xi64>, builtin.tensor<1xi64>, builtin.tensor<1xi64>) -> vec[builtin.tensor<1xi64>,builtin.tensor<1xi64>,builtin.tensor<1xi64>,builtin.tensor<1xi64>,builtin.tensor<1xi64>,builtin.tensor<1xi64>]
    (%39) = "pd_op.concat" (%38, %11) {stop_gradient:[true],sym_shape_str:"shape[6], data[0, S3, S6, 8, S7, 8]"} : (vec[builtin.tensor<1xi64>,builtin.tensor<1xi64>,builtin.tensor<1xi64>,builtin.tensor<1xi64>,builtin.tensor<1xi64>,builtin.tensor<1xi64>], builtin.tensor<1xi32>) -> builtin.tensor<6xi64>
    (%40) = "pd_op.reshape" (%21, %39) {stop_gradient:[false],sym_shape_str:"shape[1, S3, S6, 8, S7, 8], data[NULL]"} : (builtin.tensor<1x512x-1x-1xf32>, builtin.tensor<6xi64>) -> builtin.tensor<1x-1x-1x8x-1x8xf32>
    (%41) = "pd_op.transpose" (%40) {perm:[(Int32)0,(Int32)3,(Int32)5,(Int32)1,(Int32)2,(Int32)4],stop_gradient:[false],sym_shape_str:"shape[1, 8, 8, S3, S6, S7], data[NULL]"} : (builtin.tensor<1x-1x-1x8x-1x8xf32>) -> builtin.tensor<1x8x8x-1x-1x-1xf32>
    (%42) = "pd_op.full" () {dtype:(pd_op.DataType)int64,place:(pd_op.Place)Place(cpu),shape:(pd_op.IntArray)[],stop_gradient:[true],sym_shape_str:"shape[], data[-1]",value:(Double)-1} : () -> builtin.tensor<i64>
    (%43) = "pd_op.full" () {dtype:(pd_op.DataType)int64,place:(pd_op.Place)Place(cpu),shape:(pd_op.IntArray)[],stop_gradient:[true],sym_shape_str:"shape[], data[512]",value:(Double)512} : () -> builtin.tensor<i64>
    (%44) = "builtin.combine" (%42, %43, %28, %31) {stop_gradient:[true],sym_shape_str:"shape[], data[-1], shape[], data[512], shape[], data[S6], shape[], data[S7]"} : (builtin.tensor<i64>, builtin.tensor<i64>, builtin.tensor<i64>, builtin.tensor<i64>) -> vec[builtin.tensor<i64>,builtin.tensor<i64>,builtin.tensor<i64>,builtin.tensor<i64>]
    (%45) = "pd_op.reshape" (%42, %22) {stop_gradient:[true],sym_shape_str:"shape[1], data[-1]"} : (builtin.tensor<i64>, builtin.tensor<1xi64>) -> builtin.tensor<1xi64>
    (%46) = "pd_op.reshape" (%43, %22) {stop_gradient:[true],sym_shape_str:"shape[1], data[512]"} : (builtin.tensor<i64>, builtin.tensor<1xi64>) -> builtin.tensor<1xi64>
    (%47) = "builtin.combine" (%45, %46, %35, %37) {stop_gradient:[true],sym_shape_str:"shape[1], data[-1], shape[1], data[512], shape[1], data[S6], shape[1], data[S7]"} : (builtin.tensor<1xi64>, builtin.tensor<1xi64>, builtin.tensor<1xi64>, builtin.tensor<1xi64>) -> vec[builtin.tensor<1xi64>,builtin.tensor<1xi64>,builtin.tensor<1xi64>,builtin.tensor<1xi64>]
    (%48) = "pd_op.concat" (%47, %11) {stop_gradient:[true],sym_shape_str:"shape[4], data[-1, 512, S6, S7]"} : (vec[builtin.tensor<1xi64>,builtin.tensor<1xi64>,builtin.tensor<1xi64>,builtin.tensor<1xi64>], builtin.tensor<1xi32>) -> builtin.tensor<4xi64>
    (%49) = "pd_op.reshape" (%41, %48) {stop_gradient:[false],sym_shape_str:"shape[Mul(S3, 1 / (8)), 512, S6, S7], data[NULL]"} : (builtin.tensor<1x8x8x-1x-1x-1xf32>, builtin.tensor<4xi64>) -> builtin.tensor<-1x512x-1x-1xf32>
    () = "builtin.shadow_output" (%49) {output_name:"output_0",sym_shape_str:"shape[Mul(S3, 1 / (8)), 512, S6, S7], data[NULL]"} : (builtin.tensor<-1x512x-1x-1xf32>) -> 
}


===---------------------------------------------------------------------------===
        IRPrinting on builtin.module before fused_gemm_epilogue_pass pass
===---------------------------------------------------------------------------===
{
    (%0) = "pd_op.data" () {dtype:(pd_op.DataType)int32,name:"_jst.0.var_0.0",place:(pd_op.Place)Place(undefined:0),shape:(pd_op.IntArray)[1],stop_gradient:[true],sym_shape_str:"shape[1], data[S0]"} : () -> builtin.tensor<1xi32>
    (%1) = "pd_op.data" () {dtype:(pd_op.DataType)int32,name:"_jst.1.var_1.0",place:(pd_op.Place)Place(undefined:0),shape:(pd_op.IntArray)[1],stop_gradient:[true],sym_shape_str:"shape[1], data[S1]"} : () -> builtin.tensor<1xi32>
    (%2) = "pd_op.data" () {dtype:(pd_op.DataType)float32,name:"_jst.2.var_2.0",place:(pd_op.Place)Place(undefined:0),shape:(pd_op.IntArray)[1,512,97,97],stop_gradient:[false],sym_shape_str:"shape[1, 512, 97, 97], data[NULL]"} : () -> builtin.tensor<1x512x97x97xf32>
    (%3) = "pd_op.data" () {dtype:(pd_op.DataType)int32,name:"_jst.3.var_3.0",place:(pd_op.Place)Place(undefined:0),shape:(pd_op.IntArray)[4],stop_gradient:[true],sym_shape_str:"shape[4], data[S2, S3, S4, S5]"} : () -> builtin.tensor<4xi32>
    (%4) = "pd_op.data" () {dtype:(pd_op.DataType)int32,name:"_jst.4.var_4.0",place:(pd_op.Place)Place(undefined:0),shape:(pd_op.IntArray)[1],stop_gradient:[true],sym_shape_str:"shape[1], data[S6]"} : () -> builtin.tensor<1xi32>
    (%5) = "pd_op.data" () {dtype:(pd_op.DataType)int32,name:"_jst.5.var_5.0",place:(pd_op.Place)Place(undefined:0),shape:(pd_op.IntArray)[1],stop_gradient:[true],sym_shape_str:"shape[1], data[S7]"} : () -> builtin.tensor<1xi32>
    (%6) = "pd_op.full" () {dtype:(pd_op.DataType)int32,place:(pd_op.Place)Place(undefined:0),shape:(pd_op.IntArray)[],stop_gradient:[true],sym_shape_str:"shape[], data[2]",value:(Double)2} : () -> builtin.tensor<i32>
    (%7) = "pd_op.floor_divide" (%0, %6) {stop_gradient:[true],sym_shape_str:"shape[1], data[Mul(S0, 1 / (2))]"} : (builtin.tensor<1xi32>, builtin.tensor<i32>) -> builtin.tensor<1xi32>
    (%8) = "pd_op.subtract" (%0, %7) {stop_gradient:[true],sym_shape_str:"shape[1], data[Add(S0, -Mul(S0, 1 / (2)))]"} : (builtin.tensor<1xi32>, builtin.tensor<1xi32>) -> builtin.tensor<1xi32>
    (%9) = "pd_op.floor_divide" (%1, %6) {stop_gradient:[true],sym_shape_str:"shape[1], data[Mul(S1, 1 / (2))]"} : (builtin.tensor<1xi32>, builtin.tensor<i32>) -> builtin.tensor<1xi32>
    (%10) = "pd_op.subtract" (%1, %9) {stop_gradient:[true],sym_shape_str:"shape[1], data[Add(S1, -Mul(S1, 1 / (2)))]"} : (builtin.tensor<1xi32>, builtin.tensor<1xi32>) -> builtin.tensor<1xi32>
    (%11) = "pd_op.full" () {dtype:(pd_op.DataType)int32,place:(pd_op.Place)Place(cpu),shape:(pd_op.IntArray)[1],stop_gradient:[true],sym_shape_str:"shape[1], data[0]",value:(Double)0} : () -> builtin.tensor<1xi32>
    (%12) = "builtin.combine" (%7, %8, %9, %10) {stop_gradient:[true],sym_shape_str:"shape[1], data[Mul(S0, 1 / (2))], shape[1], data[Add(S0, -Mul(S0, 1 / (2)))], shape[1], data[Mul(S1, 1 / (2))], shape[1], data[Add(S1, -Mul(S1, 1 / (2)))]"} : (builtin.tensor<1xi32>, builtin.tensor<1xi32>, builtin.tensor<1xi32>, builtin.tensor<1xi32>) -> vec[builtin.tensor<1xi32>,builtin.tensor<1xi32>,builtin.tensor<1xi32>,builtin.tensor<1xi32>]
    (%13) = "pd_op.concat" (%12, %11) {stop_gradient:[true],sym_shape_str:"shape[4], data[Mul(S0, 1 / (2)), Add(S0, -Mul(S0, 1 / (2))), Mul(S1, 1 / (2)), Add(S1, -Mul(S1, 1 / (2)))]"} : (vec[builtin.tensor<1xi32>,builtin.tensor<1xi32>,builtin.tensor<1xi32>,builtin.tensor<1xi32>], builtin.tensor<1xi32>) -> builtin.tensor<4xi32>
    (%14) = "pd_op.full" () {dtype:(pd_op.DataType)int32,place:(pd_op.Place)Place(undefined:0),shape:(pd_op.IntArray)[2],stop_gradient:[true],sym_shape_str:"shape[2], data[0, 0]",value:(Double)0} : () -> builtin.tensor<2xi32>
    (%15) = "builtin.combine" (%13, %14) {stop_gradient:[true],sym_shape_str:"shape[4], data[Mul(S0, 1 / (2)), Add(S0, -Mul(S0, 1 / (2))), Mul(S1, 1 / (2)), Add(S1, -Mul(S1, 1 / (2)))], shape[2], data[0, 0]"} : (builtin.tensor<4xi32>, builtin.tensor<2xi32>) -> vec[builtin.tensor<4xi32>,builtin.tensor<2xi32>]
    (%16) = "pd_op.concat" (%15, %11) {stop_gradient:[true],sym_shape_str:"shape[6], data[Mul(S0, 1 / (2)), Add(S0, -Mul(S0, 1 / (2))), Mul(S1, 1 / (2)), Add(S1, -Mul(S1, 1 / (2))), 0, 0]"} : (vec[builtin.tensor<4xi32>,builtin.tensor<2xi32>], builtin.tensor<1xi32>) -> builtin.tensor<6xi32>
    (%17) = "pd_op.full_int_array" () {dtype:(pd_op.DataType)int64,place:(pd_op.Place)Place(cpu),stop_gradient:[true],sym_shape_str:"shape[1], data[2]",value:[(Int64)2]} : () -> builtin.tensor<1xi64>
    (%18) = "pd_op.full_int_array" () {dtype:(pd_op.DataType)int64,place:(pd_op.Place)Place(cpu),stop_gradient:[true],sym_shape_str:"shape[5], data[1, 512, 1, 97, 97]",value:[(Int64)1,(Int64)512,(Int64)1,(Int64)97,(Int64)97]} : () -> builtin.tensor<5xi64>
    (%19) = "pd_op.reshape" (%2, %18) {stop_gradient:[false],sym_shape_str:"shape[1, 512, 1, 97, 97], data[NULL]"} : (builtin.tensor<1x512x97x97xf32>, builtin.tensor<5xi64>) -> builtin.tensor<1x512x1x97x97xf32>
    (%20) = "pd_op.pad3d" (%19, %16) {data_format:"NCDHW",mode:"constant",pad_value:(Float)0,stop_gradient:[false],sym_shape_str:"shape[1, 512, 1, Add(S1, 97), Add(S0, 97)], data[NULL]"} : (builtin.tensor<1x512x1x97x97xf32>, builtin.tensor<6xi32>) -> builtin.tensor<1x512x-1x-1x-1xf32>
    (%21) = "pd_op.squeeze" (%20, %17) {stop_gradient:[false],sym_shape_str:"shape[1, 512, Add(S1, 97), Add(S0, 97)], data[NULL]"} : (builtin.tensor<1x512x-1x-1x-1xf32>, builtin.tensor<1xi64>) -> builtin.tensor<1x512x-1x-1xf32>
    (%22) = "pd_op.full_int_array" () {dtype:(pd_op.DataType)int64,place:(pd_op.Place)Place(cpu),stop_gradient:[true],sym_shape_str:"shape[1], data[1]",value:[(Int64)1]} : () -> builtin.tensor<1xi64>
    (%23) = "pd_op.slice" (%3, %22, %17) {axes:[(Int64)0],decrease_axis:[(Int64)0],infer_flags:[(Int64)1],stop_gradient:[true],sym_shape_str:"shape[], data[S3]"} : (builtin.tensor<4xi32>, builtin.tensor<1xi64>, builtin.tensor<1xi64>) -> builtin.tensor<i32>
    (%24) = "pd_op.full" () {dtype:(pd_op.DataType)int64,place:(pd_op.Place)Place(cpu),shape:(pd_op.IntArray)[],stop_gradient:[true],sym_shape_str:"shape[], data[0]",value:(Double)0} : () -> builtin.tensor<i64>
    (%25) = "pd_op.cast" (%23) {dtype:(pd_op.DataType)int64,stop_gradient:[true],sym_shape_str:"shape[], data[S3]"} : (builtin.tensor<i32>) -> builtin.tensor<i64>
    (%26) = "pd_op.cast" (%4) {dtype:(pd_op.DataType)int64,stop_gradient:[true],sym_shape_str:"shape[1], data[S6]"} : (builtin.tensor<1xi32>) -> builtin.tensor<1xi64>
    (%27) = "pd_op.full_int_array" () {dtype:(pd_op.DataType)int64,place:(pd_op.Place)Place(cpu),stop_gradient:[true],sym_shape_str:"shape[0], data[]",value:[]} : () -> builtin.tensor<0xi64>
    (%28) = "pd_op.reshape" (%26, %27) {stop_gradient:[true],sym_shape_str:"shape[], data[S6]"} : (builtin.tensor<1xi64>, builtin.tensor<0xi64>) -> builtin.tensor<i64>
    (%29) = "pd_op.full" () {dtype:(pd_op.DataType)int64,place:(pd_op.Place)Place(cpu),shape:(pd_op.IntArray)[],stop_gradient:[true],sym_shape_str:"shape[], data[8]",value:(Double)8} : () -> builtin.tensor<i64>
    (%30) = "pd_op.cast" (%5) {dtype:(pd_op.DataType)int64,stop_gradient:[true],sym_shape_str:"shape[1], data[S7]"} : (builtin.tensor<1xi32>) -> builtin.tensor<1xi64>
    (%31) = "pd_op.reshape" (%30, %27) {stop_gradient:[true],sym_shape_str:"shape[], data[S7]"} : (builtin.tensor<1xi64>, builtin.tensor<0xi64>) -> builtin.tensor<i64>
    (%32) = "builtin.combine" (%24, %25, %28, %29, %31, %29) {stop_gradient:[true],sym_shape_str:"shape[], data[0], shape[], data[S3], shape[], data[S6], shape[], data[8], shape[], data[S7], shape[], data[8]"} : (builtin.tensor<i64>, builtin.tensor<i64>, builtin.tensor<i64>, builtin.tensor<i64>, builtin.tensor<i64>, builtin.tensor<i64>) -> vec[builtin.tensor<i64>,builtin.tensor<i64>,builtin.tensor<i64>,builtin.tensor<i64>,builtin.tensor<i64>,builtin.tensor<i64>]
    (%33) = "pd_op.reshape" (%24, %22) {stop_gradient:[true],sym_shape_str:"shape[1], data[0]"} : (builtin.tensor<i64>, builtin.tensor<1xi64>) -> builtin.tensor<1xi64>
    (%34) = "pd_op.reshape" (%25, %22) {stop_gradient:[true],sym_shape_str:"shape[1], data[S3]"} : (builtin.tensor<i64>, builtin.tensor<1xi64>) -> builtin.tensor<1xi64>
    (%35) = "pd_op.reshape" (%28, %22) {stop_gradient:[true],sym_shape_str:"shape[1], data[S6]"} : (builtin.tensor<i64>, builtin.tensor<1xi64>) -> builtin.tensor<1xi64>
    (%36) = "pd_op.reshape" (%29, %22) {stop_gradient:[true],sym_shape_str:"shape[1], data[8]"} : (builtin.tensor<i64>, builtin.tensor<1xi64>) -> builtin.tensor<1xi64>
    (%37) = "pd_op.reshape" (%31, %22) {stop_gradient:[true],sym_shape_str:"shape[1], data[S7]"} : (builtin.tensor<i64>, builtin.tensor<1xi64>) -> builtin.tensor<1xi64>
    (%38) = "builtin.combine" (%33, %34, %35, %36, %37, %36) {stop_gradient:[true],sym_shape_str:"shape[1], data[0], shape[1], data[S3], shape[1], data[S6], shape[1], data[8], shape[1], data[S7], shape[1], data[8]"} : (builtin.tensor<1xi64>, builtin.tensor<1xi64>, builtin.tensor<1xi64>, builtin.tensor<1xi64>, builtin.tensor<1xi64>, builtin.tensor<1xi64>) -> vec[builtin.tensor<1xi64>,builtin.tensor<1xi64>,builtin.tensor<1xi64>,builtin.tensor<1xi64>,builtin.tensor<1xi64>,builtin.tensor<1xi64>]
    (%39) = "pd_op.concat" (%38, %11) {stop_gradient:[true],sym_shape_str:"shape[6], data[0, S3, S6, 8, S7, 8]"} : (vec[builtin.tensor<1xi64>,builtin.tensor<1xi64>,builtin.tensor<1xi64>,builtin.tensor<1xi64>,builtin.tensor<1xi64>,builtin.tensor<1xi64>], builtin.tensor<1xi32>) -> builtin.tensor<6xi64>
    (%40) = "pd_op.reshape" (%21, %39) {stop_gradient:[false],sym_shape_str:"shape[1, S3, S6, 8, S7, 8], data[NULL]"} : (builtin.tensor<1x512x-1x-1xf32>, builtin.tensor<6xi64>) -> builtin.tensor<1x-1x-1x8x-1x8xf32>
    (%41) = "pd_op.transpose" (%40) {perm:[(Int32)0,(Int32)3,(Int32)5,(Int32)1,(Int32)2,(Int32)4],stop_gradient:[false],sym_shape_str:"shape[1, 8, 8, S3, S6, S7], data[NULL]"} : (builtin.tensor<1x-1x-1x8x-1x8xf32>) -> builtin.tensor<1x8x8x-1x-1x-1xf32>
    (%42) = "pd_op.full" () {dtype:(pd_op.DataType)int64,place:(pd_op.Place)Place(cpu),shape:(pd_op.IntArray)[],stop_gradient:[true],sym_shape_str:"shape[], data[-1]",value:(Double)-1} : () -> builtin.tensor<i64>
    (%43) = "pd_op.full" () {dtype:(pd_op.DataType)int64,place:(pd_op.Place)Place(cpu),shape:(pd_op.IntArray)[],stop_gradient:[true],sym_shape_str:"shape[], data[512]",value:(Double)512} : () -> builtin.tensor<i64>
    (%44) = "builtin.combine" (%42, %43, %28, %31) {stop_gradient:[true],sym_shape_str:"shape[], data[-1], shape[], data[512], shape[], data[S6], shape[], data[S7]"} : (builtin.tensor<i64>, builtin.tensor<i64>, builtin.tensor<i64>, builtin.tensor<i64>) -> vec[builtin.tensor<i64>,builtin.tensor<i64>,builtin.tensor<i64>,builtin.tensor<i64>]
    (%45) = "pd_op.reshape" (%42, %22) {stop_gradient:[true],sym_shape_str:"shape[1], data[-1]"} : (builtin.tensor<i64>, builtin.tensor<1xi64>) -> builtin.tensor<1xi64>
    (%46) = "pd_op.reshape" (%43, %22) {stop_gradient:[true],sym_shape_str:"shape[1], data[512]"} : (builtin.tensor<i64>, builtin.tensor<1xi64>) -> builtin.tensor<1xi64>
    (%47) = "builtin.combine" (%45, %46, %35, %37) {stop_gradient:[true],sym_shape_str:"shape[1], data[-1], shape[1], data[512], shape[1], data[S6], shape[1], data[S7]"} : (builtin.tensor<1xi64>, builtin.tensor<1xi64>, builtin.tensor<1xi64>, builtin.tensor<1xi64>) -> vec[builtin.tensor<1xi64>,builtin.tensor<1xi64>,builtin.tensor<1xi64>,builtin.tensor<1xi64>]
    (%48) = "pd_op.concat" (%47, %11) {stop_gradient:[true],sym_shape_str:"shape[4], data[-1, 512, S6, S7]"} : (vec[builtin.tensor<1xi64>,builtin.tensor<1xi64>,builtin.tensor<1xi64>,builtin.tensor<1xi64>], builtin.tensor<1xi32>) -> builtin.tensor<4xi64>
    (%49) = "pd_op.reshape" (%41, %48) {stop_gradient:[false],sym_shape_str:"shape[Mul(S3, 1 / (8)), 512, S6, S7], data[NULL]"} : (builtin.tensor<1x8x8x-1x-1x-1xf32>, builtin.tensor<4xi64>) -> builtin.tensor<-1x512x-1x-1xf32>
    () = "builtin.shadow_output" (%49) {output_name:"output_0",sym_shape_str:"shape[Mul(S3, 1 / (8)), 512, S6, S7], data[NULL]"} : (builtin.tensor<-1x512x-1x-1xf32>) -> 
}


===--------------------------------------------------------------------------===
        IRPrinting on builtin.module after fused_gemm_epilogue_pass pass
===--------------------------------------------------------------------------===
{
    (%0) = "pd_op.data" () {dtype:(pd_op.DataType)int32,name:"_jst.0.var_0.0",place:(pd_op.Place)Place(undefined:0),shape:(pd_op.IntArray)[1],stop_gradient:[true],sym_shape_str:"shape[1], data[S0]"} : () -> builtin.tensor<1xi32>
    (%1) = "pd_op.data" () {dtype:(pd_op.DataType)int32,name:"_jst.1.var_1.0",place:(pd_op.Place)Place(undefined:0),shape:(pd_op.IntArray)[1],stop_gradient:[true],sym_shape_str:"shape[1], data[S1]"} : () -> builtin.tensor<1xi32>
    (%2) = "pd_op.data" () {dtype:(pd_op.DataType)float32,name:"_jst.2.var_2.0",place:(pd_op.Place)Place(undefined:0),shape:(pd_op.IntArray)[1,512,97,97],stop_gradient:[false],sym_shape_str:"shape[1, 512, 97, 97], data[NULL]"} : () -> builtin.tensor<1x512x97x97xf32>
    (%3) = "pd_op.data" () {dtype:(pd_op.DataType)int32,name:"_jst.3.var_3.0",place:(pd_op.Place)Place(undefined:0),shape:(pd_op.IntArray)[4],stop_gradient:[true],sym_shape_str:"shape[4], data[S2, S3, S4, S5]"} : () -> builtin.tensor<4xi32>
    (%4) = "pd_op.data" () {dtype:(pd_op.DataType)int32,name:"_jst.4.var_4.0",place:(pd_op.Place)Place(undefined:0),shape:(pd_op.IntArray)[1],stop_gradient:[true],sym_shape_str:"shape[1], data[S6]"} : () -> builtin.tensor<1xi32>
    (%5) = "pd_op.data" () {dtype:(pd_op.DataType)int32,name:"_jst.5.var_5.0",place:(pd_op.Place)Place(undefined:0),shape:(pd_op.IntArray)[1],stop_gradient:[true],sym_shape_str:"shape[1], data[S7]"} : () -> builtin.tensor<1xi32>
    (%6) = "pd_op.full" () {dtype:(pd_op.DataType)int32,place:(pd_op.Place)Place(undefined:0),shape:(pd_op.IntArray)[],stop_gradient:[true],sym_shape_str:"shape[], data[2]",value:(Double)2} : () -> builtin.tensor<i32>
    (%7) = "pd_op.floor_divide" (%0, %6) {stop_gradient:[true],sym_shape_str:"shape[1], data[Mul(S0, 1 / (2))]"} : (builtin.tensor<1xi32>, builtin.tensor<i32>) -> builtin.tensor<1xi32>
    (%8) = "pd_op.subtract" (%0, %7) {stop_gradient:[true],sym_shape_str:"shape[1], data[Add(S0, -Mul(S0, 1 / (2)))]"} : (builtin.tensor<1xi32>, builtin.tensor<1xi32>) -> builtin.tensor<1xi32>
    (%9) = "pd_op.floor_divide" (%1, %6) {stop_gradient:[true],sym_shape_str:"shape[1], data[Mul(S1, 1 / (2))]"} : (builtin.tensor<1xi32>, builtin.tensor<i32>) -> builtin.tensor<1xi32>
    (%10) = "pd_op.subtract" (%1, %9) {stop_gradient:[true],sym_shape_str:"shape[1], data[Add(S1, -Mul(S1, 1 / (2)))]"} : (builtin.tensor<1xi32>, builtin.tensor<1xi32>) -> builtin.tensor<1xi32>
    (%11) = "pd_op.full" () {dtype:(pd_op.DataType)int32,place:(pd_op.Place)Place(cpu),shape:(pd_op.IntArray)[1],stop_gradient:[true],sym_shape_str:"shape[1], data[0]",value:(Double)0} : () -> builtin.tensor<1xi32>
    (%12) = "builtin.combine" (%7, %8, %9, %10) {stop_gradient:[true],sym_shape_str:"shape[1], data[Mul(S0, 1 / (2))], shape[1], data[Add(S0, -Mul(S0, 1 / (2)))], shape[1], data[Mul(S1, 1 / (2))], shape[1], data[Add(S1, -Mul(S1, 1 / (2)))]"} : (builtin.tensor<1xi32>, builtin.tensor<1xi32>, builtin.tensor<1xi32>, builtin.tensor<1xi32>) -> vec[builtin.tensor<1xi32>,builtin.tensor<1xi32>,builtin.tensor<1xi32>,builtin.tensor<1xi32>]
    (%13) = "pd_op.concat" (%12, %11) {stop_gradient:[true],sym_shape_str:"shape[4], data[Mul(S0, 1 / (2)), Add(S0, -Mul(S0, 1 / (2))), Mul(S1, 1 / (2)), Add(S1, -Mul(S1, 1 / (2)))]"} : (vec[builtin.tensor<1xi32>,builtin.tensor<1xi32>,builtin.tensor<1xi32>,builtin.tensor<1xi32>], builtin.tensor<1xi32>) -> builtin.tensor<4xi32>
    (%14) = "pd_op.full" () {dtype:(pd_op.DataType)int32,place:(pd_op.Place)Place(undefined:0),shape:(pd_op.IntArray)[2],stop_gradient:[true],sym_shape_str:"shape[2], data[0, 0]",value:(Double)0} : () -> builtin.tensor<2xi32>
    (%15) = "builtin.combine" (%13, %14) {stop_gradient:[true],sym_shape_str:"shape[4], data[Mul(S0, 1 / (2)), Add(S0, -Mul(S0, 1 / (2))), Mul(S1, 1 / (2)), Add(S1, -Mul(S1, 1 / (2)))], shape[2], data[0, 0]"} : (builtin.tensor<4xi32>, builtin.tensor<2xi32>) -> vec[builtin.tensor<4xi32>,builtin.tensor<2xi32>]
    (%16) = "pd_op.concat" (%15, %11) {stop_gradient:[true],sym_shape_str:"shape[6], data[Mul(S0, 1 / (2)), Add(S0, -Mul(S0, 1 / (2))), Mul(S1, 1 / (2)), Add(S1, -Mul(S1, 1 / (2))), 0, 0]"} : (vec[builtin.tensor<4xi32>,builtin.tensor<2xi32>], builtin.tensor<1xi32>) -> builtin.tensor<6xi32>
    (%17) = "pd_op.full_int_array" () {dtype:(pd_op.DataType)int64,place:(pd_op.Place)Place(cpu),stop_gradient:[true],sym_shape_str:"shape[1], data[2]",value:[(Int64)2]} : () -> builtin.tensor<1xi64>
    (%18) = "pd_op.full_int_array" () {dtype:(pd_op.DataType)int64,place:(pd_op.Place)Place(cpu),stop_gradient:[true],sym_shape_str:"shape[5], data[1, 512, 1, 97, 97]",value:[(Int64)1,(Int64)512,(Int64)1,(Int64)97,(Int64)97]} : () -> builtin.tensor<5xi64>
    (%19) = "pd_op.reshape" (%2, %18) {stop_gradient:[false],sym_shape_str:"shape[1, 512, 1, 97, 97], data[NULL]"} : (builtin.tensor<1x512x97x97xf32>, builtin.tensor<5xi64>) -> builtin.tensor<1x512x1x97x97xf32>
    (%20) = "pd_op.pad3d" (%19, %16) {data_format:"NCDHW",mode:"constant",pad_value:(Float)0,stop_gradient:[false],sym_shape_str:"shape[1, 512, 1, Add(S1, 97), Add(S0, 97)], data[NULL]"} : (builtin.tensor<1x512x1x97x97xf32>, builtin.tensor<6xi32>) -> builtin.tensor<1x512x-1x-1x-1xf32>
    (%21) = "pd_op.squeeze" (%20, %17) {stop_gradient:[false],sym_shape_str:"shape[1, 512, Add(S1, 97), Add(S0, 97)], data[NULL]"} : (builtin.tensor<1x512x-1x-1x-1xf32>, builtin.tensor<1xi64>) -> builtin.tensor<1x512x-1x-1xf32>
    (%22) = "pd_op.full_int_array" () {dtype:(pd_op.DataType)int64,place:(pd_op.Place)Place(cpu),stop_gradient:[true],sym_shape_str:"shape[1], data[1]",value:[(Int64)1]} : () -> builtin.tensor<1xi64>
    (%23) = "pd_op.slice" (%3, %22, %17) {axes:[(Int64)0],decrease_axis:[(Int64)0],infer_flags:[(Int64)1],stop_gradient:[true],sym_shape_str:"shape[], data[S3]"} : (builtin.tensor<4xi32>, builtin.tensor<1xi64>, builtin.tensor<1xi64>) -> builtin.tensor<i32>
    (%24) = "pd_op.full" () {dtype:(pd_op.DataType)int64,place:(pd_op.Place)Place(cpu),shape:(pd_op.IntArray)[],stop_gradient:[true],sym_shape_str:"shape[], data[0]",value:(Double)0} : () -> builtin.tensor<i64>
    (%25) = "pd_op.cast" (%23) {dtype:(pd_op.DataType)int64,stop_gradient:[true],sym_shape_str:"shape[], data[S3]"} : (builtin.tensor<i32>) -> builtin.tensor<i64>
    (%26) = "pd_op.cast" (%4) {dtype:(pd_op.DataType)int64,stop_gradient:[true],sym_shape_str:"shape[1], data[S6]"} : (builtin.tensor<1xi32>) -> builtin.tensor<1xi64>
    (%27) = "pd_op.full_int_array" () {dtype:(pd_op.DataType)int64,place:(pd_op.Place)Place(cpu),stop_gradient:[true],sym_shape_str:"shape[0], data[]",value:[]} : () -> builtin.tensor<0xi64>
    (%28) = "pd_op.reshape" (%26, %27) {stop_gradient:[true],sym_shape_str:"shape[], data[S6]"} : (builtin.tensor<1xi64>, builtin.tensor<0xi64>) -> builtin.tensor<i64>
    (%29) = "pd_op.full" () {dtype:(pd_op.DataType)int64,place:(pd_op.Place)Place(cpu),shape:(pd_op.IntArray)[],stop_gradient:[true],sym_shape_str:"shape[], data[8]",value:(Double)8} : () -> builtin.tensor<i64>
    (%30) = "pd_op.cast" (%5) {dtype:(pd_op.DataType)int64,stop_gradient:[true],sym_shape_str:"shape[1], data[S7]"} : (builtin.tensor<1xi32>) -> builtin.tensor<1xi64>
    (%31) = "pd_op.reshape" (%30, %27) {stop_gradient:[true],sym_shape_str:"shape[], data[S7]"} : (builtin.tensor<1xi64>, builtin.tensor<0xi64>) -> builtin.tensor<i64>
    (%32) = "builtin.combine" (%24, %25, %28, %29, %31, %29) {stop_gradient:[true],sym_shape_str:"shape[], data[0], shape[], data[S3], shape[], data[S6], shape[], data[8], shape[], data[S7], shape[], data[8]"} : (builtin.tensor<i64>, builtin.tensor<i64>, builtin.tensor<i64>, builtin.tensor<i64>, builtin.tensor<i64>, builtin.tensor<i64>) -> vec[builtin.tensor<i64>,builtin.tensor<i64>,builtin.tensor<i64>,builtin.tensor<i64>,builtin.tensor<i64>,builtin.tensor<i64>]
    (%33) = "pd_op.reshape" (%24, %22) {stop_gradient:[true],sym_shape_str:"shape[1], data[0]"} : (builtin.tensor<i64>, builtin.tensor<1xi64>) -> builtin.tensor<1xi64>
    (%34) = "pd_op.reshape" (%25, %22) {stop_gradient:[true],sym_shape_str:"shape[1], data[S3]"} : (builtin.tensor<i64>, builtin.tensor<1xi64>) -> builtin.tensor<1xi64>
    (%35) = "pd_op.reshape" (%28, %22) {stop_gradient:[true],sym_shape_str:"shape[1], data[S6]"} : (builtin.tensor<i64>, builtin.tensor<1xi64>) -> builtin.tensor<1xi64>
    (%36) = "pd_op.reshape" (%29, %22) {stop_gradient:[true],sym_shape_str:"shape[1], data[8]"} : (builtin.tensor<i64>, builtin.tensor<1xi64>) -> builtin.tensor<1xi64>
    (%37) = "pd_op.reshape" (%31, %22) {stop_gradient:[true],sym_shape_str:"shape[1], data[S7]"} : (builtin.tensor<i64>, builtin.tensor<1xi64>) -> builtin.tensor<1xi64>
    (%38) = "builtin.combine" (%33, %34, %35, %36, %37, %36) {stop_gradient:[true],sym_shape_str:"shape[1], data[0], shape[1], data[S3], shape[1], data[S6], shape[1], data[8], shape[1], data[S7], shape[1], data[8]"} : (builtin.tensor<1xi64>, builtin.tensor<1xi64>, builtin.tensor<1xi64>, builtin.tensor<1xi64>, builtin.tensor<1xi64>, builtin.tensor<1xi64>) -> vec[builtin.tensor<1xi64>,builtin.tensor<1xi64>,builtin.tensor<1xi64>,builtin.tensor<1xi64>,builtin.tensor<1xi64>,builtin.tensor<1xi64>]
    (%39) = "pd_op.concat" (%38, %11) {stop_gradient:[true],sym_shape_str:"shape[6], data[0, S3, S6, 8, S7, 8]"} : (vec[builtin.tensor<1xi64>,builtin.tensor<1xi64>,builtin.tensor<1xi64>,builtin.tensor<1xi64>,builtin.tensor<1xi64>,builtin.tensor<1xi64>], builtin.tensor<1xi32>) -> builtin.tensor<6xi64>
    (%40) = "pd_op.reshape" (%21, %39) {stop_gradient:[false],sym_shape_str:"shape[1, S3, S6, 8, S7, 8], data[NULL]"} : (builtin.tensor<1x512x-1x-1xf32>, builtin.tensor<6xi64>) -> builtin.tensor<1x-1x-1x8x-1x8xf32>
    (%41) = "pd_op.transpose" (%40) {perm:[(Int32)0,(Int32)3,(Int32)5,(Int32)1,(Int32)2,(Int32)4],stop_gradient:[false],sym_shape_str:"shape[1, 8, 8, S3, S6, S7], data[NULL]"} : (builtin.tensor<1x-1x-1x8x-1x8xf32>) -> builtin.tensor<1x8x8x-1x-1x-1xf32>
    (%42) = "pd_op.full" () {dtype:(pd_op.DataType)int64,place:(pd_op.Place)Place(cpu),shape:(pd_op.IntArray)[],stop_gradient:[true],sym_shape_str:"shape[], data[-1]",value:(Double)-1} : () -> builtin.tensor<i64>
    (%43) = "pd_op.full" () {dtype:(pd_op.DataType)int64,place:(pd_op.Place)Place(cpu),shape:(pd_op.IntArray)[],stop_gradient:[true],sym_shape_str:"shape[], data[512]",value:(Double)512} : () -> builtin.tensor<i64>
    (%44) = "builtin.combine" (%42, %43, %28, %31) {stop_gradient:[true],sym_shape_str:"shape[], data[-1], shape[], data[512], shape[], data[S6], shape[], data[S7]"} : (builtin.tensor<i64>, builtin.tensor<i64>, builtin.tensor<i64>, builtin.tensor<i64>) -> vec[builtin.tensor<i64>,builtin.tensor<i64>,builtin.tensor<i64>,builtin.tensor<i64>]
    (%45) = "pd_op.reshape" (%42, %22) {stop_gradient:[true],sym_shape_str:"shape[1], data[-1]"} : (builtin.tensor<i64>, builtin.tensor<1xi64>) -> builtin.tensor<1xi64>
    (%46) = "pd_op.reshape" (%43, %22) {stop_gradient:[true],sym_shape_str:"shape[1], data[512]"} : (builtin.tensor<i64>, builtin.tensor<1xi64>) -> builtin.tensor<1xi64>
    (%47) = "builtin.combine" (%45, %46, %35, %37) {stop_gradient:[true],sym_shape_str:"shape[1], data[-1], shape[1], data[512], shape[1], data[S6], shape[1], data[S7]"} : (builtin.tensor<1xi64>, builtin.tensor<1xi64>, builtin.tensor<1xi64>, builtin.tensor<1xi64>) -> vec[builtin.tensor<1xi64>,builtin.tensor<1xi64>,builtin.tensor<1xi64>,builtin.tensor<1xi64>]
    (%48) = "pd_op.concat" (%47, %11) {stop_gradient:[true],sym_shape_str:"shape[4], data[-1, 512, S6, S7]"} : (vec[builtin.tensor<1xi64>,builtin.tensor<1xi64>,builtin.tensor<1xi64>,builtin.tensor<1xi64>], builtin.tensor<1xi32>) -> builtin.tensor<4xi64>
    (%49) = "pd_op.reshape" (%41, %48) {stop_gradient:[false],sym_shape_str:"shape[Mul(S3, 1 / (8)), 512, S6, S7], data[NULL]"} : (builtin.tensor<1x8x8x-1x-1x-1xf32>, builtin.tensor<4xi64>) -> builtin.tensor<-1x512x-1x-1xf32>
    () = "builtin.shadow_output" (%49) {output_name:"output_0",sym_shape_str:"shape[Mul(S3, 1 / (8)), 512, S6, S7], data[NULL]"} : (builtin.tensor<-1x512x-1x-1xf32>) -> 
}


===----------------------------------------------------------------------------===
        IRPrinting on builtin.module before fuse_parallel_matmul_pass pass
===----------------------------------------------------------------------------===
{
    (%0) = "pd_op.data" () {dtype:(pd_op.DataType)int32,name:"_jst.0.var_0.0",place:(pd_op.Place)Place(undefined:0),shape:(pd_op.IntArray)[1],stop_gradient:[true],sym_shape_str:"shape[1], data[S0]"} : () -> builtin.tensor<1xi32>
    (%1) = "pd_op.data" () {dtype:(pd_op.DataType)int32,name:"_jst.1.var_1.0",place:(pd_op.Place)Place(undefined:0),shape:(pd_op.IntArray)[1],stop_gradient:[true],sym_shape_str:"shape[1], data[S1]"} : () -> builtin.tensor<1xi32>
    (%2) = "pd_op.data" () {dtype:(pd_op.DataType)float32,name:"_jst.2.var_2.0",place:(pd_op.Place)Place(undefined:0),shape:(pd_op.IntArray)[1,512,97,97],stop_gradient:[false],sym_shape_str:"shape[1, 512, 97, 97], data[NULL]"} : () -> builtin.tensor<1x512x97x97xf32>
    (%3) = "pd_op.data" () {dtype:(pd_op.DataType)int32,name:"_jst.3.var_3.0",place:(pd_op.Place)Place(undefined:0),shape:(pd_op.IntArray)[4],stop_gradient:[true],sym_shape_str:"shape[4], data[S2, S3, S4, S5]"} : () -> builtin.tensor<4xi32>
    (%4) = "pd_op.data" () {dtype:(pd_op.DataType)int32,name:"_jst.4.var_4.0",place:(pd_op.Place)Place(undefined:0),shape:(pd_op.IntArray)[1],stop_gradient:[true],sym_shape_str:"shape[1], data[S6]"} : () -> builtin.tensor<1xi32>
    (%5) = "pd_op.data" () {dtype:(pd_op.DataType)int32,name:"_jst.5.var_5.0",place:(pd_op.Place)Place(undefined:0),shape:(pd_op.IntArray)[1],stop_gradient:[true],sym_shape_str:"shape[1], data[S7]"} : () -> builtin.tensor<1xi32>
    (%6) = "pd_op.full" () {dtype:(pd_op.DataType)int32,place:(pd_op.Place)Place(undefined:0),shape:(pd_op.IntArray)[],stop_gradient:[true],sym_shape_str:"shape[], data[2]",value:(Double)2} : () -> builtin.tensor<i32>
    (%7) = "pd_op.floor_divide" (%0, %6) {stop_gradient:[true],sym_shape_str:"shape[1], data[Mul(S0, 1 / (2))]"} : (builtin.tensor<1xi32>, builtin.tensor<i32>) -> builtin.tensor<1xi32>
    (%8) = "pd_op.subtract" (%0, %7) {stop_gradient:[true],sym_shape_str:"shape[1], data[Add(S0, -Mul(S0, 1 / (2)))]"} : (builtin.tensor<1xi32>, builtin.tensor<1xi32>) -> builtin.tensor<1xi32>
    (%9) = "pd_op.floor_divide" (%1, %6) {stop_gradient:[true],sym_shape_str:"shape[1], data[Mul(S1, 1 / (2))]"} : (builtin.tensor<1xi32>, builtin.tensor<i32>) -> builtin.tensor<1xi32>
    (%10) = "pd_op.subtract" (%1, %9) {stop_gradient:[true],sym_shape_str:"shape[1], data[Add(S1, -Mul(S1, 1 / (2)))]"} : (builtin.tensor<1xi32>, builtin.tensor<1xi32>) -> builtin.tensor<1xi32>
    (%11) = "pd_op.full" () {dtype:(pd_op.DataType)int32,place:(pd_op.Place)Place(cpu),shape:(pd_op.IntArray)[1],stop_gradient:[true],sym_shape_str:"shape[1], data[0]",value:(Double)0} : () -> builtin.tensor<1xi32>
    (%12) = "builtin.combine" (%7, %8, %9, %10) {stop_gradient:[true],sym_shape_str:"shape[1], data[Mul(S0, 1 / (2))], shape[1], data[Add(S0, -Mul(S0, 1 / (2)))], shape[1], data[Mul(S1, 1 / (2))], shape[1], data[Add(S1, -Mul(S1, 1 / (2)))]"} : (builtin.tensor<1xi32>, builtin.tensor<1xi32>, builtin.tensor<1xi32>, builtin.tensor<1xi32>) -> vec[builtin.tensor<1xi32>,builtin.tensor<1xi32>,builtin.tensor<1xi32>,builtin.tensor<1xi32>]
    (%13) = "pd_op.concat" (%12, %11) {stop_gradient:[true],sym_shape_str:"shape[4], data[Mul(S0, 1 / (2)), Add(S0, -Mul(S0, 1 / (2))), Mul(S1, 1 / (2)), Add(S1, -Mul(S1, 1 / (2)))]"} : (vec[builtin.tensor<1xi32>,builtin.tensor<1xi32>,builtin.tensor<1xi32>,builtin.tensor<1xi32>], builtin.tensor<1xi32>) -> builtin.tensor<4xi32>
    (%14) = "pd_op.full" () {dtype:(pd_op.DataType)int32,place:(pd_op.Place)Place(undefined:0),shape:(pd_op.IntArray)[2],stop_gradient:[true],sym_shape_str:"shape[2], data[0, 0]",value:(Double)0} : () -> builtin.tensor<2xi32>
    (%15) = "builtin.combine" (%13, %14) {stop_gradient:[true],sym_shape_str:"shape[4], data[Mul(S0, 1 / (2)), Add(S0, -Mul(S0, 1 / (2))), Mul(S1, 1 / (2)), Add(S1, -Mul(S1, 1 / (2)))], shape[2], data[0, 0]"} : (builtin.tensor<4xi32>, builtin.tensor<2xi32>) -> vec[builtin.tensor<4xi32>,builtin.tensor<2xi32>]
    (%16) = "pd_op.concat" (%15, %11) {stop_gradient:[true],sym_shape_str:"shape[6], data[Mul(S0, 1 / (2)), Add(S0, -Mul(S0, 1 / (2))), Mul(S1, 1 / (2)), Add(S1, -Mul(S1, 1 / (2))), 0, 0]"} : (vec[builtin.tensor<4xi32>,builtin.tensor<2xi32>], builtin.tensor<1xi32>) -> builtin.tensor<6xi32>
    (%17) = "pd_op.full_int_array" () {dtype:(pd_op.DataType)int64,place:(pd_op.Place)Place(cpu),stop_gradient:[true],sym_shape_str:"shape[1], data[2]",value:[(Int64)2]} : () -> builtin.tensor<1xi64>
    (%18) = "pd_op.full_int_array" () {dtype:(pd_op.DataType)int64,place:(pd_op.Place)Place(cpu),stop_gradient:[true],sym_shape_str:"shape[5], data[1, 512, 1, 97, 97]",value:[(Int64)1,(Int64)512,(Int64)1,(Int64)97,(Int64)97]} : () -> builtin.tensor<5xi64>
    (%19) = "pd_op.reshape" (%2, %18) {stop_gradient:[false],sym_shape_str:"shape[1, 512, 1, 97, 97], data[NULL]"} : (builtin.tensor<1x512x97x97xf32>, builtin.tensor<5xi64>) -> builtin.tensor<1x512x1x97x97xf32>
    (%20) = "pd_op.pad3d" (%19, %16) {data_format:"NCDHW",mode:"constant",pad_value:(Float)0,stop_gradient:[false],sym_shape_str:"shape[1, 512, 1, Add(S1, 97), Add(S0, 97)], data[NULL]"} : (builtin.tensor<1x512x1x97x97xf32>, builtin.tensor<6xi32>) -> builtin.tensor<1x512x-1x-1x-1xf32>
    (%21) = "pd_op.squeeze" (%20, %17) {stop_gradient:[false],sym_shape_str:"shape[1, 512, Add(S1, 97), Add(S0, 97)], data[NULL]"} : (builtin.tensor<1x512x-1x-1x-1xf32>, builtin.tensor<1xi64>) -> builtin.tensor<1x512x-1x-1xf32>
    (%22) = "pd_op.full_int_array" () {dtype:(pd_op.DataType)int64,place:(pd_op.Place)Place(cpu),stop_gradient:[true],sym_shape_str:"shape[1], data[1]",value:[(Int64)1]} : () -> builtin.tensor<1xi64>
    (%23) = "pd_op.slice" (%3, %22, %17) {axes:[(Int64)0],decrease_axis:[(Int64)0],infer_flags:[(Int64)1],stop_gradient:[true],sym_shape_str:"shape[], data[S3]"} : (builtin.tensor<4xi32>, builtin.tensor<1xi64>, builtin.tensor<1xi64>) -> builtin.tensor<i32>
    (%24) = "pd_op.full" () {dtype:(pd_op.DataType)int64,place:(pd_op.Place)Place(cpu),shape:(pd_op.IntArray)[],stop_gradient:[true],sym_shape_str:"shape[], data[0]",value:(Double)0} : () -> builtin.tensor<i64>
    (%25) = "pd_op.cast" (%23) {dtype:(pd_op.DataType)int64,stop_gradient:[true],sym_shape_str:"shape[], data[S3]"} : (builtin.tensor<i32>) -> builtin.tensor<i64>
    (%26) = "pd_op.cast" (%4) {dtype:(pd_op.DataType)int64,stop_gradient:[true],sym_shape_str:"shape[1], data[S6]"} : (builtin.tensor<1xi32>) -> builtin.tensor<1xi64>
    (%27) = "pd_op.full_int_array" () {dtype:(pd_op.DataType)int64,place:(pd_op.Place)Place(cpu),stop_gradient:[true],sym_shape_str:"shape[0], data[]",value:[]} : () -> builtin.tensor<0xi64>
    (%28) = "pd_op.reshape" (%26, %27) {stop_gradient:[true],sym_shape_str:"shape[], data[S6]"} : (builtin.tensor<1xi64>, builtin.tensor<0xi64>) -> builtin.tensor<i64>
    (%29) = "pd_op.full" () {dtype:(pd_op.DataType)int64,place:(pd_op.Place)Place(cpu),shape:(pd_op.IntArray)[],stop_gradient:[true],sym_shape_str:"shape[], data[8]",value:(Double)8} : () -> builtin.tensor<i64>
    (%30) = "pd_op.cast" (%5) {dtype:(pd_op.DataType)int64,stop_gradient:[true],sym_shape_str:"shape[1], data[S7]"} : (builtin.tensor<1xi32>) -> builtin.tensor<1xi64>
    (%31) = "pd_op.reshape" (%30, %27) {stop_gradient:[true],sym_shape_str:"shape[], data[S7]"} : (builtin.tensor<1xi64>, builtin.tensor<0xi64>) -> builtin.tensor<i64>
    (%32) = "builtin.combine" (%24, %25, %28, %29, %31, %29) {stop_gradient:[true],sym_shape_str:"shape[], data[0], shape[], data[S3], shape[], data[S6], shape[], data[8], shape[], data[S7], shape[], data[8]"} : (builtin.tensor<i64>, builtin.tensor<i64>, builtin.tensor<i64>, builtin.tensor<i64>, builtin.tensor<i64>, builtin.tensor<i64>) -> vec[builtin.tensor<i64>,builtin.tensor<i64>,builtin.tensor<i64>,builtin.tensor<i64>,builtin.tensor<i64>,builtin.tensor<i64>]
    (%33) = "pd_op.reshape" (%24, %22) {stop_gradient:[true],sym_shape_str:"shape[1], data[0]"} : (builtin.tensor<i64>, builtin.tensor<1xi64>) -> builtin.tensor<1xi64>
    (%34) = "pd_op.reshape" (%25, %22) {stop_gradient:[true],sym_shape_str:"shape[1], data[S3]"} : (builtin.tensor<i64>, builtin.tensor<1xi64>) -> builtin.tensor<1xi64>
    (%35) = "pd_op.reshape" (%28, %22) {stop_gradient:[true],sym_shape_str:"shape[1], data[S6]"} : (builtin.tensor<i64>, builtin.tensor<1xi64>) -> builtin.tensor<1xi64>
    (%36) = "pd_op.reshape" (%29, %22) {stop_gradient:[true],sym_shape_str:"shape[1], data[8]"} : (builtin.tensor<i64>, builtin.tensor<1xi64>) -> builtin.tensor<1xi64>
    (%37) = "pd_op.reshape" (%31, %22) {stop_gradient:[true],sym_shape_str:"shape[1], data[S7]"} : (builtin.tensor<i64>, builtin.tensor<1xi64>) -> builtin.tensor<1xi64>
    (%38) = "builtin.combine" (%33, %34, %35, %36, %37, %36) {stop_gradient:[true],sym_shape_str:"shape[1], data[0], shape[1], data[S3], shape[1], data[S6], shape[1], data[8], shape[1], data[S7], shape[1], data[8]"} : (builtin.tensor<1xi64>, builtin.tensor<1xi64>, builtin.tensor<1xi64>, builtin.tensor<1xi64>, builtin.tensor<1xi64>, builtin.tensor<1xi64>) -> vec[builtin.tensor<1xi64>,builtin.tensor<1xi64>,builtin.tensor<1xi64>,builtin.tensor<1xi64>,builtin.tensor<1xi64>,builtin.tensor<1xi64>]
    (%39) = "pd_op.concat" (%38, %11) {stop_gradient:[true],sym_shape_str:"shape[6], data[0, S3, S6, 8, S7, 8]"} : (vec[builtin.tensor<1xi64>,builtin.tensor<1xi64>,builtin.tensor<1xi64>,builtin.tensor<1xi64>,builtin.tensor<1xi64>,builtin.tensor<1xi64>], builtin.tensor<1xi32>) -> builtin.tensor<6xi64>
    (%40) = "pd_op.reshape" (%21, %39) {stop_gradient:[false],sym_shape_str:"shape[1, S3, S6, 8, S7, 8], data[NULL]"} : (builtin.tensor<1x512x-1x-1xf32>, builtin.tensor<6xi64>) -> builtin.tensor<1x-1x-1x8x-1x8xf32>
    (%41) = "pd_op.transpose" (%40) {perm:[(Int32)0,(Int32)3,(Int32)5,(Int32)1,(Int32)2,(Int32)4],stop_gradient:[false],sym_shape_str:"shape[1, 8, 8, S3, S6, S7], data[NULL]"} : (builtin.tensor<1x-1x-1x8x-1x8xf32>) -> builtin.tensor<1x8x8x-1x-1x-1xf32>
    (%42) = "pd_op.full" () {dtype:(pd_op.DataType)int64,place:(pd_op.Place)Place(cpu),shape:(pd_op.IntArray)[],stop_gradient:[true],sym_shape_str:"shape[], data[-1]",value:(Double)-1} : () -> builtin.tensor<i64>
    (%43) = "pd_op.full" () {dtype:(pd_op.DataType)int64,place:(pd_op.Place)Place(cpu),shape:(pd_op.IntArray)[],stop_gradient:[true],sym_shape_str:"shape[], data[512]",value:(Double)512} : () -> builtin.tensor<i64>
    (%44) = "builtin.combine" (%42, %43, %28, %31) {stop_gradient:[true],sym_shape_str:"shape[], data[-1], shape[], data[512], shape[], data[S6], shape[], data[S7]"} : (builtin.tensor<i64>, builtin.tensor<i64>, builtin.tensor<i64>, builtin.tensor<i64>) -> vec[builtin.tensor<i64>,builtin.tensor<i64>,builtin.tensor<i64>,builtin.tensor<i64>]
    (%45) = "pd_op.reshape" (%42, %22) {stop_gradient:[true],sym_shape_str:"shape[1], data[-1]"} : (builtin.tensor<i64>, builtin.tensor<1xi64>) -> builtin.tensor<1xi64>
    (%46) = "pd_op.reshape" (%43, %22) {stop_gradient:[true],sym_shape_str:"shape[1], data[512]"} : (builtin.tensor<i64>, builtin.tensor<1xi64>) -> builtin.tensor<1xi64>
    (%47) = "builtin.combine" (%45, %46, %35, %37) {stop_gradient:[true],sym_shape_str:"shape[1], data[-1], shape[1], data[512], shape[1], data[S6], shape[1], data[S7]"} : (builtin.tensor<1xi64>, builtin.tensor<1xi64>, builtin.tensor<1xi64>, builtin.tensor<1xi64>) -> vec[builtin.tensor<1xi64>,builtin.tensor<1xi64>,builtin.tensor<1xi64>,builtin.tensor<1xi64>]
    (%48) = "pd_op.concat" (%47, %11) {stop_gradient:[true],sym_shape_str:"shape[4], data[-1, 512, S6, S7]"} : (vec[builtin.tensor<1xi64>,builtin.tensor<1xi64>,builtin.tensor<1xi64>,builtin.tensor<1xi64>], builtin.tensor<1xi32>) -> builtin.tensor<4xi64>
    (%49) = "pd_op.reshape" (%41, %48) {stop_gradient:[false],sym_shape_str:"shape[Mul(S3, 1 / (8)), 512, S6, S7], data[NULL]"} : (builtin.tensor<1x8x8x-1x-1x-1xf32>, builtin.tensor<4xi64>) -> builtin.tensor<-1x512x-1x-1xf32>
    () = "builtin.shadow_output" (%49) {output_name:"output_0",sym_shape_str:"shape[Mul(S3, 1 / (8)), 512, S6, S7], data[NULL]"} : (builtin.tensor<-1x512x-1x-1xf32>) -> 
}


===---------------------------------------------------------------------------===
        IRPrinting on builtin.module after fuse_parallel_matmul_pass pass
===---------------------------------------------------------------------------===
{
    (%0) = "pd_op.data" () {dtype:(pd_op.DataType)int32,name:"_jst.0.var_0.0",place:(pd_op.Place)Place(undefined:0),shape:(pd_op.IntArray)[1],stop_gradient:[true],sym_shape_str:"shape[1], data[S0]"} : () -> builtin.tensor<1xi32>
    (%1) = "pd_op.data" () {dtype:(pd_op.DataType)int32,name:"_jst.1.var_1.0",place:(pd_op.Place)Place(undefined:0),shape:(pd_op.IntArray)[1],stop_gradient:[true],sym_shape_str:"shape[1], data[S1]"} : () -> builtin.tensor<1xi32>
    (%2) = "pd_op.data" () {dtype:(pd_op.DataType)float32,name:"_jst.2.var_2.0",place:(pd_op.Place)Place(undefined:0),shape:(pd_op.IntArray)[1,512,97,97],stop_gradient:[false],sym_shape_str:"shape[1, 512, 97, 97], data[NULL]"} : () -> builtin.tensor<1x512x97x97xf32>
    (%3) = "pd_op.data" () {dtype:(pd_op.DataType)int32,name:"_jst.3.var_3.0",place:(pd_op.Place)Place(undefined:0),shape:(pd_op.IntArray)[4],stop_gradient:[true],sym_shape_str:"shape[4], data[S2, S3, S4, S5]"} : () -> builtin.tensor<4xi32>
    (%4) = "pd_op.data" () {dtype:(pd_op.DataType)int32,name:"_jst.4.var_4.0",place:(pd_op.Place)Place(undefined:0),shape:(pd_op.IntArray)[1],stop_gradient:[true],sym_shape_str:"shape[1], data[S6]"} : () -> builtin.tensor<1xi32>
    (%5) = "pd_op.data" () {dtype:(pd_op.DataType)int32,name:"_jst.5.var_5.0",place:(pd_op.Place)Place(undefined:0),shape:(pd_op.IntArray)[1],stop_gradient:[true],sym_shape_str:"shape[1], data[S7]"} : () -> builtin.tensor<1xi32>
    (%6) = "pd_op.full" () {dtype:(pd_op.DataType)int32,place:(pd_op.Place)Place(undefined:0),shape:(pd_op.IntArray)[],stop_gradient:[true],sym_shape_str:"shape[], data[2]",value:(Double)2} : () -> builtin.tensor<i32>
    (%7) = "pd_op.floor_divide" (%0, %6) {stop_gradient:[true],sym_shape_str:"shape[1], data[Mul(S0, 1 / (2))]"} : (builtin.tensor<1xi32>, builtin.tensor<i32>) -> builtin.tensor<1xi32>
    (%8) = "pd_op.subtract" (%0, %7) {stop_gradient:[true],sym_shape_str:"shape[1], data[Add(S0, -Mul(S0, 1 / (2)))]"} : (builtin.tensor<1xi32>, builtin.tensor<1xi32>) -> builtin.tensor<1xi32>
    (%9) = "pd_op.floor_divide" (%1, %6) {stop_gradient:[true],sym_shape_str:"shape[1], data[Mul(S1, 1 / (2))]"} : (builtin.tensor<1xi32>, builtin.tensor<i32>) -> builtin.tensor<1xi32>
    (%10) = "pd_op.subtract" (%1, %9) {stop_gradient:[true],sym_shape_str:"shape[1], data[Add(S1, -Mul(S1, 1 / (2)))]"} : (builtin.tensor<1xi32>, builtin.tensor<1xi32>) -> builtin.tensor<1xi32>
    (%11) = "pd_op.full" () {dtype:(pd_op.DataType)int32,place:(pd_op.Place)Place(cpu),shape:(pd_op.IntArray)[1],stop_gradient:[true],sym_shape_str:"shape[1], data[0]",value:(Double)0} : () -> builtin.tensor<1xi32>
    (%12) = "builtin.combine" (%7, %8, %9, %10) {stop_gradient:[true],sym_shape_str:"shape[1], data[Mul(S0, 1 / (2))], shape[1], data[Add(S0, -Mul(S0, 1 / (2)))], shape[1], data[Mul(S1, 1 / (2))], shape[1], data[Add(S1, -Mul(S1, 1 / (2)))]"} : (builtin.tensor<1xi32>, builtin.tensor<1xi32>, builtin.tensor<1xi32>, builtin.tensor<1xi32>) -> vec[builtin.tensor<1xi32>,builtin.tensor<1xi32>,builtin.tensor<1xi32>,builtin.tensor<1xi32>]
    (%13) = "pd_op.concat" (%12, %11) {stop_gradient:[true],sym_shape_str:"shape[4], data[Mul(S0, 1 / (2)), Add(S0, -Mul(S0, 1 / (2))), Mul(S1, 1 / (2)), Add(S1, -Mul(S1, 1 / (2)))]"} : (vec[builtin.tensor<1xi32>,builtin.tensor<1xi32>,builtin.tensor<1xi32>,builtin.tensor<1xi32>], builtin.tensor<1xi32>) -> builtin.tensor<4xi32>
    (%14) = "pd_op.full" () {dtype:(pd_op.DataType)int32,place:(pd_op.Place)Place(undefined:0),shape:(pd_op.IntArray)[2],stop_gradient:[true],sym_shape_str:"shape[2], data[0, 0]",value:(Double)0} : () -> builtin.tensor<2xi32>
    (%15) = "builtin.combine" (%13, %14) {stop_gradient:[true],sym_shape_str:"shape[4], data[Mul(S0, 1 / (2)), Add(S0, -Mul(S0, 1 / (2))), Mul(S1, 1 / (2)), Add(S1, -Mul(S1, 1 / (2)))], shape[2], data[0, 0]"} : (builtin.tensor<4xi32>, builtin.tensor<2xi32>) -> vec[builtin.tensor<4xi32>,builtin.tensor<2xi32>]
    (%16) = "pd_op.concat" (%15, %11) {stop_gradient:[true],sym_shape_str:"shape[6], data[Mul(S0, 1 / (2)), Add(S0, -Mul(S0, 1 / (2))), Mul(S1, 1 / (2)), Add(S1, -Mul(S1, 1 / (2))), 0, 0]"} : (vec[builtin.tensor<4xi32>,builtin.tensor<2xi32>], builtin.tensor<1xi32>) -> builtin.tensor<6xi32>
    (%17) = "pd_op.full_int_array" () {dtype:(pd_op.DataType)int64,place:(pd_op.Place)Place(cpu),stop_gradient:[true],sym_shape_str:"shape[1], data[2]",value:[(Int64)2]} : () -> builtin.tensor<1xi64>
    (%18) = "pd_op.full_int_array" () {dtype:(pd_op.DataType)int64,place:(pd_op.Place)Place(cpu),stop_gradient:[true],sym_shape_str:"shape[5], data[1, 512, 1, 97, 97]",value:[(Int64)1,(Int64)512,(Int64)1,(Int64)97,(Int64)97]} : () -> builtin.tensor<5xi64>
    (%19) = "pd_op.reshape" (%2, %18) {stop_gradient:[false],sym_shape_str:"shape[1, 512, 1, 97, 97], data[NULL]"} : (builtin.tensor<1x512x97x97xf32>, builtin.tensor<5xi64>) -> builtin.tensor<1x512x1x97x97xf32>
    (%20) = "pd_op.pad3d" (%19, %16) {data_format:"NCDHW",mode:"constant",pad_value:(Float)0,stop_gradient:[false],sym_shape_str:"shape[1, 512, 1, Add(S1, 97), Add(S0, 97)], data[NULL]"} : (builtin.tensor<1x512x1x97x97xf32>, builtin.tensor<6xi32>) -> builtin.tensor<1x512x-1x-1x-1xf32>
    (%21) = "pd_op.squeeze" (%20, %17) {stop_gradient:[false],sym_shape_str:"shape[1, 512, Add(S1, 97), Add(S0, 97)], data[NULL]"} : (builtin.tensor<1x512x-1x-1x-1xf32>, builtin.tensor<1xi64>) -> builtin.tensor<1x512x-1x-1xf32>
    (%22) = "pd_op.full_int_array" () {dtype:(pd_op.DataType)int64,place:(pd_op.Place)Place(cpu),stop_gradient:[true],sym_shape_str:"shape[1], data[1]",value:[(Int64)1]} : () -> builtin.tensor<1xi64>
    (%23) = "pd_op.slice" (%3, %22, %17) {axes:[(Int64)0],decrease_axis:[(Int64)0],infer_flags:[(Int64)1],stop_gradient:[true],sym_shape_str:"shape[], data[S3]"} : (builtin.tensor<4xi32>, builtin.tensor<1xi64>, builtin.tensor<1xi64>) -> builtin.tensor<i32>
    (%24) = "pd_op.full" () {dtype:(pd_op.DataType)int64,place:(pd_op.Place)Place(cpu),shape:(pd_op.IntArray)[],stop_gradient:[true],sym_shape_str:"shape[], data[0]",value:(Double)0} : () -> builtin.tensor<i64>
    (%25) = "pd_op.cast" (%23) {dtype:(pd_op.DataType)int64,stop_gradient:[true],sym_shape_str:"shape[], data[S3]"} : (builtin.tensor<i32>) -> builtin.tensor<i64>
    (%26) = "pd_op.cast" (%4) {dtype:(pd_op.DataType)int64,stop_gradient:[true],sym_shape_str:"shape[1], data[S6]"} : (builtin.tensor<1xi32>) -> builtin.tensor<1xi64>
    (%27) = "pd_op.full_int_array" () {dtype:(pd_op.DataType)int64,place:(pd_op.Place)Place(cpu),stop_gradient:[true],sym_shape_str:"shape[0], data[]",value:[]} : () -> builtin.tensor<0xi64>
    (%28) = "pd_op.reshape" (%26, %27) {stop_gradient:[true],sym_shape_str:"shape[], data[S6]"} : (builtin.tensor<1xi64>, builtin.tensor<0xi64>) -> builtin.tensor<i64>
    (%29) = "pd_op.full" () {dtype:(pd_op.DataType)int64,place:(pd_op.Place)Place(cpu),shape:(pd_op.IntArray)[],stop_gradient:[true],sym_shape_str:"shape[], data[8]",value:(Double)8} : () -> builtin.tensor<i64>
    (%30) = "pd_op.cast" (%5) {dtype:(pd_op.DataType)int64,stop_gradient:[true],sym_shape_str:"shape[1], data[S7]"} : (builtin.tensor<1xi32>) -> builtin.tensor<1xi64>
    (%31) = "pd_op.reshape" (%30, %27) {stop_gradient:[true],sym_shape_str:"shape[], data[S7]"} : (builtin.tensor<1xi64>, builtin.tensor<0xi64>) -> builtin.tensor<i64>
    (%32) = "builtin.combine" (%24, %25, %28, %29, %31, %29) {stop_gradient:[true],sym_shape_str:"shape[], data[0], shape[], data[S3], shape[], data[S6], shape[], data[8], shape[], data[S7], shape[], data[8]"} : (builtin.tensor<i64>, builtin.tensor<i64>, builtin.tensor<i64>, builtin.tensor<i64>, builtin.tensor<i64>, builtin.tensor<i64>) -> vec[builtin.tensor<i64>,builtin.tensor<i64>,builtin.tensor<i64>,builtin.tensor<i64>,builtin.tensor<i64>,builtin.tensor<i64>]
    (%33) = "pd_op.reshape" (%24, %22) {stop_gradient:[true],sym_shape_str:"shape[1], data[0]"} : (builtin.tensor<i64>, builtin.tensor<1xi64>) -> builtin.tensor<1xi64>
    (%34) = "pd_op.reshape" (%25, %22) {stop_gradient:[true],sym_shape_str:"shape[1], data[S3]"} : (builtin.tensor<i64>, builtin.tensor<1xi64>) -> builtin.tensor<1xi64>
    (%35) = "pd_op.reshape" (%28, %22) {stop_gradient:[true],sym_shape_str:"shape[1], data[S6]"} : (builtin.tensor<i64>, builtin.tensor<1xi64>) -> builtin.tensor<1xi64>
    (%36) = "pd_op.reshape" (%29, %22) {stop_gradient:[true],sym_shape_str:"shape[1], data[8]"} : (builtin.tensor<i64>, builtin.tensor<1xi64>) -> builtin.tensor<1xi64>
    (%37) = "pd_op.reshape" (%31, %22) {stop_gradient:[true],sym_shape_str:"shape[1], data[S7]"} : (builtin.tensor<i64>, builtin.tensor<1xi64>) -> builtin.tensor<1xi64>
    (%38) = "builtin.combine" (%33, %34, %35, %36, %37, %36) {stop_gradient:[true],sym_shape_str:"shape[1], data[0], shape[1], data[S3], shape[1], data[S6], shape[1], data[8], shape[1], data[S7], shape[1], data[8]"} : (builtin.tensor<1xi64>, builtin.tensor<1xi64>, builtin.tensor<1xi64>, builtin.tensor<1xi64>, builtin.tensor<1xi64>, builtin.tensor<1xi64>) -> vec[builtin.tensor<1xi64>,builtin.tensor<1xi64>,builtin.tensor<1xi64>,builtin.tensor<1xi64>,builtin.tensor<1xi64>,builtin.tensor<1xi64>]
    (%39) = "pd_op.concat" (%38, %11) {stop_gradient:[true],sym_shape_str:"shape[6], data[0, S3, S6, 8, S7, 8]"} : (vec[builtin.tensor<1xi64>,builtin.tensor<1xi64>,builtin.tensor<1xi64>,builtin.tensor<1xi64>,builtin.tensor<1xi64>,builtin.tensor<1xi64>], builtin.tensor<1xi32>) -> builtin.tensor<6xi64>
    (%40) = "pd_op.reshape" (%21, %39) {stop_gradient:[false],sym_shape_str:"shape[1, S3, S6, 8, S7, 8], data[NULL]"} : (builtin.tensor<1x512x-1x-1xf32>, builtin.tensor<6xi64>) -> builtin.tensor<1x-1x-1x8x-1x8xf32>
    (%41) = "pd_op.transpose" (%40) {perm:[(Int32)0,(Int32)3,(Int32)5,(Int32)1,(Int32)2,(Int32)4],stop_gradient:[false],sym_shape_str:"shape[1, 8, 8, S3, S6, S7], data[NULL]"} : (builtin.tensor<1x-1x-1x8x-1x8xf32>) -> builtin.tensor<1x8x8x-1x-1x-1xf32>
    (%42) = "pd_op.full" () {dtype:(pd_op.DataType)int64,place:(pd_op.Place)Place(cpu),shape:(pd_op.IntArray)[],stop_gradient:[true],sym_shape_str:"shape[], data[-1]",value:(Double)-1} : () -> builtin.tensor<i64>
    (%43) = "pd_op.full" () {dtype:(pd_op.DataType)int64,place:(pd_op.Place)Place(cpu),shape:(pd_op.IntArray)[],stop_gradient:[true],sym_shape_str:"shape[], data[512]",value:(Double)512} : () -> builtin.tensor<i64>
    (%44) = "builtin.combine" (%42, %43, %28, %31) {stop_gradient:[true],sym_shape_str:"shape[], data[-1], shape[], data[512], shape[], data[S6], shape[], data[S7]"} : (builtin.tensor<i64>, builtin.tensor<i64>, builtin.tensor<i64>, builtin.tensor<i64>) -> vec[builtin.tensor<i64>,builtin.tensor<i64>,builtin.tensor<i64>,builtin.tensor<i64>]
    (%45) = "pd_op.reshape" (%42, %22) {stop_gradient:[true],sym_shape_str:"shape[1], data[-1]"} : (builtin.tensor<i64>, builtin.tensor<1xi64>) -> builtin.tensor<1xi64>
    (%46) = "pd_op.reshape" (%43, %22) {stop_gradient:[true],sym_shape_str:"shape[1], data[512]"} : (builtin.tensor<i64>, builtin.tensor<1xi64>) -> builtin.tensor<1xi64>
    (%47) = "builtin.combine" (%45, %46, %35, %37) {stop_gradient:[true],sym_shape_str:"shape[1], data[-1], shape[1], data[512], shape[1], data[S6], shape[1], data[S7]"} : (builtin.tensor<1xi64>, builtin.tensor<1xi64>, builtin.tensor<1xi64>, builtin.tensor<1xi64>) -> vec[builtin.tensor<1xi64>,builtin.tensor<1xi64>,builtin.tensor<1xi64>,builtin.tensor<1xi64>]
    (%48) = "pd_op.concat" (%47, %11) {stop_gradient:[true],sym_shape_str:"shape[4], data[-1, 512, S6, S7]"} : (vec[builtin.tensor<1xi64>,builtin.tensor<1xi64>,builtin.tensor<1xi64>,builtin.tensor<1xi64>], builtin.tensor<1xi32>) -> builtin.tensor<4xi64>
    (%49) = "pd_op.reshape" (%41, %48) {stop_gradient:[false],sym_shape_str:"shape[Mul(S3, 1 / (8)), 512, S6, S7], data[NULL]"} : (builtin.tensor<1x8x8x-1x-1x-1xf32>, builtin.tensor<4xi64>) -> builtin.tensor<-1x512x-1x-1xf32>
    () = "builtin.shadow_output" (%49) {output_name:"output_0",sym_shape_str:"shape[Mul(S3, 1 / (8)), 512, S6, S7], data[NULL]"} : (builtin.tensor<-1x512x-1x-1xf32>) -> 
}


===-------------------------------------------------------------------------===
        IRPrinting on builtin.module before remove_assign_out_pass pass
===-------------------------------------------------------------------------===
{
    (%0) = "pd_op.data" () {dtype:(pd_op.DataType)int32,name:"_jst.0.var_0.0",place:(pd_op.Place)Place(undefined:0),shape:(pd_op.IntArray)[1],stop_gradient:[true],sym_shape_str:"shape[1], data[S0]"} : () -> builtin.tensor<1xi32>
    (%1) = "pd_op.data" () {dtype:(pd_op.DataType)int32,name:"_jst.1.var_1.0",place:(pd_op.Place)Place(undefined:0),shape:(pd_op.IntArray)[1],stop_gradient:[true],sym_shape_str:"shape[1], data[S1]"} : () -> builtin.tensor<1xi32>
    (%2) = "pd_op.data" () {dtype:(pd_op.DataType)float32,name:"_jst.2.var_2.0",place:(pd_op.Place)Place(undefined:0),shape:(pd_op.IntArray)[1,512,97,97],stop_gradient:[false],sym_shape_str:"shape[1, 512, 97, 97], data[NULL]"} : () -> builtin.tensor<1x512x97x97xf32>
    (%3) = "pd_op.data" () {dtype:(pd_op.DataType)int32,name:"_jst.3.var_3.0",place:(pd_op.Place)Place(undefined:0),shape:(pd_op.IntArray)[4],stop_gradient:[true],sym_shape_str:"shape[4], data[S2, S3, S4, S5]"} : () -> builtin.tensor<4xi32>
    (%4) = "pd_op.data" () {dtype:(pd_op.DataType)int32,name:"_jst.4.var_4.0",place:(pd_op.Place)Place(undefined:0),shape:(pd_op.IntArray)[1],stop_gradient:[true],sym_shape_str:"shape[1], data[S6]"} : () -> builtin.tensor<1xi32>
    (%5) = "pd_op.data" () {dtype:(pd_op.DataType)int32,name:"_jst.5.var_5.0",place:(pd_op.Place)Place(undefined:0),shape:(pd_op.IntArray)[1],stop_gradient:[true],sym_shape_str:"shape[1], data[S7]"} : () -> builtin.tensor<1xi32>
    (%6) = "pd_op.full" () {dtype:(pd_op.DataType)int32,place:(pd_op.Place)Place(undefined:0),shape:(pd_op.IntArray)[],stop_gradient:[true],sym_shape_str:"shape[], data[2]",value:(Double)2} : () -> builtin.tensor<i32>
    (%7) = "pd_op.floor_divide" (%0, %6) {stop_gradient:[true],sym_shape_str:"shape[1], data[Mul(S0, 1 / (2))]"} : (builtin.tensor<1xi32>, builtin.tensor<i32>) -> builtin.tensor<1xi32>
    (%8) = "pd_op.subtract" (%0, %7) {stop_gradient:[true],sym_shape_str:"shape[1], data[Add(S0, -Mul(S0, 1 / (2)))]"} : (builtin.tensor<1xi32>, builtin.tensor<1xi32>) -> builtin.tensor<1xi32>
    (%9) = "pd_op.floor_divide" (%1, %6) {stop_gradient:[true],sym_shape_str:"shape[1], data[Mul(S1, 1 / (2))]"} : (builtin.tensor<1xi32>, builtin.tensor<i32>) -> builtin.tensor<1xi32>
    (%10) = "pd_op.subtract" (%1, %9) {stop_gradient:[true],sym_shape_str:"shape[1], data[Add(S1, -Mul(S1, 1 / (2)))]"} : (builtin.tensor<1xi32>, builtin.tensor<1xi32>) -> builtin.tensor<1xi32>
    (%11) = "pd_op.full" () {dtype:(pd_op.DataType)int32,place:(pd_op.Place)Place(cpu),shape:(pd_op.IntArray)[1],stop_gradient:[true],sym_shape_str:"shape[1], data[0]",value:(Double)0} : () -> builtin.tensor<1xi32>
    (%12) = "builtin.combine" (%7, %8, %9, %10) {stop_gradient:[true],sym_shape_str:"shape[1], data[Mul(S0, 1 / (2))], shape[1], data[Add(S0, -Mul(S0, 1 / (2)))], shape[1], data[Mul(S1, 1 / (2))], shape[1], data[Add(S1, -Mul(S1, 1 / (2)))]"} : (builtin.tensor<1xi32>, builtin.tensor<1xi32>, builtin.tensor<1xi32>, builtin.tensor<1xi32>) -> vec[builtin.tensor<1xi32>,builtin.tensor<1xi32>,builtin.tensor<1xi32>,builtin.tensor<1xi32>]
    (%13) = "pd_op.concat" (%12, %11) {stop_gradient:[true],sym_shape_str:"shape[4], data[Mul(S0, 1 / (2)), Add(S0, -Mul(S0, 1 / (2))), Mul(S1, 1 / (2)), Add(S1, -Mul(S1, 1 / (2)))]"} : (vec[builtin.tensor<1xi32>,builtin.tensor<1xi32>,builtin.tensor<1xi32>,builtin.tensor<1xi32>], builtin.tensor<1xi32>) -> builtin.tensor<4xi32>
    (%14) = "pd_op.full" () {dtype:(pd_op.DataType)int32,place:(pd_op.Place)Place(undefined:0),shape:(pd_op.IntArray)[2],stop_gradient:[true],sym_shape_str:"shape[2], data[0, 0]",value:(Double)0} : () -> builtin.tensor<2xi32>
    (%15) = "builtin.combine" (%13, %14) {stop_gradient:[true],sym_shape_str:"shape[4], data[Mul(S0, 1 / (2)), Add(S0, -Mul(S0, 1 / (2))), Mul(S1, 1 / (2)), Add(S1, -Mul(S1, 1 / (2)))], shape[2], data[0, 0]"} : (builtin.tensor<4xi32>, builtin.tensor<2xi32>) -> vec[builtin.tensor<4xi32>,builtin.tensor<2xi32>]
    (%16) = "pd_op.concat" (%15, %11) {stop_gradient:[true],sym_shape_str:"shape[6], data[Mul(S0, 1 / (2)), Add(S0, -Mul(S0, 1 / (2))), Mul(S1, 1 / (2)), Add(S1, -Mul(S1, 1 / (2))), 0, 0]"} : (vec[builtin.tensor<4xi32>,builtin.tensor<2xi32>], builtin.tensor<1xi32>) -> builtin.tensor<6xi32>
    (%17) = "pd_op.full_int_array" () {dtype:(pd_op.DataType)int64,place:(pd_op.Place)Place(cpu),stop_gradient:[true],sym_shape_str:"shape[1], data[2]",value:[(Int64)2]} : () -> builtin.tensor<1xi64>
    (%18) = "pd_op.full_int_array" () {dtype:(pd_op.DataType)int64,place:(pd_op.Place)Place(cpu),stop_gradient:[true],sym_shape_str:"shape[5], data[1, 512, 1, 97, 97]",value:[(Int64)1,(Int64)512,(Int64)1,(Int64)97,(Int64)97]} : () -> builtin.tensor<5xi64>
    (%19) = "pd_op.reshape" (%2, %18) {stop_gradient:[false],sym_shape_str:"shape[1, 512, 1, 97, 97], data[NULL]"} : (builtin.tensor<1x512x97x97xf32>, builtin.tensor<5xi64>) -> builtin.tensor<1x512x1x97x97xf32>
    (%20) = "pd_op.pad3d" (%19, %16) {data_format:"NCDHW",mode:"constant",pad_value:(Float)0,stop_gradient:[false],sym_shape_str:"shape[1, 512, 1, Add(S1, 97), Add(S0, 97)], data[NULL]"} : (builtin.tensor<1x512x1x97x97xf32>, builtin.tensor<6xi32>) -> builtin.tensor<1x512x-1x-1x-1xf32>
    (%21) = "pd_op.squeeze" (%20, %17) {stop_gradient:[false],sym_shape_str:"shape[1, 512, Add(S1, 97), Add(S0, 97)], data[NULL]"} : (builtin.tensor<1x512x-1x-1x-1xf32>, builtin.tensor<1xi64>) -> builtin.tensor<1x512x-1x-1xf32>
    (%22) = "pd_op.full_int_array" () {dtype:(pd_op.DataType)int64,place:(pd_op.Place)Place(cpu),stop_gradient:[true],sym_shape_str:"shape[1], data[1]",value:[(Int64)1]} : () -> builtin.tensor<1xi64>
    (%23) = "pd_op.slice" (%3, %22, %17) {axes:[(Int64)0],decrease_axis:[(Int64)0],infer_flags:[(Int64)1],stop_gradient:[true],sym_shape_str:"shape[], data[S3]"} : (builtin.tensor<4xi32>, builtin.tensor<1xi64>, builtin.tensor<1xi64>) -> builtin.tensor<i32>
    (%24) = "pd_op.full" () {dtype:(pd_op.DataType)int64,place:(pd_op.Place)Place(cpu),shape:(pd_op.IntArray)[],stop_gradient:[true],sym_shape_str:"shape[], data[0]",value:(Double)0} : () -> builtin.tensor<i64>
    (%25) = "pd_op.cast" (%23) {dtype:(pd_op.DataType)int64,stop_gradient:[true],sym_shape_str:"shape[], data[S3]"} : (builtin.tensor<i32>) -> builtin.tensor<i64>
    (%26) = "pd_op.cast" (%4) {dtype:(pd_op.DataType)int64,stop_gradient:[true],sym_shape_str:"shape[1], data[S6]"} : (builtin.tensor<1xi32>) -> builtin.tensor<1xi64>
    (%27) = "pd_op.full_int_array" () {dtype:(pd_op.DataType)int64,place:(pd_op.Place)Place(cpu),stop_gradient:[true],sym_shape_str:"shape[0], data[]",value:[]} : () -> builtin.tensor<0xi64>
    (%28) = "pd_op.reshape" (%26, %27) {stop_gradient:[true],sym_shape_str:"shape[], data[S6]"} : (builtin.tensor<1xi64>, builtin.tensor<0xi64>) -> builtin.tensor<i64>
    (%29) = "pd_op.full" () {dtype:(pd_op.DataType)int64,place:(pd_op.Place)Place(cpu),shape:(pd_op.IntArray)[],stop_gradient:[true],sym_shape_str:"shape[], data[8]",value:(Double)8} : () -> builtin.tensor<i64>
    (%30) = "pd_op.cast" (%5) {dtype:(pd_op.DataType)int64,stop_gradient:[true],sym_shape_str:"shape[1], data[S7]"} : (builtin.tensor<1xi32>) -> builtin.tensor<1xi64>
    (%31) = "pd_op.reshape" (%30, %27) {stop_gradient:[true],sym_shape_str:"shape[], data[S7]"} : (builtin.tensor<1xi64>, builtin.tensor<0xi64>) -> builtin.tensor<i64>
    (%32) = "builtin.combine" (%24, %25, %28, %29, %31, %29) {stop_gradient:[true],sym_shape_str:"shape[], data[0], shape[], data[S3], shape[], data[S6], shape[], data[8], shape[], data[S7], shape[], data[8]"} : (builtin.tensor<i64>, builtin.tensor<i64>, builtin.tensor<i64>, builtin.tensor<i64>, builtin.tensor<i64>, builtin.tensor<i64>) -> vec[builtin.tensor<i64>,builtin.tensor<i64>,builtin.tensor<i64>,builtin.tensor<i64>,builtin.tensor<i64>,builtin.tensor<i64>]
    (%33) = "pd_op.reshape" (%24, %22) {stop_gradient:[true],sym_shape_str:"shape[1], data[0]"} : (builtin.tensor<i64>, builtin.tensor<1xi64>) -> builtin.tensor<1xi64>
    (%34) = "pd_op.reshape" (%25, %22) {stop_gradient:[true],sym_shape_str:"shape[1], data[S3]"} : (builtin.tensor<i64>, builtin.tensor<1xi64>) -> builtin.tensor<1xi64>
    (%35) = "pd_op.reshape" (%28, %22) {stop_gradient:[true],sym_shape_str:"shape[1], data[S6]"} : (builtin.tensor<i64>, builtin.tensor<1xi64>) -> builtin.tensor<1xi64>
    (%36) = "pd_op.reshape" (%29, %22) {stop_gradient:[true],sym_shape_str:"shape[1], data[8]"} : (builtin.tensor<i64>, builtin.tensor<1xi64>) -> builtin.tensor<1xi64>
    (%37) = "pd_op.reshape" (%31, %22) {stop_gradient:[true],sym_shape_str:"shape[1], data[S7]"} : (builtin.tensor<i64>, builtin.tensor<1xi64>) -> builtin.tensor<1xi64>
    (%38) = "builtin.combine" (%33, %34, %35, %36, %37, %36) {stop_gradient:[true],sym_shape_str:"shape[1], data[0], shape[1], data[S3], shape[1], data[S6], shape[1], data[8], shape[1], data[S7], shape[1], data[8]"} : (builtin.tensor<1xi64>, builtin.tensor<1xi64>, builtin.tensor<1xi64>, builtin.tensor<1xi64>, builtin.tensor<1xi64>, builtin.tensor<1xi64>) -> vec[builtin.tensor<1xi64>,builtin.tensor<1xi64>,builtin.tensor<1xi64>,builtin.tensor<1xi64>,builtin.tensor<1xi64>,builtin.tensor<1xi64>]
    (%39) = "pd_op.concat" (%38, %11) {stop_gradient:[true],sym_shape_str:"shape[6], data[0, S3, S6, 8, S7, 8]"} : (vec[builtin.tensor<1xi64>,builtin.tensor<1xi64>,builtin.tensor<1xi64>,builtin.tensor<1xi64>,builtin.tensor<1xi64>,builtin.tensor<1xi64>], builtin.tensor<1xi32>) -> builtin.tensor<6xi64>
    (%40) = "pd_op.reshape" (%21, %39) {stop_gradient:[false],sym_shape_str:"shape[1, S3, S6, 8, S7, 8], data[NULL]"} : (builtin.tensor<1x512x-1x-1xf32>, builtin.tensor<6xi64>) -> builtin.tensor<1x-1x-1x8x-1x8xf32>
    (%41) = "pd_op.transpose" (%40) {perm:[(Int32)0,(Int32)3,(Int32)5,(Int32)1,(Int32)2,(Int32)4],stop_gradient:[false],sym_shape_str:"shape[1, 8, 8, S3, S6, S7], data[NULL]"} : (builtin.tensor<1x-1x-1x8x-1x8xf32>) -> builtin.tensor<1x8x8x-1x-1x-1xf32>
    (%42) = "pd_op.full" () {dtype:(pd_op.DataType)int64,place:(pd_op.Place)Place(cpu),shape:(pd_op.IntArray)[],stop_gradient:[true],sym_shape_str:"shape[], data[-1]",value:(Double)-1} : () -> builtin.tensor<i64>
    (%43) = "pd_op.full" () {dtype:(pd_op.DataType)int64,place:(pd_op.Place)Place(cpu),shape:(pd_op.IntArray)[],stop_gradient:[true],sym_shape_str:"shape[], data[512]",value:(Double)512} : () -> builtin.tensor<i64>
    (%44) = "builtin.combine" (%42, %43, %28, %31) {stop_gradient:[true],sym_shape_str:"shape[], data[-1], shape[], data[512], shape[], data[S6], shape[], data[S7]"} : (builtin.tensor<i64>, builtin.tensor<i64>, builtin.tensor<i64>, builtin.tensor<i64>) -> vec[builtin.tensor<i64>,builtin.tensor<i64>,builtin.tensor<i64>,builtin.tensor<i64>]
    (%45) = "pd_op.reshape" (%42, %22) {stop_gradient:[true],sym_shape_str:"shape[1], data[-1]"} : (builtin.tensor<i64>, builtin.tensor<1xi64>) -> builtin.tensor<1xi64>
    (%46) = "pd_op.reshape" (%43, %22) {stop_gradient:[true],sym_shape_str:"shape[1], data[512]"} : (builtin.tensor<i64>, builtin.tensor<1xi64>) -> builtin.tensor<1xi64>
    (%47) = "builtin.combine" (%45, %46, %35, %37) {stop_gradient:[true],sym_shape_str:"shape[1], data[-1], shape[1], data[512], shape[1], data[S6], shape[1], data[S7]"} : (builtin.tensor<1xi64>, builtin.tensor<1xi64>, builtin.tensor<1xi64>, builtin.tensor<1xi64>) -> vec[builtin.tensor<1xi64>,builtin.tensor<1xi64>,builtin.tensor<1xi64>,builtin.tensor<1xi64>]
    (%48) = "pd_op.concat" (%47, %11) {stop_gradient:[true],sym_shape_str:"shape[4], data[-1, 512, S6, S7]"} : (vec[builtin.tensor<1xi64>,builtin.tensor<1xi64>,builtin.tensor<1xi64>,builtin.tensor<1xi64>], builtin.tensor<1xi32>) -> builtin.tensor<4xi64>
    (%49) = "pd_op.reshape" (%41, %48) {stop_gradient:[false],sym_shape_str:"shape[Mul(S3, 1 / (8)), 512, S6, S7], data[NULL]"} : (builtin.tensor<1x8x8x-1x-1x-1xf32>, builtin.tensor<4xi64>) -> builtin.tensor<-1x512x-1x-1xf32>
    () = "builtin.shadow_output" (%49) {output_name:"output_0",sym_shape_str:"shape[Mul(S3, 1 / (8)), 512, S6, S7], data[NULL]"} : (builtin.tensor<-1x512x-1x-1xf32>) -> 
}


===------------------------------------------------------------------------===
        IRPrinting on builtin.module after remove_assign_out_pass pass
===------------------------------------------------------------------------===
{
    (%0) = "pd_op.data" () {dtype:(pd_op.DataType)int32,name:"_jst.0.var_0.0",place:(pd_op.Place)Place(undefined:0),shape:(pd_op.IntArray)[1],stop_gradient:[true],sym_shape_str:"shape[1], data[S0]"} : () -> builtin.tensor<1xi32>
    (%1) = "pd_op.data" () {dtype:(pd_op.DataType)int32,name:"_jst.1.var_1.0",place:(pd_op.Place)Place(undefined:0),shape:(pd_op.IntArray)[1],stop_gradient:[true],sym_shape_str:"shape[1], data[S1]"} : () -> builtin.tensor<1xi32>
    (%2) = "pd_op.data" () {dtype:(pd_op.DataType)float32,name:"_jst.2.var_2.0",place:(pd_op.Place)Place(undefined:0),shape:(pd_op.IntArray)[1,512,97,97],stop_gradient:[false],sym_shape_str:"shape[1, 512, 97, 97], data[NULL]"} : () -> builtin.tensor<1x512x97x97xf32>
    (%3) = "pd_op.data" () {dtype:(pd_op.DataType)int32,name:"_jst.3.var_3.0",place:(pd_op.Place)Place(undefined:0),shape:(pd_op.IntArray)[4],stop_gradient:[true],sym_shape_str:"shape[4], data[S2, S3, S4, S5]"} : () -> builtin.tensor<4xi32>
    (%4) = "pd_op.data" () {dtype:(pd_op.DataType)int32,name:"_jst.4.var_4.0",place:(pd_op.Place)Place(undefined:0),shape:(pd_op.IntArray)[1],stop_gradient:[true],sym_shape_str:"shape[1], data[S6]"} : () -> builtin.tensor<1xi32>
    (%5) = "pd_op.data" () {dtype:(pd_op.DataType)int32,name:"_jst.5.var_5.0",place:(pd_op.Place)Place(undefined:0),shape:(pd_op.IntArray)[1],stop_gradient:[true],sym_shape_str:"shape[1], data[S7]"} : () -> builtin.tensor<1xi32>
    (%6) = "pd_op.full" () {dtype:(pd_op.DataType)int32,place:(pd_op.Place)Place(undefined:0),shape:(pd_op.IntArray)[],stop_gradient:[true],sym_shape_str:"shape[], data[2]",value:(Double)2} : () -> builtin.tensor<i32>
    (%7) = "pd_op.floor_divide" (%0, %6) {stop_gradient:[true],sym_shape_str:"shape[1], data[Mul(S0, 1 / (2))]"} : (builtin.tensor<1xi32>, builtin.tensor<i32>) -> builtin.tensor<1xi32>
    (%8) = "pd_op.subtract" (%0, %7) {stop_gradient:[true],sym_shape_str:"shape[1], data[Add(S0, -Mul(S0, 1 / (2)))]"} : (builtin.tensor<1xi32>, builtin.tensor<1xi32>) -> builtin.tensor<1xi32>
    (%9) = "pd_op.floor_divide" (%1, %6) {stop_gradient:[true],sym_shape_str:"shape[1], data[Mul(S1, 1 / (2))]"} : (builtin.tensor<1xi32>, builtin.tensor<i32>) -> builtin.tensor<1xi32>
    (%10) = "pd_op.subtract" (%1, %9) {stop_gradient:[true],sym_shape_str:"shape[1], data[Add(S1, -Mul(S1, 1 / (2)))]"} : (builtin.tensor<1xi32>, builtin.tensor<1xi32>) -> builtin.tensor<1xi32>
    (%11) = "pd_op.full" () {dtype:(pd_op.DataType)int32,place:(pd_op.Place)Place(cpu),shape:(pd_op.IntArray)[1],stop_gradient:[true],sym_shape_str:"shape[1], data[0]",value:(Double)0} : () -> builtin.tensor<1xi32>
    (%12) = "builtin.combine" (%7, %8, %9, %10) {stop_gradient:[true],sym_shape_str:"shape[1], data[Mul(S0, 1 / (2))], shape[1], data[Add(S0, -Mul(S0, 1 / (2)))], shape[1], data[Mul(S1, 1 / (2))], shape[1], data[Add(S1, -Mul(S1, 1 / (2)))]"} : (builtin.tensor<1xi32>, builtin.tensor<1xi32>, builtin.tensor<1xi32>, builtin.tensor<1xi32>) -> vec[builtin.tensor<1xi32>,builtin.tensor<1xi32>,builtin.tensor<1xi32>,builtin.tensor<1xi32>]
    (%13) = "pd_op.concat" (%12, %11) {stop_gradient:[true],sym_shape_str:"shape[4], data[Mul(S0, 1 / (2)), Add(S0, -Mul(S0, 1 / (2))), Mul(S1, 1 / (2)), Add(S1, -Mul(S1, 1 / (2)))]"} : (vec[builtin.tensor<1xi32>,builtin.tensor<1xi32>,builtin.tensor<1xi32>,builtin.tensor<1xi32>], builtin.tensor<1xi32>) -> builtin.tensor<4xi32>
    (%14) = "pd_op.full" () {dtype:(pd_op.DataType)int32,place:(pd_op.Place)Place(undefined:0),shape:(pd_op.IntArray)[2],stop_gradient:[true],sym_shape_str:"shape[2], data[0, 0]",value:(Double)0} : () -> builtin.tensor<2xi32>
    (%15) = "builtin.combine" (%13, %14) {stop_gradient:[true],sym_shape_str:"shape[4], data[Mul(S0, 1 / (2)), Add(S0, -Mul(S0, 1 / (2))), Mul(S1, 1 / (2)), Add(S1, -Mul(S1, 1 / (2)))], shape[2], data[0, 0]"} : (builtin.tensor<4xi32>, builtin.tensor<2xi32>) -> vec[builtin.tensor<4xi32>,builtin.tensor<2xi32>]
    (%16) = "pd_op.concat" (%15, %11) {stop_gradient:[true],sym_shape_str:"shape[6], data[Mul(S0, 1 / (2)), Add(S0, -Mul(S0, 1 / (2))), Mul(S1, 1 / (2)), Add(S1, -Mul(S1, 1 / (2))), 0, 0]"} : (vec[builtin.tensor<4xi32>,builtin.tensor<2xi32>], builtin.tensor<1xi32>) -> builtin.tensor<6xi32>
    (%17) = "pd_op.full_int_array" () {dtype:(pd_op.DataType)int64,place:(pd_op.Place)Place(cpu),stop_gradient:[true],sym_shape_str:"shape[1], data[2]",value:[(Int64)2]} : () -> builtin.tensor<1xi64>
    (%18) = "pd_op.full_int_array" () {dtype:(pd_op.DataType)int64,place:(pd_op.Place)Place(cpu),stop_gradient:[true],sym_shape_str:"shape[5], data[1, 512, 1, 97, 97]",value:[(Int64)1,(Int64)512,(Int64)1,(Int64)97,(Int64)97]} : () -> builtin.tensor<5xi64>
    (%19) = "pd_op.reshape" (%2, %18) {stop_gradient:[false],sym_shape_str:"shape[1, 512, 1, 97, 97], data[NULL]"} : (builtin.tensor<1x512x97x97xf32>, builtin.tensor<5xi64>) -> builtin.tensor<1x512x1x97x97xf32>
    (%20) = "pd_op.pad3d" (%19, %16) {data_format:"NCDHW",mode:"constant",pad_value:(Float)0,stop_gradient:[false],sym_shape_str:"shape[1, 512, 1, Add(S1, 97), Add(S0, 97)], data[NULL]"} : (builtin.tensor<1x512x1x97x97xf32>, builtin.tensor<6xi32>) -> builtin.tensor<1x512x-1x-1x-1xf32>
    (%21) = "pd_op.squeeze" (%20, %17) {stop_gradient:[false],sym_shape_str:"shape[1, 512, Add(S1, 97), Add(S0, 97)], data[NULL]"} : (builtin.tensor<1x512x-1x-1x-1xf32>, builtin.tensor<1xi64>) -> builtin.tensor<1x512x-1x-1xf32>
    (%22) = "pd_op.full_int_array" () {dtype:(pd_op.DataType)int64,place:(pd_op.Place)Place(cpu),stop_gradient:[true],sym_shape_str:"shape[1], data[1]",value:[(Int64)1]} : () -> builtin.tensor<1xi64>
    (%23) = "pd_op.slice" (%3, %22, %17) {axes:[(Int64)0],decrease_axis:[(Int64)0],infer_flags:[(Int64)1],stop_gradient:[true],sym_shape_str:"shape[], data[S3]"} : (builtin.tensor<4xi32>, builtin.tensor<1xi64>, builtin.tensor<1xi64>) -> builtin.tensor<i32>
    (%24) = "pd_op.full" () {dtype:(pd_op.DataType)int64,place:(pd_op.Place)Place(cpu),shape:(pd_op.IntArray)[],stop_gradient:[true],sym_shape_str:"shape[], data[0]",value:(Double)0} : () -> builtin.tensor<i64>
    (%25) = "pd_op.cast" (%23) {dtype:(pd_op.DataType)int64,stop_gradient:[true],sym_shape_str:"shape[], data[S3]"} : (builtin.tensor<i32>) -> builtin.tensor<i64>
    (%26) = "pd_op.cast" (%4) {dtype:(pd_op.DataType)int64,stop_gradient:[true],sym_shape_str:"shape[1], data[S6]"} : (builtin.tensor<1xi32>) -> builtin.tensor<1xi64>
    (%27) = "pd_op.full_int_array" () {dtype:(pd_op.DataType)int64,place:(pd_op.Place)Place(cpu),stop_gradient:[true],sym_shape_str:"shape[0], data[]",value:[]} : () -> builtin.tensor<0xi64>
    (%28) = "pd_op.reshape" (%26, %27) {stop_gradient:[true],sym_shape_str:"shape[], data[S6]"} : (builtin.tensor<1xi64>, builtin.tensor<0xi64>) -> builtin.tensor<i64>
    (%29) = "pd_op.full" () {dtype:(pd_op.DataType)int64,place:(pd_op.Place)Place(cpu),shape:(pd_op.IntArray)[],stop_gradient:[true],sym_shape_str:"shape[], data[8]",value:(Double)8} : () -> builtin.tensor<i64>
    (%30) = "pd_op.cast" (%5) {dtype:(pd_op.DataType)int64,stop_gradient:[true],sym_shape_str:"shape[1], data[S7]"} : (builtin.tensor<1xi32>) -> builtin.tensor<1xi64>
    (%31) = "pd_op.reshape" (%30, %27) {stop_gradient:[true],sym_shape_str:"shape[], data[S7]"} : (builtin.tensor<1xi64>, builtin.tensor<0xi64>) -> builtin.tensor<i64>
    (%32) = "builtin.combine" (%24, %25, %28, %29, %31, %29) {stop_gradient:[true],sym_shape_str:"shape[], data[0], shape[], data[S3], shape[], data[S6], shape[], data[8], shape[], data[S7], shape[], data[8]"} : (builtin.tensor<i64>, builtin.tensor<i64>, builtin.tensor<i64>, builtin.tensor<i64>, builtin.tensor<i64>, builtin.tensor<i64>) -> vec[builtin.tensor<i64>,builtin.tensor<i64>,builtin.tensor<i64>,builtin.tensor<i64>,builtin.tensor<i64>,builtin.tensor<i64>]
    (%33) = "pd_op.reshape" (%24, %22) {stop_gradient:[true],sym_shape_str:"shape[1], data[0]"} : (builtin.tensor<i64>, builtin.tensor<1xi64>) -> builtin.tensor<1xi64>
    (%34) = "pd_op.reshape" (%25, %22) {stop_gradient:[true],sym_shape_str:"shape[1], data[S3]"} : (builtin.tensor<i64>, builtin.tensor<1xi64>) -> builtin.tensor<1xi64>
    (%35) = "pd_op.reshape" (%28, %22) {stop_gradient:[true],sym_shape_str:"shape[1], data[S6]"} : (builtin.tensor<i64>, builtin.tensor<1xi64>) -> builtin.tensor<1xi64>
    (%36) = "pd_op.reshape" (%29, %22) {stop_gradient:[true],sym_shape_str:"shape[1], data[8]"} : (builtin.tensor<i64>, builtin.tensor<1xi64>) -> builtin.tensor<1xi64>
    (%37) = "pd_op.reshape" (%31, %22) {stop_gradient:[true],sym_shape_str:"shape[1], data[S7]"} : (builtin.tensor<i64>, builtin.tensor<1xi64>) -> builtin.tensor<1xi64>
    (%38) = "builtin.combine" (%33, %34, %35, %36, %37, %36) {stop_gradient:[true],sym_shape_str:"shape[1], data[0], shape[1], data[S3], shape[1], data[S6], shape[1], data[8], shape[1], data[S7], shape[1], data[8]"} : (builtin.tensor<1xi64>, builtin.tensor<1xi64>, builtin.tensor<1xi64>, builtin.tensor<1xi64>, builtin.tensor<1xi64>, builtin.tensor<1xi64>) -> vec[builtin.tensor<1xi64>,builtin.tensor<1xi64>,builtin.tensor<1xi64>,builtin.tensor<1xi64>,builtin.tensor<1xi64>,builtin.tensor<1xi64>]
    (%39) = "pd_op.concat" (%38, %11) {stop_gradient:[true],sym_shape_str:"shape[6], data[0, S3, S6, 8, S7, 8]"} : (vec[builtin.tensor<1xi64>,builtin.tensor<1xi64>,builtin.tensor<1xi64>,builtin.tensor<1xi64>,builtin.tensor<1xi64>,builtin.tensor<1xi64>], builtin.tensor<1xi32>) -> builtin.tensor<6xi64>
    (%40) = "pd_op.reshape" (%21, %39) {stop_gradient:[false],sym_shape_str:"shape[1, S3, S6, 8, S7, 8], data[NULL]"} : (builtin.tensor<1x512x-1x-1xf32>, builtin.tensor<6xi64>) -> builtin.tensor<1x-1x-1x8x-1x8xf32>
    (%41) = "pd_op.transpose" (%40) {perm:[(Int32)0,(Int32)3,(Int32)5,(Int32)1,(Int32)2,(Int32)4],stop_gradient:[false],sym_shape_str:"shape[1, 8, 8, S3, S6, S7], data[NULL]"} : (builtin.tensor<1x-1x-1x8x-1x8xf32>) -> builtin.tensor<1x8x8x-1x-1x-1xf32>
    (%42) = "pd_op.full" () {dtype:(pd_op.DataType)int64,place:(pd_op.Place)Place(cpu),shape:(pd_op.IntArray)[],stop_gradient:[true],sym_shape_str:"shape[], data[-1]",value:(Double)-1} : () -> builtin.tensor<i64>
    (%43) = "pd_op.full" () {dtype:(pd_op.DataType)int64,place:(pd_op.Place)Place(cpu),shape:(pd_op.IntArray)[],stop_gradient:[true],sym_shape_str:"shape[], data[512]",value:(Double)512} : () -> builtin.tensor<i64>
    (%44) = "builtin.combine" (%42, %43, %28, %31) {stop_gradient:[true],sym_shape_str:"shape[], data[-1], shape[], data[512], shape[], data[S6], shape[], data[S7]"} : (builtin.tensor<i64>, builtin.tensor<i64>, builtin.tensor<i64>, builtin.tensor<i64>) -> vec[builtin.tensor<i64>,builtin.tensor<i64>,builtin.tensor<i64>,builtin.tensor<i64>]
    (%45) = "pd_op.reshape" (%42, %22) {stop_gradient:[true],sym_shape_str:"shape[1], data[-1]"} : (builtin.tensor<i64>, builtin.tensor<1xi64>) -> builtin.tensor<1xi64>
    (%46) = "pd_op.reshape" (%43, %22) {stop_gradient:[true],sym_shape_str:"shape[1], data[512]"} : (builtin.tensor<i64>, builtin.tensor<1xi64>) -> builtin.tensor<1xi64>
    (%47) = "builtin.combine" (%45, %46, %35, %37) {stop_gradient:[true],sym_shape_str:"shape[1], data[-1], shape[1], data[512], shape[1], data[S6], shape[1], data[S7]"} : (builtin.tensor<1xi64>, builtin.tensor<1xi64>, builtin.tensor<1xi64>, builtin.tensor<1xi64>) -> vec[builtin.tensor<1xi64>,builtin.tensor<1xi64>,builtin.tensor<1xi64>,builtin.tensor<1xi64>]
    (%48) = "pd_op.concat" (%47, %11) {stop_gradient:[true],sym_shape_str:"shape[4], data[-1, 512, S6, S7]"} : (vec[builtin.tensor<1xi64>,builtin.tensor<1xi64>,builtin.tensor<1xi64>,builtin.tensor<1xi64>], builtin.tensor<1xi32>) -> builtin.tensor<4xi64>
    (%49) = "pd_op.reshape" (%41, %48) {stop_gradient:[false],sym_shape_str:"shape[Mul(S3, 1 / (8)), 512, S6, S7], data[NULL]"} : (builtin.tensor<1x8x8x-1x-1x-1xf32>, builtin.tensor<4xi64>) -> builtin.tensor<-1x512x-1x-1xf32>
    () = "builtin.shadow_output" (%49) {output_name:"output_0",sym_shape_str:"shape[Mul(S3, 1 / (8)), 512, S6, S7], data[NULL]"} : (builtin.tensor<-1x512x-1x-1xf32>) -> 
}


===--------------------------------------------------------------------------===
        IRPrinting on builtin.module before conv2d_transpose_filter pass
===--------------------------------------------------------------------------===
{
    (%0) = "pd_op.data" () {dtype:(pd_op.DataType)int32,name:"_jst.0.var_0.0",place:(pd_op.Place)Place(undefined:0),shape:(pd_op.IntArray)[1],stop_gradient:[true],sym_shape_str:"shape[1], data[S0]"} : () -> builtin.tensor<1xi32>
    (%1) = "pd_op.data" () {dtype:(pd_op.DataType)int32,name:"_jst.1.var_1.0",place:(pd_op.Place)Place(undefined:0),shape:(pd_op.IntArray)[1],stop_gradient:[true],sym_shape_str:"shape[1], data[S1]"} : () -> builtin.tensor<1xi32>
    (%2) = "pd_op.data" () {dtype:(pd_op.DataType)float32,name:"_jst.2.var_2.0",place:(pd_op.Place)Place(undefined:0),shape:(pd_op.IntArray)[1,512,97,97],stop_gradient:[false],sym_shape_str:"shape[1, 512, 97, 97], data[NULL]"} : () -> builtin.tensor<1x512x97x97xf32>
    (%3) = "pd_op.data" () {dtype:(pd_op.DataType)int32,name:"_jst.3.var_3.0",place:(pd_op.Place)Place(undefined:0),shape:(pd_op.IntArray)[4],stop_gradient:[true],sym_shape_str:"shape[4], data[S2, S3, S4, S5]"} : () -> builtin.tensor<4xi32>
    (%4) = "pd_op.data" () {dtype:(pd_op.DataType)int32,name:"_jst.4.var_4.0",place:(pd_op.Place)Place(undefined:0),shape:(pd_op.IntArray)[1],stop_gradient:[true],sym_shape_str:"shape[1], data[S6]"} : () -> builtin.tensor<1xi32>
    (%5) = "pd_op.data" () {dtype:(pd_op.DataType)int32,name:"_jst.5.var_5.0",place:(pd_op.Place)Place(undefined:0),shape:(pd_op.IntArray)[1],stop_gradient:[true],sym_shape_str:"shape[1], data[S7]"} : () -> builtin.tensor<1xi32>
    (%6) = "pd_op.full" () {dtype:(pd_op.DataType)int32,place:(pd_op.Place)Place(undefined:0),shape:(pd_op.IntArray)[],stop_gradient:[true],sym_shape_str:"shape[], data[2]",value:(Double)2} : () -> builtin.tensor<i32>
    (%7) = "pd_op.floor_divide" (%0, %6) {stop_gradient:[true],sym_shape_str:"shape[1], data[Mul(S0, 1 / (2))]"} : (builtin.tensor<1xi32>, builtin.tensor<i32>) -> builtin.tensor<1xi32>
    (%8) = "pd_op.subtract" (%0, %7) {stop_gradient:[true],sym_shape_str:"shape[1], data[Add(S0, -Mul(S0, 1 / (2)))]"} : (builtin.tensor<1xi32>, builtin.tensor<1xi32>) -> builtin.tensor<1xi32>
    (%9) = "pd_op.floor_divide" (%1, %6) {stop_gradient:[true],sym_shape_str:"shape[1], data[Mul(S1, 1 / (2))]"} : (builtin.tensor<1xi32>, builtin.tensor<i32>) -> builtin.tensor<1xi32>
    (%10) = "pd_op.subtract" (%1, %9) {stop_gradient:[true],sym_shape_str:"shape[1], data[Add(S1, -Mul(S1, 1 / (2)))]"} : (builtin.tensor<1xi32>, builtin.tensor<1xi32>) -> builtin.tensor<1xi32>
    (%11) = "pd_op.full" () {dtype:(pd_op.DataType)int32,place:(pd_op.Place)Place(cpu),shape:(pd_op.IntArray)[1],stop_gradient:[true],sym_shape_str:"shape[1], data[0]",value:(Double)0} : () -> builtin.tensor<1xi32>
    (%12) = "builtin.combine" (%7, %8, %9, %10) {stop_gradient:[true],sym_shape_str:"shape[1], data[Mul(S0, 1 / (2))], shape[1], data[Add(S0, -Mul(S0, 1 / (2)))], shape[1], data[Mul(S1, 1 / (2))], shape[1], data[Add(S1, -Mul(S1, 1 / (2)))]"} : (builtin.tensor<1xi32>, builtin.tensor<1xi32>, builtin.tensor<1xi32>, builtin.tensor<1xi32>) -> vec[builtin.tensor<1xi32>,builtin.tensor<1xi32>,builtin.tensor<1xi32>,builtin.tensor<1xi32>]
    (%13) = "pd_op.concat" (%12, %11) {stop_gradient:[true],sym_shape_str:"shape[4], data[Mul(S0, 1 / (2)), Add(S0, -Mul(S0, 1 / (2))), Mul(S1, 1 / (2)), Add(S1, -Mul(S1, 1 / (2)))]"} : (vec[builtin.tensor<1xi32>,builtin.tensor<1xi32>,builtin.tensor<1xi32>,builtin.tensor<1xi32>], builtin.tensor<1xi32>) -> builtin.tensor<4xi32>
    (%14) = "pd_op.full" () {dtype:(pd_op.DataType)int32,place:(pd_op.Place)Place(undefined:0),shape:(pd_op.IntArray)[2],stop_gradient:[true],sym_shape_str:"shape[2], data[0, 0]",value:(Double)0} : () -> builtin.tensor<2xi32>
    (%15) = "builtin.combine" (%13, %14) {stop_gradient:[true],sym_shape_str:"shape[4], data[Mul(S0, 1 / (2)), Add(S0, -Mul(S0, 1 / (2))), Mul(S1, 1 / (2)), Add(S1, -Mul(S1, 1 / (2)))], shape[2], data[0, 0]"} : (builtin.tensor<4xi32>, builtin.tensor<2xi32>) -> vec[builtin.tensor<4xi32>,builtin.tensor<2xi32>]
    (%16) = "pd_op.concat" (%15, %11) {stop_gradient:[true],sym_shape_str:"shape[6], data[Mul(S0, 1 / (2)), Add(S0, -Mul(S0, 1 / (2))), Mul(S1, 1 / (2)), Add(S1, -Mul(S1, 1 / (2))), 0, 0]"} : (vec[builtin.tensor<4xi32>,builtin.tensor<2xi32>], builtin.tensor<1xi32>) -> builtin.tensor<6xi32>
    (%17) = "pd_op.full_int_array" () {dtype:(pd_op.DataType)int64,place:(pd_op.Place)Place(cpu),stop_gradient:[true],sym_shape_str:"shape[1], data[2]",value:[(Int64)2]} : () -> builtin.tensor<1xi64>
    (%18) = "pd_op.full_int_array" () {dtype:(pd_op.DataType)int64,place:(pd_op.Place)Place(cpu),stop_gradient:[true],sym_shape_str:"shape[5], data[1, 512, 1, 97, 97]",value:[(Int64)1,(Int64)512,(Int64)1,(Int64)97,(Int64)97]} : () -> builtin.tensor<5xi64>
    (%19) = "pd_op.reshape" (%2, %18) {stop_gradient:[false],sym_shape_str:"shape[1, 512, 1, 97, 97], data[NULL]"} : (builtin.tensor<1x512x97x97xf32>, builtin.tensor<5xi64>) -> builtin.tensor<1x512x1x97x97xf32>
    (%20) = "pd_op.pad3d" (%19, %16) {data_format:"NCDHW",mode:"constant",pad_value:(Float)0,stop_gradient:[false],sym_shape_str:"shape[1, 512, 1, Add(S1, 97), Add(S0, 97)], data[NULL]"} : (builtin.tensor<1x512x1x97x97xf32>, builtin.tensor<6xi32>) -> builtin.tensor<1x512x-1x-1x-1xf32>
    (%21) = "pd_op.squeeze" (%20, %17) {stop_gradient:[false],sym_shape_str:"shape[1, 512, Add(S1, 97), Add(S0, 97)], data[NULL]"} : (builtin.tensor<1x512x-1x-1x-1xf32>, builtin.tensor<1xi64>) -> builtin.tensor<1x512x-1x-1xf32>
    (%22) = "pd_op.full_int_array" () {dtype:(pd_op.DataType)int64,place:(pd_op.Place)Place(cpu),stop_gradient:[true],sym_shape_str:"shape[1], data[1]",value:[(Int64)1]} : () -> builtin.tensor<1xi64>
    (%23) = "pd_op.slice" (%3, %22, %17) {axes:[(Int64)0],decrease_axis:[(Int64)0],infer_flags:[(Int64)1],stop_gradient:[true],sym_shape_str:"shape[], data[S3]"} : (builtin.tensor<4xi32>, builtin.tensor<1xi64>, builtin.tensor<1xi64>) -> builtin.tensor<i32>
    (%24) = "pd_op.full" () {dtype:(pd_op.DataType)int64,place:(pd_op.Place)Place(cpu),shape:(pd_op.IntArray)[],stop_gradient:[true],sym_shape_str:"shape[], data[0]",value:(Double)0} : () -> builtin.tensor<i64>
    (%25) = "pd_op.cast" (%23) {dtype:(pd_op.DataType)int64,stop_gradient:[true],sym_shape_str:"shape[], data[S3]"} : (builtin.tensor<i32>) -> builtin.tensor<i64>
    (%26) = "pd_op.cast" (%4) {dtype:(pd_op.DataType)int64,stop_gradient:[true],sym_shape_str:"shape[1], data[S6]"} : (builtin.tensor<1xi32>) -> builtin.tensor<1xi64>
    (%27) = "pd_op.full_int_array" () {dtype:(pd_op.DataType)int64,place:(pd_op.Place)Place(cpu),stop_gradient:[true],sym_shape_str:"shape[0], data[]",value:[]} : () -> builtin.tensor<0xi64>
    (%28) = "pd_op.reshape" (%26, %27) {stop_gradient:[true],sym_shape_str:"shape[], data[S6]"} : (builtin.tensor<1xi64>, builtin.tensor<0xi64>) -> builtin.tensor<i64>
    (%29) = "pd_op.full" () {dtype:(pd_op.DataType)int64,place:(pd_op.Place)Place(cpu),shape:(pd_op.IntArray)[],stop_gradient:[true],sym_shape_str:"shape[], data[8]",value:(Double)8} : () -> builtin.tensor<i64>
    (%30) = "pd_op.cast" (%5) {dtype:(pd_op.DataType)int64,stop_gradient:[true],sym_shape_str:"shape[1], data[S7]"} : (builtin.tensor<1xi32>) -> builtin.tensor<1xi64>
    (%31) = "pd_op.reshape" (%30, %27) {stop_gradient:[true],sym_shape_str:"shape[], data[S7]"} : (builtin.tensor<1xi64>, builtin.tensor<0xi64>) -> builtin.tensor<i64>
    (%32) = "builtin.combine" (%24, %25, %28, %29, %31, %29) {stop_gradient:[true],sym_shape_str:"shape[], data[0], shape[], data[S3], shape[], data[S6], shape[], data[8], shape[], data[S7], shape[], data[8]"} : (builtin.tensor<i64>, builtin.tensor<i64>, builtin.tensor<i64>, builtin.tensor<i64>, builtin.tensor<i64>, builtin.tensor<i64>) -> vec[builtin.tensor<i64>,builtin.tensor<i64>,builtin.tensor<i64>,builtin.tensor<i64>,builtin.tensor<i64>,builtin.tensor<i64>]
    (%33) = "pd_op.reshape" (%24, %22) {stop_gradient:[true],sym_shape_str:"shape[1], data[0]"} : (builtin.tensor<i64>, builtin.tensor<1xi64>) -> builtin.tensor<1xi64>
    (%34) = "pd_op.reshape" (%25, %22) {stop_gradient:[true],sym_shape_str:"shape[1], data[S3]"} : (builtin.tensor<i64>, builtin.tensor<1xi64>) -> builtin.tensor<1xi64>
    (%35) = "pd_op.reshape" (%28, %22) {stop_gradient:[true],sym_shape_str:"shape[1], data[S6]"} : (builtin.tensor<i64>, builtin.tensor<1xi64>) -> builtin.tensor<1xi64>
    (%36) = "pd_op.reshape" (%29, %22) {stop_gradient:[true],sym_shape_str:"shape[1], data[8]"} : (builtin.tensor<i64>, builtin.tensor<1xi64>) -> builtin.tensor<1xi64>
    (%37) = "pd_op.reshape" (%31, %22) {stop_gradient:[true],sym_shape_str:"shape[1], data[S7]"} : (builtin.tensor<i64>, builtin.tensor<1xi64>) -> builtin.tensor<1xi64>
    (%38) = "builtin.combine" (%33, %34, %35, %36, %37, %36) {stop_gradient:[true],sym_shape_str:"shape[1], data[0], shape[1], data[S3], shape[1], data[S6], shape[1], data[8], shape[1], data[S7], shape[1], data[8]"} : (builtin.tensor<1xi64>, builtin.tensor<1xi64>, builtin.tensor<1xi64>, builtin.tensor<1xi64>, builtin.tensor<1xi64>, builtin.tensor<1xi64>) -> vec[builtin.tensor<1xi64>,builtin.tensor<1xi64>,builtin.tensor<1xi64>,builtin.tensor<1xi64>,builtin.tensor<1xi64>,builtin.tensor<1xi64>]
    (%39) = "pd_op.concat" (%38, %11) {stop_gradient:[true],sym_shape_str:"shape[6], data[0, S3, S6, 8, S7, 8]"} : (vec[builtin.tensor<1xi64>,builtin.tensor<1xi64>,builtin.tensor<1xi64>,builtin.tensor<1xi64>,builtin.tensor<1xi64>,builtin.tensor<1xi64>], builtin.tensor<1xi32>) -> builtin.tensor<6xi64>
    (%40) = "pd_op.reshape" (%21, %39) {stop_gradient:[false],sym_shape_str:"shape[1, S3, S6, 8, S7, 8], data[NULL]"} : (builtin.tensor<1x512x-1x-1xf32>, builtin.tensor<6xi64>) -> builtin.tensor<1x-1x-1x8x-1x8xf32>
    (%41) = "pd_op.transpose" (%40) {perm:[(Int32)0,(Int32)3,(Int32)5,(Int32)1,(Int32)2,(Int32)4],stop_gradient:[false],sym_shape_str:"shape[1, 8, 8, S3, S6, S7], data[NULL]"} : (builtin.tensor<1x-1x-1x8x-1x8xf32>) -> builtin.tensor<1x8x8x-1x-1x-1xf32>
    (%42) = "pd_op.full" () {dtype:(pd_op.DataType)int64,place:(pd_op.Place)Place(cpu),shape:(pd_op.IntArray)[],stop_gradient:[true],sym_shape_str:"shape[], data[-1]",value:(Double)-1} : () -> builtin.tensor<i64>
    (%43) = "pd_op.full" () {dtype:(pd_op.DataType)int64,place:(pd_op.Place)Place(cpu),shape:(pd_op.IntArray)[],stop_gradient:[true],sym_shape_str:"shape[], data[512]",value:(Double)512} : () -> builtin.tensor<i64>
    (%44) = "builtin.combine" (%42, %43, %28, %31) {stop_gradient:[true],sym_shape_str:"shape[], data[-1], shape[], data[512], shape[], data[S6], shape[], data[S7]"} : (builtin.tensor<i64>, builtin.tensor<i64>, builtin.tensor<i64>, builtin.tensor<i64>) -> vec[builtin.tensor<i64>,builtin.tensor<i64>,builtin.tensor<i64>,builtin.tensor<i64>]
    (%45) = "pd_op.reshape" (%42, %22) {stop_gradient:[true],sym_shape_str:"shape[1], data[-1]"} : (builtin.tensor<i64>, builtin.tensor<1xi64>) -> builtin.tensor<1xi64>
    (%46) = "pd_op.reshape" (%43, %22) {stop_gradient:[true],sym_shape_str:"shape[1], data[512]"} : (builtin.tensor<i64>, builtin.tensor<1xi64>) -> builtin.tensor<1xi64>
    (%47) = "builtin.combine" (%45, %46, %35, %37) {stop_gradient:[true],sym_shape_str:"shape[1], data[-1], shape[1], data[512], shape[1], data[S6], shape[1], data[S7]"} : (builtin.tensor<1xi64>, builtin.tensor<1xi64>, builtin.tensor<1xi64>, builtin.tensor<1xi64>) -> vec[builtin.tensor<1xi64>,builtin.tensor<1xi64>,builtin.tensor<1xi64>,builtin.tensor<1xi64>]
    (%48) = "pd_op.concat" (%47, %11) {stop_gradient:[true],sym_shape_str:"shape[4], data[-1, 512, S6, S7]"} : (vec[builtin.tensor<1xi64>,builtin.tensor<1xi64>,builtin.tensor<1xi64>,builtin.tensor<1xi64>], builtin.tensor<1xi32>) -> builtin.tensor<4xi64>
    (%49) = "pd_op.reshape" (%41, %48) {stop_gradient:[false],sym_shape_str:"shape[Mul(S3, 1 / (8)), 512, S6, S7], data[NULL]"} : (builtin.tensor<1x8x8x-1x-1x-1xf32>, builtin.tensor<4xi64>) -> builtin.tensor<-1x512x-1x-1xf32>
    () = "builtin.shadow_output" (%49) {output_name:"output_0",sym_shape_str:"shape[Mul(S3, 1 / (8)), 512, S6, S7], data[NULL]"} : (builtin.tensor<-1x512x-1x-1xf32>) -> 
}


===-------------------------------------------------------------------------===
        IRPrinting on builtin.module after conv2d_transpose_filter pass
===-------------------------------------------------------------------------===
{
    (%0) = "pd_op.data" () {dtype:(pd_op.DataType)int32,name:"_jst.0.var_0.0",place:(pd_op.Place)Place(undefined:0),shape:(pd_op.IntArray)[1],stop_gradient:[true],sym_shape_str:"shape[1], data[S0]"} : () -> builtin.tensor<1xi32>
    (%1) = "pd_op.data" () {dtype:(pd_op.DataType)int32,name:"_jst.1.var_1.0",place:(pd_op.Place)Place(undefined:0),shape:(pd_op.IntArray)[1],stop_gradient:[true],sym_shape_str:"shape[1], data[S1]"} : () -> builtin.tensor<1xi32>
    (%2) = "pd_op.data" () {dtype:(pd_op.DataType)float32,name:"_jst.2.var_2.0",place:(pd_op.Place)Place(undefined:0),shape:(pd_op.IntArray)[1,512,97,97],stop_gradient:[false],sym_shape_str:"shape[1, 512, 97, 97], data[NULL]"} : () -> builtin.tensor<1x512x97x97xf32>
    (%3) = "pd_op.data" () {dtype:(pd_op.DataType)int32,name:"_jst.3.var_3.0",place:(pd_op.Place)Place(undefined:0),shape:(pd_op.IntArray)[4],stop_gradient:[true],sym_shape_str:"shape[4], data[S2, S3, S4, S5]"} : () -> builtin.tensor<4xi32>
    (%4) = "pd_op.data" () {dtype:(pd_op.DataType)int32,name:"_jst.4.var_4.0",place:(pd_op.Place)Place(undefined:0),shape:(pd_op.IntArray)[1],stop_gradient:[true],sym_shape_str:"shape[1], data[S6]"} : () -> builtin.tensor<1xi32>
    (%5) = "pd_op.data" () {dtype:(pd_op.DataType)int32,name:"_jst.5.var_5.0",place:(pd_op.Place)Place(undefined:0),shape:(pd_op.IntArray)[1],stop_gradient:[true],sym_shape_str:"shape[1], data[S7]"} : () -> builtin.tensor<1xi32>
    (%6) = "pd_op.full" () {dtype:(pd_op.DataType)int32,place:(pd_op.Place)Place(undefined:0),shape:(pd_op.IntArray)[],stop_gradient:[true],sym_shape_str:"shape[], data[2]",value:(Double)2} : () -> builtin.tensor<i32>
    (%7) = "pd_op.floor_divide" (%0, %6) {stop_gradient:[true],sym_shape_str:"shape[1], data[Mul(S0, 1 / (2))]"} : (builtin.tensor<1xi32>, builtin.tensor<i32>) -> builtin.tensor<1xi32>
    (%8) = "pd_op.subtract" (%0, %7) {stop_gradient:[true],sym_shape_str:"shape[1], data[Add(S0, -Mul(S0, 1 / (2)))]"} : (builtin.tensor<1xi32>, builtin.tensor<1xi32>) -> builtin.tensor<1xi32>
    (%9) = "pd_op.floor_divide" (%1, %6) {stop_gradient:[true],sym_shape_str:"shape[1], data[Mul(S1, 1 / (2))]"} : (builtin.tensor<1xi32>, builtin.tensor<i32>) -> builtin.tensor<1xi32>
    (%10) = "pd_op.subtract" (%1, %9) {stop_gradient:[true],sym_shape_str:"shape[1], data[Add(S1, -Mul(S1, 1 / (2)))]"} : (builtin.tensor<1xi32>, builtin.tensor<1xi32>) -> builtin.tensor<1xi32>
    (%11) = "pd_op.full" () {dtype:(pd_op.DataType)int32,place:(pd_op.Place)Place(cpu),shape:(pd_op.IntArray)[1],stop_gradient:[true],sym_shape_str:"shape[1], data[0]",value:(Double)0} : () -> builtin.tensor<1xi32>
    (%12) = "builtin.combine" (%7, %8, %9, %10) {stop_gradient:[true],sym_shape_str:"shape[1], data[Mul(S0, 1 / (2))], shape[1], data[Add(S0, -Mul(S0, 1 / (2)))], shape[1], data[Mul(S1, 1 / (2))], shape[1], data[Add(S1, -Mul(S1, 1 / (2)))]"} : (builtin.tensor<1xi32>, builtin.tensor<1xi32>, builtin.tensor<1xi32>, builtin.tensor<1xi32>) -> vec[builtin.tensor<1xi32>,builtin.tensor<1xi32>,builtin.tensor<1xi32>,builtin.tensor<1xi32>]
    (%13) = "pd_op.concat" (%12, %11) {stop_gradient:[true],sym_shape_str:"shape[4], data[Mul(S0, 1 / (2)), Add(S0, -Mul(S0, 1 / (2))), Mul(S1, 1 / (2)), Add(S1, -Mul(S1, 1 / (2)))]"} : (vec[builtin.tensor<1xi32>,builtin.tensor<1xi32>,builtin.tensor<1xi32>,builtin.tensor<1xi32>], builtin.tensor<1xi32>) -> builtin.tensor<4xi32>
    (%14) = "pd_op.full" () {dtype:(pd_op.DataType)int32,place:(pd_op.Place)Place(undefined:0),shape:(pd_op.IntArray)[2],stop_gradient:[true],sym_shape_str:"shape[2], data[0, 0]",value:(Double)0} : () -> builtin.tensor<2xi32>
    (%15) = "builtin.combine" (%13, %14) {stop_gradient:[true],sym_shape_str:"shape[4], data[Mul(S0, 1 / (2)), Add(S0, -Mul(S0, 1 / (2))), Mul(S1, 1 / (2)), Add(S1, -Mul(S1, 1 / (2)))], shape[2], data[0, 0]"} : (builtin.tensor<4xi32>, builtin.tensor<2xi32>) -> vec[builtin.tensor<4xi32>,builtin.tensor<2xi32>]
    (%16) = "pd_op.concat" (%15, %11) {stop_gradient:[true],sym_shape_str:"shape[6], data[Mul(S0, 1 / (2)), Add(S0, -Mul(S0, 1 / (2))), Mul(S1, 1 / (2)), Add(S1, -Mul(S1, 1 / (2))), 0, 0]"} : (vec[builtin.tensor<4xi32>,builtin.tensor<2xi32>], builtin.tensor<1xi32>) -> builtin.tensor<6xi32>
    (%17) = "pd_op.full_int_array" () {dtype:(pd_op.DataType)int64,place:(pd_op.Place)Place(cpu),stop_gradient:[true],sym_shape_str:"shape[1], data[2]",value:[(Int64)2]} : () -> builtin.tensor<1xi64>
    (%18) = "pd_op.full_int_array" () {dtype:(pd_op.DataType)int64,place:(pd_op.Place)Place(cpu),stop_gradient:[true],sym_shape_str:"shape[5], data[1, 512, 1, 97, 97]",value:[(Int64)1,(Int64)512,(Int64)1,(Int64)97,(Int64)97]} : () -> builtin.tensor<5xi64>
    (%19) = "pd_op.reshape" (%2, %18) {stop_gradient:[false],sym_shape_str:"shape[1, 512, 1, 97, 97], data[NULL]"} : (builtin.tensor<1x512x97x97xf32>, builtin.tensor<5xi64>) -> builtin.tensor<1x512x1x97x97xf32>
    (%20) = "pd_op.pad3d" (%19, %16) {data_format:"NCDHW",mode:"constant",pad_value:(Float)0,stop_gradient:[false],sym_shape_str:"shape[1, 512, 1, Add(S1, 97), Add(S0, 97)], data[NULL]"} : (builtin.tensor<1x512x1x97x97xf32>, builtin.tensor<6xi32>) -> builtin.tensor<1x512x-1x-1x-1xf32>
    (%21) = "pd_op.squeeze" (%20, %17) {stop_gradient:[false],sym_shape_str:"shape[1, 512, Add(S1, 97), Add(S0, 97)], data[NULL]"} : (builtin.tensor<1x512x-1x-1x-1xf32>, builtin.tensor<1xi64>) -> builtin.tensor<1x512x-1x-1xf32>
    (%22) = "pd_op.full_int_array" () {dtype:(pd_op.DataType)int64,place:(pd_op.Place)Place(cpu),stop_gradient:[true],sym_shape_str:"shape[1], data[1]",value:[(Int64)1]} : () -> builtin.tensor<1xi64>
    (%23) = "pd_op.slice" (%3, %22, %17) {axes:[(Int64)0],decrease_axis:[(Int64)0],infer_flags:[(Int64)1],stop_gradient:[true],sym_shape_str:"shape[], data[S3]"} : (builtin.tensor<4xi32>, builtin.tensor<1xi64>, builtin.tensor<1xi64>) -> builtin.tensor<i32>
    (%24) = "pd_op.full" () {dtype:(pd_op.DataType)int64,place:(pd_op.Place)Place(cpu),shape:(pd_op.IntArray)[],stop_gradient:[true],sym_shape_str:"shape[], data[0]",value:(Double)0} : () -> builtin.tensor<i64>
    (%25) = "pd_op.cast" (%23) {dtype:(pd_op.DataType)int64,stop_gradient:[true],sym_shape_str:"shape[], data[S3]"} : (builtin.tensor<i32>) -> builtin.tensor<i64>
    (%26) = "pd_op.cast" (%4) {dtype:(pd_op.DataType)int64,stop_gradient:[true],sym_shape_str:"shape[1], data[S6]"} : (builtin.tensor<1xi32>) -> builtin.tensor<1xi64>
    (%27) = "pd_op.full_int_array" () {dtype:(pd_op.DataType)int64,place:(pd_op.Place)Place(cpu),stop_gradient:[true],sym_shape_str:"shape[0], data[]",value:[]} : () -> builtin.tensor<0xi64>
    (%28) = "pd_op.reshape" (%26, %27) {stop_gradient:[true],sym_shape_str:"shape[], data[S6]"} : (builtin.tensor<1xi64>, builtin.tensor<0xi64>) -> builtin.tensor<i64>
    (%29) = "pd_op.full" () {dtype:(pd_op.DataType)int64,place:(pd_op.Place)Place(cpu),shape:(pd_op.IntArray)[],stop_gradient:[true],sym_shape_str:"shape[], data[8]",value:(Double)8} : () -> builtin.tensor<i64>
    (%30) = "pd_op.cast" (%5) {dtype:(pd_op.DataType)int64,stop_gradient:[true],sym_shape_str:"shape[1], data[S7]"} : (builtin.tensor<1xi32>) -> builtin.tensor<1xi64>
    (%31) = "pd_op.reshape" (%30, %27) {stop_gradient:[true],sym_shape_str:"shape[], data[S7]"} : (builtin.tensor<1xi64>, builtin.tensor<0xi64>) -> builtin.tensor<i64>
    (%32) = "builtin.combine" (%24, %25, %28, %29, %31, %29) {stop_gradient:[true],sym_shape_str:"shape[], data[0], shape[], data[S3], shape[], data[S6], shape[], data[8], shape[], data[S7], shape[], data[8]"} : (builtin.tensor<i64>, builtin.tensor<i64>, builtin.tensor<i64>, builtin.tensor<i64>, builtin.tensor<i64>, builtin.tensor<i64>) -> vec[builtin.tensor<i64>,builtin.tensor<i64>,builtin.tensor<i64>,builtin.tensor<i64>,builtin.tensor<i64>,builtin.tensor<i64>]
    (%33) = "pd_op.reshape" (%24, %22) {stop_gradient:[true],sym_shape_str:"shape[1], data[0]"} : (builtin.tensor<i64>, builtin.tensor<1xi64>) -> builtin.tensor<1xi64>
    (%34) = "pd_op.reshape" (%25, %22) {stop_gradient:[true],sym_shape_str:"shape[1], data[S3]"} : (builtin.tensor<i64>, builtin.tensor<1xi64>) -> builtin.tensor<1xi64>
    (%35) = "pd_op.reshape" (%28, %22) {stop_gradient:[true],sym_shape_str:"shape[1], data[S6]"} : (builtin.tensor<i64>, builtin.tensor<1xi64>) -> builtin.tensor<1xi64>
    (%36) = "pd_op.reshape" (%29, %22) {stop_gradient:[true],sym_shape_str:"shape[1], data[8]"} : (builtin.tensor<i64>, builtin.tensor<1xi64>) -> builtin.tensor<1xi64>
    (%37) = "pd_op.reshape" (%31, %22) {stop_gradient:[true],sym_shape_str:"shape[1], data[S7]"} : (builtin.tensor<i64>, builtin.tensor<1xi64>) -> builtin.tensor<1xi64>
    (%38) = "builtin.combine" (%33, %34, %35, %36, %37, %36) {stop_gradient:[true],sym_shape_str:"shape[1], data[0], shape[1], data[S3], shape[1], data[S6], shape[1], data[8], shape[1], data[S7], shape[1], data[8]"} : (builtin.tensor<1xi64>, builtin.tensor<1xi64>, builtin.tensor<1xi64>, builtin.tensor<1xi64>, builtin.tensor<1xi64>, builtin.tensor<1xi64>) -> vec[builtin.tensor<1xi64>,builtin.tensor<1xi64>,builtin.tensor<1xi64>,builtin.tensor<1xi64>,builtin.tensor<1xi64>,builtin.tensor<1xi64>]
    (%39) = "pd_op.concat" (%38, %11) {stop_gradient:[true],sym_shape_str:"shape[6], data[0, S3, S6, 8, S7, 8]"} : (vec[builtin.tensor<1xi64>,builtin.tensor<1xi64>,builtin.tensor<1xi64>,builtin.tensor<1xi64>,builtin.tensor<1xi64>,builtin.tensor<1xi64>], builtin.tensor<1xi32>) -> builtin.tensor<6xi64>
    (%40) = "pd_op.reshape" (%21, %39) {stop_gradient:[false],sym_shape_str:"shape[1, S3, S6, 8, S7, 8], data[NULL]"} : (builtin.tensor<1x512x-1x-1xf32>, builtin.tensor<6xi64>) -> builtin.tensor<1x-1x-1x8x-1x8xf32>
    (%41) = "pd_op.transpose" (%40) {perm:[(Int32)0,(Int32)3,(Int32)5,(Int32)1,(Int32)2,(Int32)4],stop_gradient:[false],sym_shape_str:"shape[1, 8, 8, S3, S6, S7], data[NULL]"} : (builtin.tensor<1x-1x-1x8x-1x8xf32>) -> builtin.tensor<1x8x8x-1x-1x-1xf32>
    (%42) = "pd_op.full" () {dtype:(pd_op.DataType)int64,place:(pd_op.Place)Place(cpu),shape:(pd_op.IntArray)[],stop_gradient:[true],sym_shape_str:"shape[], data[-1]",value:(Double)-1} : () -> builtin.tensor<i64>
    (%43) = "pd_op.full" () {dtype:(pd_op.DataType)int64,place:(pd_op.Place)Place(cpu),shape:(pd_op.IntArray)[],stop_gradient:[true],sym_shape_str:"shape[], data[512]",value:(Double)512} : () -> builtin.tensor<i64>
    (%44) = "builtin.combine" (%42, %43, %28, %31) {stop_gradient:[true],sym_shape_str:"shape[], data[-1], shape[], data[512], shape[], data[S6], shape[], data[S7]"} : (builtin.tensor<i64>, builtin.tensor<i64>, builtin.tensor<i64>, builtin.tensor<i64>) -> vec[builtin.tensor<i64>,builtin.tensor<i64>,builtin.tensor<i64>,builtin.tensor<i64>]
    (%45) = "pd_op.reshape" (%42, %22) {stop_gradient:[true],sym_shape_str:"shape[1], data[-1]"} : (builtin.tensor<i64>, builtin.tensor<1xi64>) -> builtin.tensor<1xi64>
    (%46) = "pd_op.reshape" (%43, %22) {stop_gradient:[true],sym_shape_str:"shape[1], data[512]"} : (builtin.tensor<i64>, builtin.tensor<1xi64>) -> builtin.tensor<1xi64>
    (%47) = "builtin.combine" (%45, %46, %35, %37) {stop_gradient:[true],sym_shape_str:"shape[1], data[-1], shape[1], data[512], shape[1], data[S6], shape[1], data[S7]"} : (builtin.tensor<1xi64>, builtin.tensor<1xi64>, builtin.tensor<1xi64>, builtin.tensor<1xi64>) -> vec[builtin.tensor<1xi64>,builtin.tensor<1xi64>,builtin.tensor<1xi64>,builtin.tensor<1xi64>]
    (%48) = "pd_op.concat" (%47, %11) {stop_gradient:[true],sym_shape_str:"shape[4], data[-1, 512, S6, S7]"} : (vec[builtin.tensor<1xi64>,builtin.tensor<1xi64>,builtin.tensor<1xi64>,builtin.tensor<1xi64>], builtin.tensor<1xi32>) -> builtin.tensor<4xi64>
    (%49) = "pd_op.reshape" (%41, %48) {stop_gradient:[false],sym_shape_str:"shape[Mul(S3, 1 / (8)), 512, S6, S7], data[NULL]"} : (builtin.tensor<1x8x8x-1x-1x-1xf32>, builtin.tensor<4xi64>) -> builtin.tensor<-1x512x-1x-1xf32>
    () = "builtin.shadow_output" (%49) {output_name:"output_0",sym_shape_str:"shape[Mul(S3, 1 / (8)), 512, S6, S7], data[NULL]"} : (builtin.tensor<-1x512x-1x-1xf32>) -> 
}


===--------------------------------------------------------------------===
        IRPrinting on builtin.module before convert_MEA_to_FA pass
===--------------------------------------------------------------------===
{
    (%0) = "pd_op.data" () {dtype:(pd_op.DataType)int32,name:"_jst.0.var_0.0",place:(pd_op.Place)Place(undefined:0),shape:(pd_op.IntArray)[1],stop_gradient:[true],sym_shape_str:"shape[1], data[S0]"} : () -> builtin.tensor<1xi32>
    (%1) = "pd_op.data" () {dtype:(pd_op.DataType)int32,name:"_jst.1.var_1.0",place:(pd_op.Place)Place(undefined:0),shape:(pd_op.IntArray)[1],stop_gradient:[true],sym_shape_str:"shape[1], data[S1]"} : () -> builtin.tensor<1xi32>
    (%2) = "pd_op.data" () {dtype:(pd_op.DataType)float32,name:"_jst.2.var_2.0",place:(pd_op.Place)Place(undefined:0),shape:(pd_op.IntArray)[1,512,97,97],stop_gradient:[false],sym_shape_str:"shape[1, 512, 97, 97], data[NULL]"} : () -> builtin.tensor<1x512x97x97xf32>
    (%3) = "pd_op.data" () {dtype:(pd_op.DataType)int32,name:"_jst.3.var_3.0",place:(pd_op.Place)Place(undefined:0),shape:(pd_op.IntArray)[4],stop_gradient:[true],sym_shape_str:"shape[4], data[S2, S3, S4, S5]"} : () -> builtin.tensor<4xi32>
    (%4) = "pd_op.data" () {dtype:(pd_op.DataType)int32,name:"_jst.4.var_4.0",place:(pd_op.Place)Place(undefined:0),shape:(pd_op.IntArray)[1],stop_gradient:[true],sym_shape_str:"shape[1], data[S6]"} : () -> builtin.tensor<1xi32>
    (%5) = "pd_op.data" () {dtype:(pd_op.DataType)int32,name:"_jst.5.var_5.0",place:(pd_op.Place)Place(undefined:0),shape:(pd_op.IntArray)[1],stop_gradient:[true],sym_shape_str:"shape[1], data[S7]"} : () -> builtin.tensor<1xi32>
    (%6) = "pd_op.full" () {dtype:(pd_op.DataType)int32,place:(pd_op.Place)Place(undefined:0),shape:(pd_op.IntArray)[],stop_gradient:[true],sym_shape_str:"shape[], data[2]",value:(Double)2} : () -> builtin.tensor<i32>
    (%7) = "pd_op.floor_divide" (%0, %6) {stop_gradient:[true],sym_shape_str:"shape[1], data[Mul(S0, 1 / (2))]"} : (builtin.tensor<1xi32>, builtin.tensor<i32>) -> builtin.tensor<1xi32>
    (%8) = "pd_op.subtract" (%0, %7) {stop_gradient:[true],sym_shape_str:"shape[1], data[Add(S0, -Mul(S0, 1 / (2)))]"} : (builtin.tensor<1xi32>, builtin.tensor<1xi32>) -> builtin.tensor<1xi32>
    (%9) = "pd_op.floor_divide" (%1, %6) {stop_gradient:[true],sym_shape_str:"shape[1], data[Mul(S1, 1 / (2))]"} : (builtin.tensor<1xi32>, builtin.tensor<i32>) -> builtin.tensor<1xi32>
    (%10) = "pd_op.subtract" (%1, %9) {stop_gradient:[true],sym_shape_str:"shape[1], data[Add(S1, -Mul(S1, 1 / (2)))]"} : (builtin.tensor<1xi32>, builtin.tensor<1xi32>) -> builtin.tensor<1xi32>
    (%11) = "pd_op.full" () {dtype:(pd_op.DataType)int32,place:(pd_op.Place)Place(cpu),shape:(pd_op.IntArray)[1],stop_gradient:[true],sym_shape_str:"shape[1], data[0]",value:(Double)0} : () -> builtin.tensor<1xi32>
    (%12) = "builtin.combine" (%7, %8, %9, %10) {stop_gradient:[true],sym_shape_str:"shape[1], data[Mul(S0, 1 / (2))], shape[1], data[Add(S0, -Mul(S0, 1 / (2)))], shape[1], data[Mul(S1, 1 / (2))], shape[1], data[Add(S1, -Mul(S1, 1 / (2)))]"} : (builtin.tensor<1xi32>, builtin.tensor<1xi32>, builtin.tensor<1xi32>, builtin.tensor<1xi32>) -> vec[builtin.tensor<1xi32>,builtin.tensor<1xi32>,builtin.tensor<1xi32>,builtin.tensor<1xi32>]
    (%13) = "pd_op.concat" (%12, %11) {stop_gradient:[true],sym_shape_str:"shape[4], data[Mul(S0, 1 / (2)), Add(S0, -Mul(S0, 1 / (2))), Mul(S1, 1 / (2)), Add(S1, -Mul(S1, 1 / (2)))]"} : (vec[builtin.tensor<1xi32>,builtin.tensor<1xi32>,builtin.tensor<1xi32>,builtin.tensor<1xi32>], builtin.tensor<1xi32>) -> builtin.tensor<4xi32>
    (%14) = "pd_op.full" () {dtype:(pd_op.DataType)int32,place:(pd_op.Place)Place(undefined:0),shape:(pd_op.IntArray)[2],stop_gradient:[true],sym_shape_str:"shape[2], data[0, 0]",value:(Double)0} : () -> builtin.tensor<2xi32>
    (%15) = "builtin.combine" (%13, %14) {stop_gradient:[true],sym_shape_str:"shape[4], data[Mul(S0, 1 / (2)), Add(S0, -Mul(S0, 1 / (2))), Mul(S1, 1 / (2)), Add(S1, -Mul(S1, 1 / (2)))], shape[2], data[0, 0]"} : (builtin.tensor<4xi32>, builtin.tensor<2xi32>) -> vec[builtin.tensor<4xi32>,builtin.tensor<2xi32>]
    (%16) = "pd_op.concat" (%15, %11) {stop_gradient:[true],sym_shape_str:"shape[6], data[Mul(S0, 1 / (2)), Add(S0, -Mul(S0, 1 / (2))), Mul(S1, 1 / (2)), Add(S1, -Mul(S1, 1 / (2))), 0, 0]"} : (vec[builtin.tensor<4xi32>,builtin.tensor<2xi32>], builtin.tensor<1xi32>) -> builtin.tensor<6xi32>
    (%17) = "pd_op.full_int_array" () {dtype:(pd_op.DataType)int64,place:(pd_op.Place)Place(cpu),stop_gradient:[true],sym_shape_str:"shape[1], data[2]",value:[(Int64)2]} : () -> builtin.tensor<1xi64>
    (%18) = "pd_op.full_int_array" () {dtype:(pd_op.DataType)int64,place:(pd_op.Place)Place(cpu),stop_gradient:[true],sym_shape_str:"shape[5], data[1, 512, 1, 97, 97]",value:[(Int64)1,(Int64)512,(Int64)1,(Int64)97,(Int64)97]} : () -> builtin.tensor<5xi64>
    (%19) = "pd_op.reshape" (%2, %18) {stop_gradient:[false],sym_shape_str:"shape[1, 512, 1, 97, 97], data[NULL]"} : (builtin.tensor<1x512x97x97xf32>, builtin.tensor<5xi64>) -> builtin.tensor<1x512x1x97x97xf32>
    (%20) = "pd_op.pad3d" (%19, %16) {data_format:"NCDHW",mode:"constant",pad_value:(Float)0,stop_gradient:[false],sym_shape_str:"shape[1, 512, 1, Add(S1, 97), Add(S0, 97)], data[NULL]"} : (builtin.tensor<1x512x1x97x97xf32>, builtin.tensor<6xi32>) -> builtin.tensor<1x512x-1x-1x-1xf32>
    (%21) = "pd_op.squeeze" (%20, %17) {stop_gradient:[false],sym_shape_str:"shape[1, 512, Add(S1, 97), Add(S0, 97)], data[NULL]"} : (builtin.tensor<1x512x-1x-1x-1xf32>, builtin.tensor<1xi64>) -> builtin.tensor<1x512x-1x-1xf32>
    (%22) = "pd_op.full_int_array" () {dtype:(pd_op.DataType)int64,place:(pd_op.Place)Place(cpu),stop_gradient:[true],sym_shape_str:"shape[1], data[1]",value:[(Int64)1]} : () -> builtin.tensor<1xi64>
    (%23) = "pd_op.slice" (%3, %22, %17) {axes:[(Int64)0],decrease_axis:[(Int64)0],infer_flags:[(Int64)1],stop_gradient:[true],sym_shape_str:"shape[], data[S3]"} : (builtin.tensor<4xi32>, builtin.tensor<1xi64>, builtin.tensor<1xi64>) -> builtin.tensor<i32>
…
    (%7) = "cinn_op.generate_shape" (%0) {output_dim_exprs:[["Add","S0",["Negative",["Mul","S0",["Reciprocal",(Int64)2]]]]],stop_gradient:[true],sym_shape_str:"shape[1], data[Add(S0, -Mul(S0, 1 / (2)))]",symbol_bindings:[["DataSymbolBinding","S0",(Int64)0,(Int64)0]]} : (builtin.tensor<1xi32>) -> builtin.tensor<1xi32>
    (%8) = "cinn_op.generate_shape" (%1) {output_dim_exprs:[["Mul","S1",["Reciprocal",(Int64)2]]],stop_gradient:[true],sym_shape_str:"shape[1], data[Mul(S1, 1 / (2))]",symbol_bindings:[["DataSymbolBinding","S1",(Int64)0,(Int64)0]]} : (builtin.tensor<1xi32>) -> builtin.tensor<1xi32>
    (%9) = "cinn_op.generate_shape" (%1) {output_dim_exprs:[["Add","S1",["Negative",["Mul","S1",["Reciprocal",(Int64)2]]]]],stop_gradient:[true],sym_shape_str:"shape[1], data[Add(S1, -Mul(S1, 1 / (2)))]",symbol_bindings:[["DataSymbolBinding","S1",(Int64)0,(Int64)0]]} : (builtin.tensor<1xi32>) -> builtin.tensor<1xi32>
    (%10) = "builtin.combine" (%6, %7, %8, %9) {stop_gradient:[true]} : (builtin.tensor<1xi32>, builtin.tensor<1xi32>, builtin.tensor<1xi32>, builtin.tensor<1xi32>) -> vec[builtin.tensor<1xi32>,builtin.tensor<1xi32>,builtin.tensor<1xi32>,builtin.tensor<1xi32>]
    (%11) = "pd_op.full" () {dtype:(pd_op.DataType)int32,place:(pd_op.Place)Place(cpu),shape:(pd_op.IntArray)[1],stop_gradient:[true],value:(Double)0} : () -> builtin.tensor<1xi32>
    (%12) = "pd_op.concat" (%10, %11) {stop_gradient:[true]} : (vec[builtin.tensor<1xi32>,builtin.tensor<1xi32>,builtin.tensor<1xi32>,builtin.tensor<1xi32>], builtin.tensor<1xi32>) -> builtin.tensor<4xi32>
    (%13) = "pd_op.full" () {dtype:(pd_op.DataType)int32,place:(pd_op.Place)Place(undefined:0),shape:(pd_op.IntArray)[2],stop_gradient:[true],sym_shape_str:"shape[2], data[0, 0]",value:(Double)0} : () -> builtin.tensor<2xi32>
    (%14) = "builtin.combine" (%12, %13) {stop_gradient:[true]} : (builtin.tensor<4xi32>, builtin.tensor<2xi32>) -> vec[builtin.tensor<4xi32>,builtin.tensor<2xi32>]
    (%15) = "pd_op.full" () {dtype:(pd_op.DataType)int32,place:(pd_op.Place)Place(cpu),shape:(pd_op.IntArray)[1],stop_gradient:[true],value:(Double)0} : () -> builtin.tensor<1xi32>
    (%16) = "pd_op.concat" (%14, %15) {stop_gradient:[true]} : (vec[builtin.tensor<4xi32>,builtin.tensor<2xi32>], builtin.tensor<1xi32>) -> builtin.tensor<6xi32>
    (%17) = "pd_op.share_data_" (%16) {stop_gradient:[true]} : (builtin.tensor<6xi32>) -> builtin.tensor<6xi32>
    (%18) = "cinn_op.fusion" [id:347] () -> builtin.tensor<1x512x1x97x97xf32> {
        (%19) = "cinn_op.reshape" (%2) {shape:[(Int32)1,(Int32)512,(Int32)1,(Int32)97,(Int32)97],stop_gradient:[false],sym_shape_str:"shape[1, 512, 1, 97, 97], data[NULL]"} : (builtin.tensor<1x512x97x97xf32>) -> builtin.tensor<1x512x1x97x97xf32>
        (%20) = "cinn_op.yield_store" (%19) {} : (builtin.tensor<1x512x1x97x97xf32>) -> builtin.tensor<1x512x1x97x97xf32>
        () = "cf.yield" (%20) {} : (builtin.tensor<1x512x1x97x97xf32>) -> 
    }
    (%21) = "pd_op.pad3d" (%18, %17) {data_format:"NCDHW",mode:"constant",pad_value:(Float)0,stop_gradient:[false],sym_shape_str:"shape[1, 512, 1, Add(S1, 97), Add(S0, 97)], data[NULL]"} : (builtin.tensor<1x512x1x97x97xf32>, builtin.tensor<6xi32>) -> builtin.tensor<1x512x-1x-1x-1xf32>
    (%22) = "cinn_op.fusion" [id:355] () -> builtin.tensor<-1x512x-1x-1xf32> {
        (%23) = "cinn_op.generate_shape" (%3, %4, %5) {output_dim_exprs:[(Int64)0,"S3","S6",(Int64)8,"S7",(Int64)8],stop_gradient:[true],sym_shape_str:"shape[6], data[0, S3, S6, 8, S7, 8]",symbol_bindings:[["DataSymbolBinding","S3",(Int64)0,(Int64)1],["DataSymbolBinding","S6",(Int64)1,(Int64)0],["DataSymbolBinding","S7",(Int64)2,(Int64)0]]} : (builtin.tensor<4xi32>, builtin.tensor<1xi32>, builtin.tensor<1xi32>) -> builtin.tensor<6xi64>
        (%24) = "pd_op.reshape" (%21, %23) {stop_gradient:[false],sym_shape_str:"shape[1, S3, S6, 8, S7, 8], data[NULL]"} : (builtin.tensor<1x512x-1x-1x-1xf32>, builtin.tensor<6xi64>) -> builtin.tensor<1x-1x-1x8x-1x8xf32>
        (%25) = "pd_op.transpose" (%24) {perm:[(Int32)0,(Int32)3,(Int32)5,(Int32)1,(Int32)2,(Int32)4],stop_gradient:[false],sym_shape_str:"shape[1, 8, 8, S3, S6, S7], data[NULL]"} : (builtin.tensor<1x-1x-1x8x-1x8xf32>) -> builtin.tensor<1x8x8x-1x-1x-1xf32>
        (%26) = "cinn_op.generate_shape" (%4, %5) {output_dim_exprs:[(Int64)-1,(Int64)512,"S6","S7"],stop_gradient:[true],sym_shape_str:"shape[4], data[-1, 512, S6, S7]",symbol_bindings:[["DataSymbolBinding","S6",(Int64)0,(Int64)0],["DataSymbolBinding","S7",(Int64)1,(Int64)0]]} : (builtin.tensor<1xi32>, builtin.tensor<1xi32>) -> builtin.tensor<4xi64>
        (%27) = "pd_op.reshape" (%25, %26) {stop_gradient:[false],sym_shape_str:"shape[Mul(S3, 1 / (8)), 512, S6, S7], data[NULL]"} : (builtin.tensor<1x8x8x-1x-1x-1xf32>, builtin.tensor<4xi64>) -> builtin.tensor<-1x512x-1x-1xf32>
        (%28) = "cinn_op.yield_store" (%27) {} : (builtin.tensor<-1x512x-1x-1xf32>) -> builtin.tensor<-1x512x-1x-1xf32>
        () = "cf.yield" (%28) {} : (builtin.tensor<-1x512x-1x-1xf32>) -> 
    }
    () = "builtin.shadow_output" (%22) {output_name:"output_0",sym_shape_str:"shape[Mul(S3, 1 / (8)), 512, S6, S7], data[NULL]"} : (builtin.tensor<-1x512x-1x-1xf32>) -> 
}


W1105 12:58:14.866552 983782 pattern_rewrite_driver.cc:225] The pattern rewrite did not converge after scanning 10 times
===------------------------------------------------------------------------------------===
        IRPrinting on builtin.module after lower_cinn_dynamic_shape_fusion_op pass
===------------------------------------------------------------------------------------===
{
    (%0) = "pd_op.data" () {dtype:(pd_op.DataType)int32,name:"_jst.0.var_0.0",place:(pd_op.Place)Place(undefined:0),shape:(pd_op.IntArray)[1],stop_gradient:[true],sym_shape_str:"shape[1], data[S0]"} : () -> builtin.tensor<1xi32>
    (%1) = "pd_op.data" () {dtype:(pd_op.DataType)int32,name:"_jst.1.var_1.0",place:(pd_op.Place)Place(undefined:0),shape:(pd_op.IntArray)[1],stop_gradient:[true],sym_shape_str:"shape[1], data[S1]"} : () -> builtin.tensor<1xi32>
    (%2) = "pd_op.data" () {dtype:(pd_op.DataType)float32,name:"_jst.2.var_2.0",place:(pd_op.Place)Place(undefined:0),shape:(pd_op.IntArray)[1,512,97,97],stop_gradient:[false],sym_shape_str:"shape[1, 512, 97, 97], data[NULL]"} : () -> builtin.tensor<1x512x97x97xf32>
    (%3) = "pd_op.data" () {dtype:(pd_op.DataType)int32,name:"_jst.3.var_3.0",place:(pd_op.Place)Place(undefined:0),shape:(pd_op.IntArray)[4],stop_gradient:[true],sym_shape_str:"shape[4], data[S2, S3, S4, S5]"} : () -> builtin.tensor<4xi32>
    (%4) = "pd_op.data" () {dtype:(pd_op.DataType)int32,name:"_jst.4.var_4.0",place:(pd_op.Place)Place(undefined:0),shape:(pd_op.IntArray)[1],stop_gradient:[true],sym_shape_str:"shape[1], data[S6]"} : () -> builtin.tensor<1xi32>
    (%5) = "pd_op.data" () {dtype:(pd_op.DataType)int32,name:"_jst.5.var_5.0",place:(pd_op.Place)Place(undefined:0),shape:(pd_op.IntArray)[1],stop_gradient:[true],sym_shape_str:"shape[1], data[S7]"} : () -> builtin.tensor<1xi32>
    (%6) = "cinn_op.generate_shape" (%0) {output_dim_exprs:[["Mul","S0",["Reciprocal",(Int64)2]]],stop_gradient:[true],sym_shape_str:"shape[1], data[Mul(S0, 1 / (2))]",symbol_bindings:[["DataSymbolBinding","S0",(Int64)0,(Int64)0]]} : (builtin.tensor<1xi32>) -> builtin.tensor<1xi32>
    (%7) = "cinn_op.generate_shape" (%0) {output_dim_exprs:[["Add","S0",["Negative",["Mul","S0",["Reciprocal",(Int64)2]]]]],stop_gradient:[true],sym_shape_str:"shape[1], data[Add(S0, -Mul(S0, 1 / (2)))]",symbol_bindings:[["DataSymbolBinding","S0",(Int64)0,(Int64)0]]} : (builtin.tensor<1xi32>) -> builtin.tensor<1xi32>
    (%8) = "cinn_op.generate_shape" (%1) {output_dim_exprs:[["Mul","S1",["Reciprocal",(Int64)2]]],stop_gradient:[true],sym_shape_str:"shape[1], data[Mul(S1, 1 / (2))]",symbol_bindings:[["DataSymbolBinding","S1",(Int64)0,(Int64)0]]} : (builtin.tensor<1xi32>) -> builtin.tensor<1xi32>
    (%9) = "cinn_op.generate_shape" (%1) {output_dim_exprs:[["Add","S1",["Negative",["Mul","S1",["Reciprocal",(Int64)2]]]]],stop_gradient:[true],sym_shape_str:"shape[1], data[Add(S1, -Mul(S1, 1 / (2)))]",symbol_bindings:[["DataSymbolBinding","S1",(Int64)0,(Int64)0]]} : (builtin.tensor<1xi32>) -> builtin.tensor<1xi32>
    (%10) = "builtin.combine" (%6, %7, %8, %9) {stop_gradient:[true]} : (builtin.tensor<1xi32>, builtin.tensor<1xi32>, builtin.tensor<1xi32>, builtin.tensor<1xi32>) -> vec[builtin.tensor<1xi32>,builtin.tensor<1xi32>,builtin.tensor<1xi32>,builtin.tensor<1xi32>]
    (%11) = "pd_op.full" () {dtype:(pd_op.DataType)int32,place:(pd_op.Place)Place(cpu),shape:(pd_op.IntArray)[1],stop_gradient:[true],value:(Double)0} : () -> builtin.tensor<1xi32>
    (%12) = "pd_op.concat" (%10, %11) {stop_gradient:[true]} : (vec[builtin.tensor<1xi32>,builtin.tensor<1xi32>,builtin.tensor<1xi32>,builtin.tensor<1xi32>], builtin.tensor<1xi32>) -> builtin.tensor<4xi32>
    (%13) = "pd_op.full" () {dtype:(pd_op.DataType)int32,place:(pd_op.Place)Place(undefined:0),shape:(pd_op.IntArray)[2],stop_gradient:[true],sym_shape_str:"shape[2], data[0, 0]",value:(Double)0} : () -> builtin.tensor<2xi32>
    (%14) = "builtin.combine" (%12, %13) {stop_gradient:[true]} : (builtin.tensor<4xi32>, builtin.tensor<2xi32>) -> vec[builtin.tensor<4xi32>,builtin.tensor<2xi32>]
    (%15) = "pd_op.full" () {dtype:(pd_op.DataType)int32,place:(pd_op.Place)Place(cpu),shape:(pd_op.IntArray)[1],stop_gradient:[true],value:(Double)0} : () -> builtin.tensor<1xi32>
    (%16) = "pd_op.concat" (%14, %15) {stop_gradient:[true]} : (vec[builtin.tensor<4xi32>,builtin.tensor<2xi32>], builtin.tensor<1xi32>) -> builtin.tensor<6xi32>
    (%17) = "pd_op.share_data_" (%16) {stop_gradient:[true]} : (builtin.tensor<6xi32>) -> builtin.tensor<6xi32>
    (%18) = "cinn_runtime.jit_kernel" (%2) {kernel_info:(0x7f46ac3c1800)} : (builtin.tensor<1x512x97x97xf32>) -> builtin.tensor<1x512x1x97x97xf32>
    (%19) = "pd_op.pad3d" (%18, %17) {data_format:"NCDHW",mode:"constant",pad_value:(Float)0,stop_gradient:[false],sym_shape_str:"shape[1, 512, 1, Add(S1, 97), Add(S0, 97)], data[NULL]"} : (builtin.tensor<1x512x1x97x97xf32>, builtin.tensor<6xi32>) -> builtin.tensor<1x512x-1x-1x-1xf32>
    (%20) = "cinn_runtime.jit_kernel" (%3, %4, %5, %19) {kernel_info:(0x7f46a4bc1800)} : (builtin.tensor<4xi32>, builtin.tensor<1xi32>, builtin.tensor<1xi32>, builtin.tensor<1x512x-1x-1x-1xf32>) -> builtin.tensor<-1x512x-1x-1xf32>
    () = "builtin.shadow_output" (%20) {output_name:"output_0",sym_shape_str:"shape[Mul(S3, 1 / (8)), 512, S6, S7], data[NULL]"} : (builtin.tensor<-1x512x-1x-1xf32>) -> 
}


===-------------------------------------------------------------------------------------------===
        IRPrinting on builtin.module before split_generate_shape_into_shape_ops_pass pass
===-------------------------------------------------------------------------------------------===
{
    (%0) = "pd_op.data" () {dtype:(pd_op.DataType)int32,name:"_jst.0.var_0.0",place:(pd_op.Place)Place(undefined:0),shape:(pd_op.IntArray)[1],stop_gradient:[true],sym_shape_str:"shape[1], data[S0]"} : () -> builtin.tensor<1xi32>
    (%1) = "pd_op.data" () {dtype:(pd_op.DataType)int32,name:"_jst.1.var_1.0",place:(pd_op.Place)Place(undefined:0),shape:(pd_op.IntArray)[1],stop_gradient:[true],sym_shape_str:"shape[1], data[S1]"} : () -> builtin.tensor<1xi32>
    (%2) = "pd_op.data" () {dtype:(pd_op.DataType)float32,name:"_jst.2.var_2.0",place:(pd_op.Place)Place(undefined:0),shape:(pd_op.IntArray)[1,512,97,97],stop_gradient:[false],sym_shape_str:"shape[1, 512, 97, 97], data[NULL]"} : () -> builtin.tensor<1x512x97x97xf32>
    (%3) = "pd_op.data" () {dtype:(pd_op.DataType)int32,name:"_jst.3.var_3.0",place:(pd_op.Place)Place(undefined:0),shape:(pd_op.IntArray)[4],stop_gradient:[true],sym_shape_str:"shape[4], data[S2, S3, S4, S5]"} : () -> builtin.tensor<4xi32>
    (%4) = "pd_op.data" () {dtype:(pd_op.DataType)int32,name:"_jst.4.var_4.0",place:(pd_op.Place)Place(undefined:0),shape:(pd_op.IntArray)[1],stop_gradient:[true],sym_shape_str:"shape[1], data[S6]"} : () -> builtin.tensor<1xi32>
    (%5) = "pd_op.data" () {dtype:(pd_op.DataType)int32,name:"_jst.5.var_5.0",place:(pd_op.Place)Place(undefined:0),shape:(pd_op.IntArray)[1],stop_gradient:[true],sym_shape_str:"shape[1], data[S7]"} : () -> builtin.tensor<1xi32>
    (%6) = "cinn_op.generate_shape" (%0) {output_dim_exprs:[["Mul","S0",["Reciprocal",(Int64)2]]],stop_gradient:[true],sym_shape_str:"shape[1], data[Mul(S0, 1 / (2))]",symbol_bindings:[["DataSymbolBinding","S0",(Int64)0,(Int64)0]]} : (builtin.tensor<1xi32>) -> builtin.tensor<1xi32>
    (%7) = "cinn_op.generate_shape" (%0) {output_dim_exprs:[["Add","S0",["Negative",["Mul","S0",["Reciprocal",(Int64)2]]]]],stop_gradient:[true],sym_shape_str:"shape[1], data[Add(S0, -Mul(S0, 1 / (2)))]",symbol_bindings:[["DataSymbolBinding","S0",(Int64)0,(Int64)0]]} : (builtin.tensor<1xi32>) -> builtin.tensor<1xi32>
    (%8) = "cinn_op.generate_shape" (%1) {output_dim_exprs:[["Mul","S1",["Reciprocal",(Int64)2]]],stop_gradient:[true],sym_shape_str:"shape[1], data[Mul(S1, 1 / (2))]",symbol_bindings:[["DataSymbolBinding","S1",(Int64)0,(Int64)0]]} : (builtin.tensor<1xi32>) -> builtin.tensor<1xi32>
    (%9) = "cinn_op.generate_shape" (%1) {output_dim_exprs:[["Add","S1",["Negative",["Mul","S1",["Reciprocal",(Int64)2]]]]],stop_gradient:[true],sym_shape_str:"shape[1], data[Add(S1, -Mul(S1, 1 / (2)))]",symbol_bindings:[["DataSymbolBinding","S1",(Int64)0,(Int64)0]]} : (builtin.tensor<1xi32>) -> builtin.tensor<1xi32>
    (%10) = "builtin.combine" (%6, %7, %8, %9) {stop_gradient:[true]} : (builtin.tensor<1xi32>, builtin.tensor<1xi32>, builtin.tensor<1xi32>, builtin.tensor<1xi32>) -> vec[builtin.tensor<1xi32>,builtin.tensor<1xi32>,builtin.tensor<1xi32>,builtin.tensor<1xi32>]
    (%11) = "pd_op.full" () {dtype:(pd_op.DataType)int32,place:(pd_op.Place)Place(cpu),shape:(pd_op.IntArray)[1],stop_gradient:[true],value:(Double)0} : () -> builtin.tensor<1xi32>
    (%12) = "pd_op.concat" (%10, %11) {stop_gradient:[true]} : (vec[builtin.tensor<1xi32>,builtin.tensor<1xi32>,builtin.tensor<1xi32>,builtin.tensor<1xi32>], builtin.tensor<1xi32>) -> builtin.tensor<4xi32>
    (%13) = "pd_op.full" () {dtype:(pd_op.DataType)int32,place:(pd_op.Place)Place(undefined:0),shape:(pd_op.IntArray)[2],stop_gradient:[true],sym_shape_str:"shape[2], data[0, 0]",value:(Double)0} : () -> builtin.tensor<2xi32>
    (%14) = "builtin.combine" (%12, %13) {stop_gradient:[true]} : (builtin.tensor<4xi32>, builtin.tensor<2xi32>) -> vec[builtin.tensor<4xi32>,builtin.tensor<2xi32>]
    (%15) = "pd_op.full" () {dtype:(pd_op.DataType)int32,place:(pd_op.Place)Place(cpu),shape:(pd_op.IntArray)[1],stop_gradient:[true],value:(Double)0} : () -> builtin.tensor<1xi32>
    (%16) = "pd_op.concat" (%14, %15) {stop_gradient:[true]} : (vec[builtin.tensor<4xi32>,builtin.tensor<2xi32>], builtin.tensor<1xi32>) -> builtin.tensor<6xi32>
    (%17) = "pd_op.share_data_" (%16) {stop_gradient:[true]} : (builtin.tensor<6xi32>) -> builtin.tensor<6xi32>
    (%18) = "cinn_runtime.jit_kernel" (%2) {kernel_info:(0x7f46ac3c1800)} : (builtin.tensor<1x512x97x97xf32>) -> builtin.tensor<1x512x1x97x97xf32>
    (%19) = "pd_op.pad3d" (%18, %17) {data_format:"NCDHW",mode:"constant",pad_value:(Float)0,stop_gradient:[false],sym_shape_str:"shape[1, 512, 1, Add(S1, 97), Add(S0, 97)], data[NULL]"} : (builtin.tensor<1x512x1x97x97xf32>, builtin.tensor<6xi32>) -> builtin.tensor<1x512x-1x-1x-1xf32>
    (%20) = "cinn_runtime.jit_kernel" (%3, %4, %5, %19) {kernel_info:(0x7f46a4bc1800)} : (builtin.tensor<4xi32>, builtin.tensor<1xi32>, builtin.tensor<1xi32>, builtin.tensor<1x512x-1x-1x-1xf32>) -> builtin.tensor<-1x512x-1x-1xf32>
    () = "builtin.shadow_output" (%20) {output_name:"output_0",sym_shape_str:"shape[Mul(S3, 1 / (8)), 512, S6, S7], data[NULL]"} : (builtin.tensor<-1x512x-1x-1xf32>) -> 
}


===------------------------------------------------------------------------------------------===
        IRPrinting on builtin.module after split_generate_shape_into_shape_ops_pass pass
===------------------------------------------------------------------------------------------===
{
    (%0) = "pd_op.data" () {dtype:(pd_op.DataType)int32,name:"_jst.0.var_0.0",place:(pd_op.Place)Place(undefined:0),shape:(pd_op.IntArray)[1],stop_gradient:[true],sym_shape_str:"shape[1], data[S0]"} : () -> builtin.tensor<1xi32>
    (%1) = "pd_op.data" () {dtype:(pd_op.DataType)int32,name:"_jst.1.var_1.0",place:(pd_op.Place)Place(undefined:0),shape:(pd_op.IntArray)[1],stop_gradient:[true],sym_shape_str:"shape[1], data[S1]"} : () -> builtin.tensor<1xi32>
    (%2) = "pd_op.data" () {dtype:(pd_op.DataType)float32,name:"_jst.2.var_2.0",place:(pd_op.Place)Place(undefined:0),shape:(pd_op.IntArray)[1,512,97,97],stop_gradient:[false],sym_shape_str:"shape[1, 512, 97, 97], data[NULL]"} : () -> builtin.tensor<1x512x97x97xf32>
    (%3) = "pd_op.data" () {dtype:(pd_op.DataType)int32,name:"_jst.3.var_3.0",place:(pd_op.Place)Place(undefined:0),shape:(pd_op.IntArray)[4],stop_gradient:[true],sym_shape_str:"shape[4], data[S2, S3, S4, S5]"} : () -> builtin.tensor<4xi32>
    (%4) = "pd_op.data" () {dtype:(pd_op.DataType)int32,name:"_jst.4.var_4.0",place:(pd_op.Place)Place(undefined:0),shape:(pd_op.IntArray)[1],stop_gradient:[true],sym_shape_str:"shape[1], data[S6]"} : () -> builtin.tensor<1xi32>
    (%5) = "pd_op.data" () {dtype:(pd_op.DataType)int32,name:"_jst.5.var_5.0",place:(pd_op.Place)Place(undefined:0),shape:(pd_op.IntArray)[1],stop_gradient:[true],sym_shape_str:"shape[1], data[S7]"} : () -> builtin.tensor<1xi32>
    (%6) = "pd_op.cast" (%0) {dtype:(pd_op.DataType)int64,stop_gradient:[true]} : (builtin.tensor<1xi32>) -> builtin.tensor<1xi64>
    (%7) = "pd_op.full_int_array" () {dtype:(pd_op.DataType)int64,place:(pd_op.Place)Place(cpu),stop_gradient:[true],value:[(Int64)2]} : () -> builtin.tensor<1xi64>
    (%8) = "pd_op.divide" (%6, %7) {stop_gradient:[true]} : (builtin.tensor<1xi64>, builtin.tensor<1xi64>) -> builtin.tensor<1xi64>
    (%9) = "pd_op.cast" (%8) {dtype:(pd_op.DataType)int32,stop_gradient:[true]} : (builtin.tensor<1xi64>) -> builtin.tensor<1xi32>
    (%10) = "pd_op.cast" (%0) {dtype:(pd_op.DataType)int64,stop_gradient:[true]} : (builtin.tensor<1xi32>) -> builtin.tensor<1xi64>
    (%11) = "pd_op.cast" (%0) {dtype:(pd_op.DataType)int64,stop_gradient:[true]} : (builtin.tensor<1xi32>) -> builtin.tensor<1xi64>
    (%12) = "pd_op.full_int_array" () {dtype:(pd_op.DataType)int64,place:(pd_op.Place)Place(cpu),stop_gradient:[true],value:[(Int64)2]} : () -> builtin.tensor<1xi64>
    (%13) = "pd_op.divide" (%11, %12) {stop_gradient:[true]} : (builtin.tensor<1xi64>, builtin.tensor<1xi64>) -> builtin.tensor<1xi64>
    (%14) = "pd_op.subtract" (%10, %13) {stop_gradient:[true]} : (builtin.tensor<1xi64>, builtin.tensor<1xi64>) -> builtin.tensor<1xi64>
    (%15) = "pd_op.cast" (%14) {dtype:(pd_op.DataType)int32,stop_gradient:[true]} : (builtin.tensor<1xi64>) -> builtin.tensor<1xi32>
    (%16) = "pd_op.cast" (%1) {dtype:(pd_op.DataType)int64,stop_gradient:[true]} : (builtin.tensor<1xi32>) -> builtin.tensor<1xi64>
    (%17) = "pd_op.full_int_array" () {dtype:(pd_op.DataType)int64,place:(pd_op.Place)Place(cpu),stop_gradient:[true],value:[(Int64)2]} : () -> builtin.tensor<1xi64>
    (%18) = "pd_op.divide" (%16, %17) {stop_gradient:[true]} : (builtin.tensor<1xi64>, builtin.tensor<1xi64>) -> builtin.tensor<1xi64>
    (%19) = "pd_op.cast" (%18) {dtype:(pd_op.DataType)int32,stop_gradient:[true]} : (builtin.tensor<1xi64>) -> builtin.tensor<1xi32>
    (%20) = "pd_op.cast" (%1) {dtype:(pd_op.DataType)int64,stop_gradient:[true]} : (builtin.tensor<1xi32>) -> builtin.tensor<1xi64>
    (%21) = "pd_op.cast" (%1) {dtype:(pd_op.DataType)int64,stop_gradient:[true]} : (builtin.tensor<1xi32>) -> builtin.tensor<1xi64>
    (%22) = "pd_op.full_int_array" () {dtype:(pd_op.DataType)int64,place:(pd_op.Place)Place(cpu),stop_gradient:[true],value:[(Int64)2]} : () -> builtin.tensor<1xi64>
    (%23) = "pd_op.divide" (%21, %22) {stop_gradient:[true]} : (builtin.tensor<1xi64>, builtin.tensor<1xi64>) -> builtin.tensor<1xi64>
    (%24) = "pd_op.subtract" (%20, %23) {stop_gradient:[true]} : (builtin.tensor<1xi64>, builtin.tensor<1xi64>) -> builtin.tensor<1xi64>
    (%25) = "pd_op.cast" (%24) {dtype:(pd_op.DataType)int32,stop_gradient:[true]} : (builtin.tensor<1xi64>) -> builtin.tensor<1xi32>
    (%26) = "builtin.combine" (%9, %15, %19, %25) {stop_gradient:[true]} : (builtin.tensor<1xi32>, builtin.tensor<1xi32>, builtin.tensor<1xi32>, builtin.tensor<1xi32>) -> vec[builtin.tensor<1xi32>,builtin.tensor<1xi32>,builtin.tensor<1xi32>,builtin.tensor<1xi32>]
    (%27) = "pd_op.full" () {dtype:(pd_op.DataType)int32,place:(pd_op.Place)Place(cpu),shape:(pd_op.IntArray)[1],stop_gradient:[true],value:(Double)0} : () -> builtin.tensor<1xi32>
    (%28) = "pd_op.concat" (%26, %27) {stop_gradient:[true]} : (vec[builtin.tensor<1xi32>,builtin.tensor<1xi32>,builtin.tensor<1xi32>,builtin.tensor<1xi32>], builtin.tensor<1xi32>) -> builtin.tensor<4xi32>
    (%29) = "pd_op.full" () {dtype:(pd_op.DataType)int32,place:(pd_op.Place)Place(undefined:0),shape:(pd_op.IntArray)[2],stop_gradient:[true],sym_shape_str:"shape[2], data[0, 0]",value:(Double)0} : () -> builtin.tensor<2xi32>
    (%30) = "builtin.combine" (%28, %29) {stop_gradient:[true]} : (builtin.tensor<4xi32>, builtin.tensor<2xi32>) -> vec[builtin.tensor<4xi32>,builtin.tensor<2xi32>]
    (%31) = "pd_op.full" () {dtype:(pd_op.DataType)int32,place:(pd_op.Place)Place(cpu),shape:(pd_op.IntArray)[1],stop_gradient:[true],value:(Double)0} : () -> builtin.tensor<1xi32>
    (%32) = "pd_op.concat" (%30, %31) {stop_gradient:[true]} : (vec[builtin.tensor<4xi32>,builtin.tensor<2xi32>], builtin.tensor<1xi32>) -> builtin.tensor<6xi32>
    (%33) = "pd_op.share_data_" (%32) {stop_gradient:[true]} : (builtin.tensor<6xi32>) -> builtin.tensor<6xi32>
    (%34) = "cinn_runtime.jit_kernel" (%2) {kernel_info:(0x7f46ac3c1800)} : (builtin.tensor<1x512x97x97xf32>) -> builtin.tensor<1x512x1x97x97xf32>
    (%35) = "pd_op.pad3d" (%34, %33) {data_format:"NCDHW",mode:"constant",pad_value:(Float)0,stop_gradient:[false],sym_shape_str:"shape[1, 512, 1, Add(S1, 97), Add(S0, 97)], data[NULL]"} : (builtin.tensor<1x512x1x97x97xf32>, builtin.tensor<6xi32>) -> builtin.tensor<1x512x-1x-1x-1xf32>
    (%36) = "cinn_runtime.jit_kernel" (%3, %4, %5, %35) {kernel_info:(0x7f46a4bc1800)} : (builtin.tensor<4xi32>, builtin.tensor<1xi32>, builtin.tensor<1xi32>, builtin.tensor<1x512x-1x-1x-1xf32>) -> builtin.tensor<-1x512x-1x-1xf32>
    () = "builtin.shadow_output" (%36) {output_name:"output_0",sym_shape_str:"shape[Mul(S3, 1 / (8)), 512, S6, S7], data[NULL]"} : (builtin.tensor<-1x512x-1x-1xf32>) -> 
}


I1105 12:58:14.867487 983782 add_cinn_pass.cc:292] Time of lowering and compiling program: ***** [ 3 ] ***** seconds.
I1105 12:58:14.867509 983782 add_cinn_pass.cc:296] Number of ops in the original program is: 51, after lowering it becomes: 38. (compression ratio: 38/51 = 0.745098)
IR after lowering = {
    (%0) = "data(phi_kernel)" () {dtype:(pd_op.DataType)int32,kernel_key:<backend:Undefined|layout:Undefined(AnyLayout)|dtype:int32>,kernel_name:"data",name:"_jst.0.var_0.0",op_name:"pd_op.data",origin_id:(Int64)412,place:(pd_op.Place)Place(undefined:0),shape:(pd_op.IntArray)[1],stop_gradient:[true],sym_shape_str:"shape[1], data[S0]"} : () -> undefined_tensor<1xi32>
    (%1) = "shadow_feed(phi_kernel)" (%0) {dst_place_type:(Int32)1,kernel_key:<backend:GPU|layout:Undefined(AnyLayout)|dtype:int32>,kernel_name:"shadow_feed",op_name:"pd_op.shadow_feed",origin_id:(Int64)413} : (undefined_tensor<1xi32>) -> gpu_tensor<1xi32>
    (%2) = "data(phi_kernel)" () {dtype:(pd_op.DataType)int32,kernel_key:<backend:Undefined|layout:Undefined(AnyLayout)|dtype:int32>,kernel_name:"data",name:"_jst.1.var_1.0",op_name:"pd_op.data",origin_id:(Int64)414,place:(pd_op.Place)Place(undefined:0),shape:(pd_op.IntArray)[1],stop_gradient:[true],sym_shape_str:"shape[1], data[S1]"} : () -> undefined_tensor<1xi32>
    (%3) = "shadow_feed(phi_kernel)" (%2) {dst_place_type:(Int32)1,kernel_key:<backend:GPU|layout:Undefined(AnyLayout)|dtype:int32>,kernel_name:"shadow_feed",op_name:"pd_op.shadow_feed",origin_id:(Int64)415} : (undefined_tensor<1xi32>) -> gpu_tensor<1xi32>
    (%4) = "data(phi_kernel)" () {dtype:(pd_op.DataType)float32,kernel_key:<backend:Undefined|layout:Undefined(AnyLayout)|dtype:float32>,kernel_name:"data",name:"_jst.2.var_2.0",op_name:"pd_op.data",origin_id:(Int64)416,place:(pd_op.Place)Place(undefined:0),shape:(pd_op.IntArray)[1,512,97,97],stop_gradient:[false],sym_shape_str:"shape[1, 512, 97, 97], data[NULL]"} : () -> undefined_tensor<1x512x97x97xf32>
    (%5) = "shadow_feed(phi_kernel)" (%4) {dst_place_type:(Int32)1,kernel_key:<backend:GPU|layout:Undefined(AnyLayout)|dtype:float32>,kernel_name:"shadow_feed",op_name:"pd_op.shadow_feed",origin_id:(Int64)417} : (undefined_tensor<1x512x97x97xf32>) -> gpu_tensor<1x512x97x97xf32>
    (%6) = "data(phi_kernel)" () {dtype:(pd_op.DataType)int32,kernel_key:<backend:Undefined|layout:Undefined(AnyLayout)|dtype:int32>,kernel_name:"data",name:"_jst.3.var_3.0",op_name:"pd_op.data",origin_id:(Int64)418,place:(pd_op.Place)Place(undefined:0),shape:(pd_op.IntArray)[4],stop_gradient:[true],sym_shape_str:"shape[4], data[S2, S3, S4, S5]"} : () -> undefined_tensor<4xi32>
    (%7) = "shadow_feed(phi_kernel)" (%6) {dst_place_type:(Int32)1,kernel_key:<backend:GPU|layout:Undefined(AnyLayout)|dtype:int32>,kernel_name:"shadow_feed",op_name:"pd_op.shadow_feed",origin_id:(Int64)419} : (undefined_tensor<4xi32>) -> gpu_tensor<4xi32>
    (%8) = "data(phi_kernel)" () {dtype:(pd_op.DataType)int32,kernel_key:<backend:Undefined|layout:Undefined(AnyLayout)|dtype:int32>,kernel_name:"data",name:"_jst.4.var_4.0",op_name:"pd_op.data",origin_id:(Int64)420,place:(pd_op.Place)Place(undefined:0),shape:(pd_op.IntArray)[1],stop_gradient:[true],sym_shape_str:"shape[1], data[S6]"} : () -> undefined_tensor<1xi32>
    (%9) = "shadow_feed(phi_kernel)" (%8) {dst_place_type:(Int32)1,kernel_key:<backend:GPU|layout:Undefined(AnyLayout)|dtype:int32>,kernel_name:"shadow_feed",op_name:"pd_op.shadow_feed",origin_id:(Int64)421} : (undefined_tensor<1xi32>) -> gpu_tensor<1xi32>
    (%10) = "data(phi_kernel)" () {dtype:(pd_op.DataType)int32,kernel_key:<backend:Undefined|layout:Undefined(AnyLayout)|dtype:int32>,kernel_name:"data",name:"_jst.5.var_5.0",op_name:"pd_op.data",origin_id:(Int64)422,place:(pd_op.Place)Place(undefined:0),shape:(pd_op.IntArray)[1],stop_gradient:[true],sym_shape_str:"shape[1], data[S7]"} : () -> undefined_tensor<1xi32>
    (%11) = "shadow_feed(phi_kernel)" (%10) {dst_place_type:(Int32)1,kernel_key:<backend:GPU|layout:Undefined(AnyLayout)|dtype:int32>,kernel_name:"shadow_feed",op_name:"pd_op.shadow_feed",origin_id:(Int64)423} : (undefined_tensor<1xi32>) -> gpu_tensor<1xi32>
    (%12) = "cast(phi_kernel)" (%1) {dtype:(pd_op.DataType)int64,kernel_key:<backend:GPU|layout:NCHW|dtype:int32>,kernel_name:"cast",op_name:"pd_op.cast",origin_id:(Int64)424,stop_gradient:[true]} : (gpu_tensor<1xi32>) -> gpu_tensor<1xi64>
    (%13) = "full_int_array(phi_kernel)" () {dtype:(pd_op.DataType)int64,kernel_key:<backend:CPU|layout:Undefined(AnyLayout)|dtype:int64>,kernel_name:"full_int_array",op_name:"pd_op.full_int_array",origin_id:(Int64)425,place:(pd_op.Place)Place(cpu),stop_gradient:[true],value:[(Int64)2]} : () -> cpu_tensor<1xi64>
    (%14) = "memcpy_h2d(phi_kernel)" (%13) {dst_place_type:(Int32)1,kernel_key:<backend:GPU|layout:NCHW|dtype:int64>,kernel_name:"memcpy_h2d",op_name:"pd_op.memcpy_h2d",origin_id:(Int64)426} : (cpu_tensor<1xi64>) -> gpu_tensor<1xi64>
    (%15) = "divide(phi_kernel)" (%12, %14) {kernel_key:<backend:GPU|layout:NCHW|dtype:int64>,kernel_name:"divide",op_name:"pd_op.divide",origin_id:(Int64)427,stop_gradient:[true]} : (gpu_tensor<1xi64>, gpu_tensor<1xi64>) -> gpu_tensor<1xi64>
    (%16) = "cast(phi_kernel)" (%15) {dtype:(pd_op.DataType)int32,kernel_key:<backend:GPU|layout:NCHW|dtype:int64>,kernel_name:"cast",op_name:"pd_op.cast",origin_id:(Int64)428,stop_gradient:[true]} : (gpu_tensor<1xi64>) -> gpu_tensor<1xi32>
    (%17) = "cast(phi_kernel)" (%1) {dtype:(pd_op.DataType)int64,kernel_key:<backend:GPU|layout:NCHW|dtype:int32>,kernel_name:"cast",op_name:"pd_op.cast",origin_id:(Int64)429,stop_gradient:[true]} : (gpu_tensor<1xi32>) -> gpu_tensor<1xi64>
    (%18) = "cast(phi_kernel)" (%1) {dtype:(pd_op.DataType)int64,kernel_key:<backend:GPU|layout:NCHW|dtype:int32>,kernel_name:"cast",op_name:"pd_op.cast",origin_id:(Int64)430,stop_gradient:[true]} : (gpu_tensor<1xi32>) -> gpu_tensor<1xi64>
    (%19) = "full_int_array(phi_kernel)" () {dtype:(pd_op.DataType)int64,kernel_key:<backend:CPU|layout:Undefined(AnyLayout)|dtype:int64>,kernel_name:"full_int_array",op_name:"pd_op.full_int_array",origin_id:(Int64)431,place:(pd_op.Place)Place(cpu),stop_gradient:[true],value:[(Int64)2]} : () -> cpu_tensor<1xi64>
    (%20) = "memcpy_h2d(phi_kernel)" (%19) {dst_place_type:(Int32)1,kernel_key:<backend:GPU|layout:NCHW|dtype:int64>,kernel_name:"memcpy_h2d",op_name:"pd_op.memcpy_h2d",origin_id:(Int64)432} : (cpu_tensor<1xi64>) -> gpu_tensor<1xi64>
    (%21) = "divide(phi_kernel)" (%18, %20) {kernel_key:<backend:GPU|layout:NCHW|dtype:int64>,kernel_name:"divide",op_name:"pd_op.divide",origin_id:(Int64)433,stop_gradient:[true]} : (gpu_tensor<1xi64>, gpu_tensor<1xi64>) -> gpu_tensor<1xi64>
    (%22) = "subtract(phi_kernel)" (%17, %21) {kernel_key:<backend:GPU|layout:NCHW|dtype:int64>,kernel_name:"subtract",op_name:"pd_op.subtract",origin_id:(Int64)434,stop_gradient:[true]} : (gpu_tensor<1xi64>, gpu_tensor<1xi64>) -> gpu_tensor<1xi64>
    (%23) = "cast(phi_kernel)" (%22) {dtype:(pd_op.DataType)int32,kernel_key:<backend:GPU|layout:NCHW|dtype:int64>,kernel_name:"cast",op_name:"pd_op.cast",origin_id:(Int64)435,stop_gradient:[true]} : (gpu_tensor<1xi64>) -> gpu_tensor<1xi32>
    (%24) = "cast(phi_kernel)" (%3) {dtype:(pd_op.DataType)int64,kernel_key:<backend:GPU|layout:NCHW|dtype:int32>,kernel_name:"cast",op_name:"pd_op.cast",origin_id:(Int64)436,stop_gradient:[true]} : (gpu_tensor<1xi32>) -> gpu_tensor<1xi64>
    (%25) = "full_int_array(phi_kernel)" () {dtype:(pd_op.DataType)int64,kernel_key:<backend:CPU|layout:Undefined(AnyLayout)|dtype:int64>,kernel_name:"full_int_array",op_name:"pd_op.full_int_array",origin_id:(Int64)437,place:(pd_op.Place)Place(cpu),stop_gradient:[true],value:[(Int64)2]} : () -> cpu_tensor<1xi64>
    (%26) = "memcpy_h2d(phi_kernel)" (%25) {dst_place_type:(Int32)1,kernel_key:<backend:GPU|layout:NCHW|dtype:int64>,kernel_name:"memcpy_h2d",op_name:"pd_op.memcpy_h2d",origin_id:(Int64)438} : (cpu_tensor<1xi64>) -> gpu_tensor<1xi64>
    (%27) = "divide(phi_kernel)" (%24, %26) {kernel_key:<backend:GPU|layout:NCHW|dtype:int64>,kernel_name:"divide",op_name:"pd_op.divide",origin_id:(Int64)439,stop_gradient:[true]} : (gpu_tensor<1xi64>, gpu_tensor<1xi64>) -> gpu_tensor<1xi64>
    (%28) = "cast(phi_kernel)" (%27) {dtype:(pd_op.DataType)int32,kernel_key:<backend:GPU|layout:NCHW|dtype:int64>,kernel_name:"cast",op_name:"pd_op.cast",origin_id:(Int64)440,stop_gradient:[true]} : (gpu_tensor<1xi64>) -> gpu_tensor<1xi32>
    (%29) = "cast(phi_kernel)" (%3) {dtype:(pd_op.DataType)int64,kernel_key:<backend:GPU|layout:NCHW|dtype:int32>,kernel_name:"cast",op_name:"pd_op.cast",origin_id:(Int64)441,stop_gradient:[true]} : (gpu_tensor<1xi32>) -> gpu_tensor<1xi64>
    (%30) = "cast(phi_kernel)" (%3) {dtype:(pd_op.DataType)int64,kernel_key:<backend:GPU|layout:NCHW|dtype:int32>,kernel_name:"cast",op_name:"pd_op.cast",origin_id:(Int64)442,stop_gradient:[true]} : (gpu_tensor<1xi32>) -> gpu_tensor<1xi64>
    (%31) = "full_int_array(phi_kernel)" () {dtype:(pd_op.DataType)int64,kernel_key:<backend:CPU|layout:Undefined(AnyLayout)|dtype:int64>,kernel_name:"full_int_array",op_name:"pd_op.full_int_array",origin_id:(Int64)443,place:(pd_op.Place)Place(cpu),stop_gradient:[true],value:[(Int64)2]} : () -> cpu_tensor<1xi64>
    (%32) = "memcpy_h2d(phi_kernel)" (%31) {dst_place_type:(Int32)1,kernel_key:<backend:GPU|layout:NCHW|dtype:int64>,kernel_name:"memcpy_h2d",op_name:"pd_op.memcpy_h2d",origin_id:(Int64)444} : (cpu_tensor<1xi64>) -> gpu_tensor<1xi64>
    (%33) = "divide(phi_kernel)" (%30, %32) {kernel_key:<backend:GPU|layout:NCHW|dtype:int64>,kernel_name:"divide",op_name:"pd_op.divide",origin_id:(Int64)445,stop_gradient:[true]} : (gpu_tensor<1xi64>, gpu_tensor<1xi64>) -> gpu_tensor<1xi64>
    (%34) = "subtract(phi_kernel)" (%29, %33) {kernel_key:<backend:GPU|layout:NCHW|dtype:int64>,kernel_name:"subtract",op_name:"pd_op.subtract",origin_id:(Int64)446,stop_gradient:[true]} : (gpu_tensor<1xi64>, gpu_tensor<1xi64>) -> gpu_tensor<1xi64>
    (%35) = "cast(phi_kernel)" (%34) {dtype:(pd_op.DataType)int32,kernel_key:<backend:GPU|layout:NCHW|dtype:int64>,kernel_name:"cast",op_name:"pd_op.cast",origin_id:(Int64)447,stop_gradient:[true]} : (gpu_tensor<1xi64>) -> gpu_tensor<1xi32>
    (%36) = "builtin.combine" (%16, %23, %28, %35) {origin_id:(Int64)389,stop_gradient:[true]} : (gpu_tensor<1xi32>, gpu_tensor<1xi32>, gpu_tensor<1xi32>, gpu_tensor<1xi32>) -> vec[gpu_tensor<1xi32>,gpu_tensor<1xi32>,gpu_tensor<1xi32>,gpu_tensor<1xi32>]
    (%37) = "full(phi_kernel)" () {dtype:(pd_op.DataType)int32,kernel_key:<backend:CPU|layout:Undefined(AnyLayout)|dtype:int32>,kernel_name:"full",op_name:"pd_op.full",origin_id:(Int64)449,place:(pd_op.Place)Place(cpu),shape:(pd_op.IntArray)[1],stop_gradient:[true],value:(Double)0} : () -> cpu_tensor<1xi32>
    (%38) = "concat(phi_kernel)" (%36, %37) {kernel_key:<backend:GPU|layout:NCHW|dtype:int32>,kernel_name:"concat",op_name:"pd_op.concat",origin_id:(Int64)450,stop_gradient:[true]} : (vec[gpu_tensor<1xi32>,gpu_tensor<1xi32>,gpu_tensor<1xi32>,gpu_tensor<1xi32>], cpu_tensor<1xi32>) -> gpu_tensor<4xi32>
    (%39) = "full(phi_kernel)" () {dtype:(pd_op.DataType)int32,kernel_key:<backend:GPU|layout:Undefined(AnyLayout)|dtype:int32>,kernel_name:"full",op_name:"pd_op.full",origin_id:(Int64)451,place:(pd_op.Place)Place(undefined:0),shape:(pd_op.IntArray)[2],stop_gradient:[true],sym_shape_str:"shape[2], data[0, 0]",value:(Double)0} : () -> gpu_tensor<2xi32>
    (%40) = "builtin.combine" (%38, %39) {origin_id:(Int64)390,stop_gradient:[true]} : (gpu_tensor<4xi32>, gpu_tensor<2xi32>) -> vec[gpu_tensor<4xi32>,gpu_tensor<2xi32>]
    (%41) = "full(phi_kernel)" () {dtype:(pd_op.DataType)int32,kernel_key:<backend:CPU|layout:Undefined(AnyLayout)|dtype:int32>,kernel_name:"full",op_name:"pd_op.full",origin_id:(Int64)453,place:(pd_op.Place)Place(cpu),shape:(pd_op.IntArray)[1],stop_gradient:[true],value:(Double)0} : () -> cpu_tensor<1xi32>
    (%42) = "concat(phi_kernel)" (%40, %41) {kernel_key:<backend:GPU|layout:NCHW|dtype:int32>,kernel_name:"concat",op_name:"pd_op.concat",origin_id:(Int64)454,stop_gradient:[true]} : (vec[gpu_tensor<4xi32>,gpu_tensor<2xi32>], cpu_tensor<1xi32>) -> gpu_tensor<6xi32>
    (%43) = "share_data_(phi_kernel)" (%42) {is_inplace:true,kernel_key:<backend:GPU|layout:NCHW|dtype:int32>,kernel_name:"share_data",op_name:"pd_op.share_data_",origin_id:(Int64)455,stop_gradient:[true]} : (gpu_tensor<6xi32>) -> gpu_tensor<6xi32>
    (%44) = "cinn_runtime.jit_kernel" (%5) {exec_backend:(pd_op.Place)Place(gpu:0),kernel_info:(0x7f46ac3c1800),origin_id:(Int64)371} : (gpu_tensor<1x512x97x97xf32>) -> gpu_tensor<1x512x1x97x97xf32>
    (%45) = "pad3d(phi_kernel)" (%44, %43) {data_format:"NCDHW",kernel_key:<backend:GPU|layout:NCHW|dtype:float32>,kernel_name:"pad3d",mode:"constant",op_name:"pd_op.pad3d",origin_id:(Int64)457,pad_value:(Float)0,stop_gradient:[false],sym_shape_str:"shape[1, 512, 1, Add(S1, 97), Add(S0, 97)], data[NULL]"} : (gpu_tensor<1x512x1x97x97xf32>, gpu_tensor<6xi32>) -> gpu_tensor<1x512x-1x-1x-1xf32>
    (%46) = "cinn_runtime.jit_kernel" (%7, %9, %11, %45) {exec_backend:(pd_op.Place)Place(gpu:0),kernel_info:(0x7f46a4bc1800),origin_id:(Int64)372} : (gpu_tensor<4xi32>, gpu_tensor<1xi32>, gpu_tensor<1xi32>, gpu_tensor<1x512x-1x-1x-1xf32>) -> gpu_tensor<-1x512x-1x-1xf32>
    () = "builtin.shadow_output" (%46) {origin_id:(Int64)231,output_name:"output_0",sym_shape_str:"shape[Mul(S3, 1 / (8)), 512, S6, S7], data[NULL]"} : (gpu_tensor<-1x512x-1x-1xf32>) -> 
}

IR After inplace -------------------
{
    (%0) = "data(phi_kernel)" () {dtype:(pd_op.DataType)int32,kernel_key:<backend:Undefined|layout:Undefined(AnyLayout)|dtype:int32>,kernel_name:"data",name:"_jst.0.var_0.0",op_name:"pd_op.data",origin_id:(Int64)412,place:(pd_op.Place)Place(undefined:0),shape:(pd_op.IntArray)[1],stop_gradient:[true],sym_shape_str:"shape[1], data[S0]"} : () -> undefined_tensor<1xi32>
    (%1) = "shadow_feed(phi_kernel)" (%0) {dst_place_type:(Int32)1,kernel_key:<backend:GPU|layout:Undefined(AnyLayout)|dtype:int32>,kernel_name:"shadow_feed",op_name:"pd_op.shadow_feed",origin_id:(Int64)413} : (undefined_tensor<1xi32>) -> gpu_tensor<1xi32>
    (%2) = "data(phi_kernel)" () {dtype:(pd_op.DataType)int32,kernel_key:<backend:Undefined|layout:Undefined(AnyLayout)|dtype:int32>,kernel_name:"data",name:"_jst.1.var_1.0",op_name:"pd_op.data",origin_id:(Int64)414,place:(pd_op.Place)Place(undefined:0),shape:(pd_op.IntArray)[1],stop_gradient:[true],sym_shape_str:"shape[1], data[S1]"} : () -> undefined_tensor<1xi32>
    (%3) = "shadow_feed(phi_kernel)" (%2) {dst_place_type:(Int32)1,kernel_key:<backend:GPU|layout:Undefined(AnyLayout)|dtype:int32>,kernel_name:"shadow_feed",op_name:"pd_op.shadow_feed",origin_id:(Int64)415} : (undefined_tensor<1xi32>) -> gpu_tensor<1xi32>
    (%4) = "data(phi_kernel)" () {dtype:(pd_op.DataType)float32,kernel_key:<backend:Undefined|layout:Undefined(AnyLayout)|dtype:float32>,kernel_name:"data",name:"_jst.2.var_2.0",op_name:"pd_op.data",origin_id:(Int64)416,place:(pd_op.Place)Place(undefined:0),shape:(pd_op.IntArray)[1,512,97,97],stop_gradient:[false],sym_shape_str:"shape[1, 512, 97, 97], data[NULL]"} : () -> undefined_tensor<1x512x97x97xf32>
    (%5) = "shadow_feed(phi_kernel)" (%4) {dst_place_type:(Int32)1,kernel_key:<backend:GPU|layout:Undefined(AnyLayout)|dtype:float32>,kernel_name:"shadow_feed",op_name:"pd_op.shadow_feed",origin_id:(Int64)417} : (undefined_tensor<1x512x97x97xf32>) -> gpu_tensor<1x512x97x97xf32>
    (%6) = "data(phi_kernel)" () {dtype:(pd_op.DataType)int32,kernel_key:<backend:Undefined|layout:Undefined(AnyLayout)|dtype:int32>,kernel_name:"data",name:"_jst.3.var_3.0",op_name:"pd_op.data",origin_id:(Int64)418,place:(pd_op.Place)Place(undefined:0),shape:(pd_op.IntArray)[4],stop_gradient:[true],sym_shape_str:"shape[4], data[S2, S3, S4, S5]"} : () -> undefined_tensor<4xi32>
    (%7) = "shadow_feed(phi_kernel)" (%6) {dst_place_type:(Int32)1,kernel_key:<backend:GPU|layout:Undefined(AnyLayout)|dtype:int32>,kernel_name:"shadow_feed",op_name:"pd_op.shadow_feed",origin_id:(Int64)419} : (undefined_tensor<4xi32>) -> gpu_tensor<4xi32>
    (%8) = "data(phi_kernel)" () {dtype:(pd_op.DataType)int32,kernel_key:<backend:Undefined|layout:Undefined(AnyLayout)|dtype:int32>,kernel_name:"data",name:"_jst.4.var_4.0",op_name:"pd_op.data",origin_id:(Int64)420,place:(pd_op.Place)Place(undefined:0),shape:(pd_op.IntArray)[1],stop_gradient:[true],sym_shape_str:"shape[1], data[S6]"} : () -> undefined_tensor<1xi32>
    (%9) = "shadow_feed(phi_kernel)" (%8) {dst_place_type:(Int32)1,kernel_key:<backend:GPU|layout:Undefined(AnyLayout)|dtype:int32>,kernel_name:"shadow_feed",op_name:"pd_op.shadow_feed",origin_id:(Int64)421} : (undefined_tensor<1xi32>) -> gpu_tensor<1xi32>
    (%10) = "data(phi_kernel)" () {dtype:(pd_op.DataType)int32,kernel_key:<backend:Undefined|layout:Undefined(AnyLayout)|dtype:int32>,kernel_name:"data",name:"_jst.5.var_5.0",op_name:"pd_op.data",origin_id:(Int64)422,place:(pd_op.Place)Place(undefined:0),shape:(pd_op.IntArray)[1],stop_gradient:[true],sym_shape_str:"shape[1], data[S7]"} : () -> undefined_tensor<1xi32>
    (%11) = "shadow_feed(phi_kernel)" (%10) {dst_place_type:(Int32)1,kernel_key:<backend:GPU|layout:Undefined(AnyLayout)|dtype:int32>,kernel_name:"shadow_feed",op_name:"pd_op.shadow_feed",origin_id:(Int64)423} : (undefined_tensor<1xi32>) -> gpu_tensor<1xi32>
    (%12) = "cast(phi_kernel)" (%1) {dtype:(pd_op.DataType)int64,kernel_key:<backend:GPU|layout:NCHW|dtype:int32>,kernel_name:"cast",op_name:"pd_op.cast",origin_id:(Int64)424,stop_gradient:[true]} : (gpu_tensor<1xi32>) -> gpu_tensor<1xi64>
    (%13) = "full_int_array(phi_kernel)" () {dtype:(pd_op.DataType)int64,kernel_key:<backend:CPU|layout:Undefined(AnyLayout)|dtype:int64>,kernel_name:"full_int_array",op_name:"pd_op.full_int_array",origin_id:(Int64)425,place:(pd_op.Place)Place(cpu),stop_gradient:[true],value:[(Int64)2]} : () -> cpu_tensor<1xi64>
    (%14) = "memcpy_h2d(phi_kernel)" (%13) {dst_place_type:(Int32)1,kernel_key:<backend:GPU|layout:NCHW|dtype:int64>,kernel_name:"memcpy_h2d",op_name:"pd_op.memcpy_h2d",origin_id:(Int64)426} : (cpu_tensor<1xi64>) -> gpu_tensor<1xi64>
    (%15) = "divide_(phi_kernel)" (%12, %14) {is_inplace:true,kernel_key:<backend:GPU|layout:NCHW|dtype:int64>,kernel_name:"divide",op_name:"pd_op.divide_",origin_id:(Int64)427,stop_gradient:[true]} : (gpu_tensor<1xi64>, gpu_tensor<1xi64>) -> gpu_tensor<1xi64>
    (%16) = "cast(phi_kernel)" (%15) {dtype:(pd_op.DataType)int32,kernel_key:<backend:GPU|layout:NCHW|dtype:int64>,kernel_name:"cast",op_name:"pd_op.cast",origin_id:(Int64)428,stop_gradient:[true]} : (gpu_tensor<1xi64>) -> gpu_tensor<1xi32>
    (%17) = "cast(phi_kernel)" (%1) {dtype:(pd_op.DataType)int64,kernel_key:<backend:GPU|layout:NCHW|dtype:int32>,kernel_name:"cast",op_name:"pd_op.cast",origin_id:(Int64)429,stop_gradient:[true]} : (gpu_tensor<1xi32>) -> gpu_tensor<1xi64>
    (%18) = "cast(phi_kernel)" (%1) {dtype:(pd_op.DataType)int64,kernel_key:<backend:GPU|layout:NCHW|dtype:int32>,kernel_name:"cast",op_name:"pd_op.cast",origin_id:(Int64)430,stop_gradient:[true]} : (gpu_tensor<1xi32>) -> gpu_tensor<1xi64>
    (%19) = "full_int_array(phi_kernel)" () {dtype:(pd_op.DataType)int64,kernel_key:<backend:CPU|layout:Undefined(AnyLayout)|dtype:int64>,kernel_name:"full_int_array",op_name:"pd_op.full_int_array",origin_id:(Int64)431,place:(pd_op.Place)Place(cpu),stop_gradient:[true],value:[(Int64)2]} : () -> cpu_tensor<1xi64>
    (%20) = "memcpy_h2d(phi_kernel)" (%19) {dst_place_type:(Int32)1,kernel_key:<backend:GPU|layout:NCHW|dtype:int64>,kernel_name:"memcpy_h2d",op_name:"pd_op.memcpy_h2d",origin_id:(Int64)432} : (cpu_tensor<1xi64>) -> gpu_tensor<1xi64>
    (%21) = "divide_(phi_kernel)" (%18, %20) {is_inplace:true,kernel_key:<backend:GPU|layout:NCHW|dtype:int64>,kernel_name:"divide",op_name:"pd_op.divide_",origin_id:(Int64)433,stop_gradient:[true]} : (gpu_tensor<1xi64>, gpu_tensor<1xi64>) -> gpu_tensor<1xi64>
    (%22) = "subtract_(phi_kernel)" (%17, %21) {is_inplace:true,kernel_key:<backend:GPU|layout:NCHW|dtype:int64>,kernel_name:"subtract",op_name:"pd_op.subtract_",origin_id:(Int64)434,stop_gradient:[true]} : (gpu_tensor<1xi64>, gpu_tensor<1xi64>) -> gpu_tensor<1xi64>
    (%23) = "cast(phi_kernel)" (%22) {dtype:(pd_op.DataType)int32,kernel_key:<backend:GPU|layout:NCHW|dtype:int64>,kernel_name:"cast",op_name:"pd_op.cast",origin_id:(Int64)435,stop_gradient:[true]} : (gpu_tensor<1xi64>) -> gpu_tensor<1xi32>
    (%24) = "cast(phi_kernel)" (%3) {dtype:(pd_op.DataType)int64,kernel_key:<backend:GPU|layout:NCHW|dtype:int32>,kernel_name:"cast",op_name:"pd_op.cast",origin_id:(Int64)436,stop_gradient:[true]} : (gpu_tensor<1xi32>) -> gpu_tensor<1xi64>
    (%25) = "full_int_array(phi_kernel)" () {dtype:(pd_op.DataType)int64,kernel_key:<backend:CPU|layout:Undefined(AnyLayout)|dtype:int64>,kernel_name:"full_int_array",op_name:"pd_op.full_int_array",origin_id:(Int64)437,place:(pd_op.Place)Place(cpu),stop_gradient:[true],value:[(Int64)2]} : () -> cpu_tensor<1xi64>
    (%26) = "memcpy_h2d(phi_kernel)" (%25) {dst_place_type:(Int32)1,kernel_key:<backend:GPU|layout:NCHW|dtype:int64>,kernel_name:"memcpy_h2d",op_name:"pd_op.memcpy_h2d",origin_id:(Int64)438} : (cpu_tensor<1xi64>) -> gpu_tensor<1xi64>
    (%27) = "divide_(phi_kernel)" (%24, %26) {is_inplace:true,kernel_key:<backend:GPU|layout:NCHW|dtype:int64>,kernel_name:"divide",op_name:"pd_op.divide_",origin_id:(Int64)439,stop_gradient:[true]} : (gpu_tensor<1xi64>, gpu_tensor<1xi64>) -> gpu_tensor<1xi64>
    (%28) = "cast(phi_kernel)" (%27) {dtype:(pd_op.DataType)int32,kernel_key:<backend:GPU|layout:NCHW|dtype:int64>,kernel_name:"cast",op_name:"pd_op.cast",origin_id:(Int64)440,stop_gradient:[true]} : (gpu_tensor<1xi64>) -> gpu_tensor<1xi32>
    (%29) = "cast(phi_kernel)" (%3) {dtype:(pd_op.DataType)int64,kernel_key:<backend:GPU|layout:NCHW|dtype:int32>,kernel_name:"cast",op_name:"pd_op.cast",origin_id:(Int64)441,stop_gradient:[true]} : (gpu_tensor<1xi32>) -> gpu_tensor<1xi64>
    (%30) = "cast(phi_kernel)" (%3) {dtype:(pd_op.DataType)int64,kernel_key:<backend:GPU|layout:NCHW|dtype:int32>,kernel_name:"cast",op_name:"pd_op.cast",origin_id:(Int64)442,stop_gradient:[true]} : (gpu_tensor<1xi32>) -> gpu_tensor<1xi64>
    (%31) = "full_int_array(phi_kernel)" () {dtype:(pd_op.DataType)int64,kernel_key:<backend:CPU|layout:Undefined(AnyLayout)|dtype:int64>,kernel_name:"full_int_array",op_name:"pd_op.full_int_array",origin_id:(Int64)443,place:(pd_op.Place)Place(cpu),stop_gradient:[true],value:[(Int64)2]} : () -> cpu_tensor<1xi64>
    (%32) = "memcpy_h2d(phi_kernel)" (%31) {dst_place_type:(Int32)1,kernel_key:<backend:GPU|layout:NCHW|dtype:int64>,kernel_name:"memcpy_h2d",op_name:"pd_op.memcpy_h2d",origin_id:(Int64)444} : (cpu_tensor<1xi64>) -> gpu_tensor<1xi64>
    (%33) = "divide_(phi_kernel)" (%30, %32) {is_inplace:true,kernel_key:<backend:GPU|layout:NCHW|dtype:int64>,kernel_name:"divide",op_name:"pd_op.divide_",origin_id:(Int64)445,stop_gradient:[true]} : (gpu_tensor<1xi64>, gpu_tensor<1xi64>) -> gpu_tensor<1xi64>
    (%34) = "subtract_(phi_kernel)" (%29, %33) {is_inplace:true,kernel_key:<backend:GPU|layout:NCHW|dtype:int64>,kernel_name:"subtract",op_name:"pd_op.subtract_",origin_id:(Int64)446,stop_gradient:[true]} : (gpu_tensor<1xi64>, gpu_tensor<1xi64>) -> gpu_tensor<1xi64>
    (%35) = "cast(phi_kernel)" (%34) {dtype:(pd_op.DataType)int32,kernel_key:<backend:GPU|layout:NCHW|dtype:int64>,kernel_name:"cast",op_name:"pd_op.cast",origin_id:(Int64)447,stop_gradient:[true]} : (gpu_tensor<1xi64>) -> gpu_tensor<1xi32>
    (%36) = "builtin.combine" (%16, %23, %28, %35) {origin_id:(Int64)389,stop_gradient:[true]} : (gpu_tensor<1xi32>, gpu_tensor<1xi32>, gpu_tensor<1xi32>, gpu_tensor<1xi32>) -> vec[gpu_tensor<1xi32>,gpu_tensor<1xi32>,gpu_tensor<1xi32>,gpu_tensor<1xi32>]
    (%37) = "full(phi_kernel)" () {dtype:(pd_op.DataType)int32,kernel_key:<backend:CPU|layout:Undefined(AnyLayout)|dtype:int32>,kernel_name:"full",op_name:"pd_op.full",origin_id:(Int64)449,place:(pd_op.Place)Place(cpu),shape:(pd_op.IntArray)[1],stop_gradient:[true],value:(Double)0} : () -> cpu_tensor<1xi32>
    (%38) = "concat(phi_kernel)" (%36, %37) {kernel_key:<backend:GPU|layout:NCHW|dtype:int32>,kernel_name:"concat",op_name:"pd_op.concat",origin_id:(Int64)450,stop_gradient:[true]} : (vec[gpu_tensor<1xi32>,gpu_tensor<1xi32>,gpu_tensor<1xi32>,gpu_tensor<1xi32>], cpu_tensor<1xi32>) -> gpu_tensor<4xi32>
    (%39) = "full(phi_kernel)" () {dtype:(pd_op.DataType)int32,kernel_key:<backend:GPU|layout:Undefined(AnyLayout)|dtype:int32>,kernel_name:"full",op_name:"pd_op.full",origin_id:(Int64)451,place:(pd_op.Place)Place(undefined:0),shape:(pd_op.IntArray)[2],stop_gradient:[true],sym_shape_str:"shape[2], data[0, 0]",value:(Double)0} : () -> gpu_tensor<2xi32>
    (%40) = "builtin.combine" (%38, %39) {origin_id:(Int64)390,stop_gradient:[true]} : (gpu_tensor<4xi32>, gpu_tensor<2xi32>) -> vec[gpu_tensor<4xi32>,gpu_tensor<2xi32>]
    (%41) = "full(phi_kernel)" () {dtype:(pd_op.DataType)int32,kernel_key:<backend:CPU|layout:Undefined(AnyLayout)|dtype:int32>,kernel_name:"full",op_name:"pd_op.full",origin_id:(Int64)453,place:(pd_op.Place)Place(cpu),shape:(pd_op.IntArray)[1],stop_gradient:[true],value:(Double)0} : () -> cpu_tensor<1xi32>
    (%42) = "concat(phi_kernel)" (%40, %41) {kernel_key:<backend:GPU|layout:NCHW|dtype:int32>,kernel_name:"concat",op_name:"pd_op.concat",origin_id:(Int64)454,stop_gradient:[true]} : (vec[gpu_tensor<4xi32>,gpu_tensor<2xi32>], cpu_tensor<1xi32>) -> gpu_tensor<6xi32>
    (%43) = "share_data_(phi_kernel)" (%42) {is_inplace:true,kernel_key:<backend:GPU|layout:NCHW|dtype:int32>,kernel_name:"share_data",op_name:"pd_op.share_data_",origin_id:(Int64)455,stop_gradient:[true]} : (gpu_tensor<6xi32>) -> gpu_tensor<6xi32>
    (%44) = "cinn_runtime.jit_kernel" (%5) {exec_backend:(pd_op.Place)Place(gpu:0),kernel_info:(0x7f46ac3c1800),origin_id:(Int64)371} : (gpu_tensor<1x512x97x97xf32>) -> gpu_tensor<1x512x1x97x97xf32>
    (%45) = "pad3d(phi_kernel)" (%44, %43) {data_format:"NCDHW",kernel_key:<backend:GPU|layout:NCHW|dtype:float32>,kernel_name:"pad3d",mode:"constant",op_name:"pd_op.pad3d",origin_id:(Int64)457,pad_value:(Float)0,stop_gradient:[false],sym_shape_str:"shape[1, 512, 1, Add(S1, 97), Add(S0, 97)], data[NULL]"} : (gpu_tensor<1x512x1x97x97xf32>, gpu_tensor<6xi32>) -> gpu_tensor<1x512x-1x-1x-1xf32>
    (%46) = "cinn_runtime.jit_kernel" (%7, %9, %11, %45) {exec_backend:(pd_op.Place)Place(gpu:0),kernel_info:(0x7f46a4bc1800),origin_id:(Int64)372} : (gpu_tensor<4xi32>, gpu_tensor<1xi32>, gpu_tensor<1xi32>, gpu_tensor<1x512x-1x-1x-1xf32>) -> gpu_tensor<-1x512x-1x-1xf32>
    () = "builtin.shadow_output" (%46) {origin_id:(Int64)231,output_name:"output_0",sym_shape_str:"shape[Mul(S3, 1 / (8)), 512, S6, S7], data[NULL]"} : (gpu_tensor<-1x512x-1x-1xf32>) -> 
}

I1105 12:58:14.871553 983782 pir_interpreter.cc:1570] New Executor is Running ...
I1105 12:58:14.873692 983782 pir_interpreter.cc:1594] pir interpreter is running by multi-thread mode ...
2024-11-05 12:58:14,876-PaddleLT-[INFO] ===> dy2st_eval_cinn 和 dy_eval 精度(precision)对比验证开始
2024-11-05 12:58:15,033-PaddleLT-[INFO] ===> dy2st_eval_cinn 和 dy_eval 精度对比通过~~~
2024-11-05 12:58:15,033-PaddleLT-[INFO] ===> 用例 ooooo 多执行器输出对比最终结果: [{'待测事项': 'dy2st_eval_cinn', '基线事项': 'dy_eval', 'precision': 'passed'}]
all prim enabled:  True
all prim enabled:  True
all prim enabled:  True
all prim enabled:  True
